data/multiagent/checkpoint_actor_{i}.pth (torch, 169397 bytes, 20 tensors)

fc1.weight f4 [256, 24]
0.05172856 0.0075357584 0.03583939 -0.053427126 0.0006502435 -0.06385066 0.04038396 0.023582876
0.024266867 0.0451094 -0.02914659 -0.04439259 0.078810394 -0.13183728 0.032908905 0.0088047935
-0.04261525 -0.082020104 -0.03196744 0.013757475 0.10958655 -0.09532628 0.033435594 -0.0314111
0.121993616 0.09018795 0.007364202 0.09769856 -0.07081102 -0.041108105 0.015881862 0.0049417173
0.15067871 0.08060948 0.021289557 0.023295885 -0.13801019 -0.034107007 -0.026130524 0.033356845
0.152422 0.034677982 -0.02742509 0.025224108 -0.03840258 0.04774318 0.017788384 -0.013092467
0.0016972603 0.18047518 0.044910252 -0.0041208505 -0.06404021 0.03239047 -0.03785415 -0.058078654
0.069293015 0.15580332 -0.0073856213 -0.057450794 -0.018946724 0.048017167 0.011798686 -0.03761463
0.05708045 0.12843372 -0.05870426 0.04571617 -0.008451994 0.08323399 -0.012323825 0.12083956
-0.00851829 0.07028629 -0.013815271 -0.0077181607 -0.051832136 0.07809117 0.010004343 -0.014678603
-0.005688424 0.05300218 -0.02181121 -0.016699657 0.13841343 -0.01123759 0.01663737 0.055146936
0.07348049 0.060859315 -0.049440667 -0.007751001 0.35470477 0.028885026 0.04704143 0.021805925
0.04970319 0.01338575 0.066390835 0.011763633 0.062147103 -0.13845795 -0.039352782 -0.060471565
-0.012644053 -0.015255701 0.020688435 -0.08238189 0.10333722 0.11113409 0.04267229 -0.015070778
0.041167255 0.012636297 -0.017744664 -0.04771465 0.0025540094 0.14865763 0.02089873 0.02053893
0.060227863 0.05877632 -0.019239288 0.0109672565 -0.042756427 -0.03408808 0.05897441 0.02919567
0.030735072 0.071053125 -0.025876828 -0.12578076 -0.094417684 -0.04278796 0.04171804 -0.09980599
0.056472193 -0.10299323 0.030557282 -0.02308776 0.035957128 0.043810196 0.038798943 -0.049283545
-0.07590486 0.2074026 -0.007058984 -0.03327162 0.030530993 -0.024359886 0.020387754 0.056265503
0.04572046 0.18095468 -0.021025682 -0.0017342148 -0.01941586 -0.025158647 -0.042269133 0.006501967
-0.00060084177 0.18174516 -0.0032356246 -0.0049928473 0.052538402 -0.19364592 -0.005288998 0.025772763
-0.032039113 -0.17521065 -0.031162536 0.04549121 -0.09788913 0.07854628 -0.003250833 -0.00032169535
0.016258629 -0.043237172 -0.05192864 0.058215033 -0.07989121 0.07960914 -0.03851729 0.06572223
0.075834446 -0.060896378 -0.0012458793 0.029179385 -0.038836636 0.087654896 0.075302064 0.009691127
-0.12558827 0.054062802 0.1068399 0.051688097 -0.035685077 0.010826014 0.109293915 0.026324693
0.0043885037 0.056455392 0.04128001 -0.032258358 0.018720325 0.031037973 0.061493363 -0.007515806
0.065714486 0.030549042 0.035170346 0.038327888 -0.014595078 0.06403881 -0.042511426 -0.027944535
0.053353738 0.0028486787 0.0061350884 -0.050801463 0.013294234 0.09503849 -0.0020399487 -0.033211462
-0.05040325 -0.11423474 -0.00033629648 -0.057300832 0.020656858 0.1352907 -0.04560518 -0.12759914
0.035072017 -0.18489088 -0.0846529 0.044049364 0.027961113 -0.0029761146 0.012300272 0.017928008
-0.006252695 0.030631302 0.008211432 -0.053447764 -0.016248135 0.14238234 -0.034166668 0.002322479
0.06463076 0.028014122 0.014810176 0.008708496 0.12411494 0.055300828 -0.026554363 0.030191686
00000000: 54e1 533d 86ee f63b 53cc 123d 67d6 5abd
00000010: 1a75 2a3a 23c4 82bd a769 253d e030 c13c
00000020: 4fcb c63c a2c4 383d d4c4 eebc 01d5 35bd
00000030: 5867 a13d 5a00 07be 7dcb 063d fb41 103c
00000040: 548d 2ebd 28fa a7bd 4af0 02bd 0867 613c
00000050: ea6e e03d 6d3a c3bd c3f3 083d eda8 00bd
00000060: cad7 f93d 76b4 b83d 674f f13b 2f16 c83d
00000070: 5e05 91bd f960 28bd ae1a 823c 21ee a13b
00000080: 854b 1a3e 9516 a53d 7067 ae3c 03d7 be3c
00000090: 8b52 0dbe cab3 0bbd ae0f d6bc 30a1 083d
000000a0: 8314 1c3e 800a 0e3d 95aa e0bc caa2 ce3c
000000b0: 064c 1dbd 5a8e 433d f2b8 913c c981 56bc
000000c0: 9b76 de3a 7cce 383e d0f3 373d 3308 87bb
000000d0: 8327 83bd dfab 043d f40c 1bbd e2e3 6dbd
000000e0: 7fe9 8d3d e88a 1f3e 1503 f2bb 8651 6bbd
000000f0: 2936 9bbc a6ad 443d 474f 413c cc11 1abd
00000100: 31cd 693d 2184 033e e173 70bd e140 3b3d
00000110: 3b7a 0abc 9576 aa3d dee9 49bc bb7a f73d
00000120: 4c90 0bbc 42f2 8f3d 7259 62bc a0e8 fcbb
00000130: ef4d 54bd 43ee 9f3d 42e9 233c 867e 70bc
00000140: f665 babb d018 593d 6cad b2bc b8cd 88bc
00000150: 40bc 0d3e de1d 38bc 184b 883c c1e1 613d
00000160: f07c 963d 9e47 793d 4c82 4abd 1cfc fdbb
00000170: dd9b b53e 4aa0 ec3c 84ae 403d 57a2 b23c
00000180: 9295 4b3d e84f 5b3c ebf7 873d 41bc 403c
00000190: f68d 7e3d ecc7 0dbe 6230 21bd 08b1 77bd
000001a0: 0129 4fbc 0cf3 79bc cb7a a93c d6b7 a8bd
000001b0: 77a2 d33d 459a e33d 24c9 2e3d 6deb 76bc
000001c0: ff9e 283d 7908 4f3c 425d 91bc 7070 43bd
000001d0: 2b61 273b b539 183e d033 ab3c 4241 a83c
000001e0: 7eb1 763d 70bf 703d b69b 9dbc 02b0 333c
000001f0: 5d21 2fbd f19f 0bbd 278f 713d c22b ef3c
00000200: 1ec8 fb3c 4d84 913d a4fb d3bc accc 00be
00000210: 0f5e c1bd 6e42 2fbd 89e0 2a3d 1567 ccbd
00000220: 634f 673d 1dee d2bd 4453 fa3c 8b22 bdbc
00000230: c847 133d 5272 333d a4eb 1e3d 8bdd 49bd
00000240: 0274 9bbd 5961 543e 0d4f e7bb d247 08bd
00000250: 221c fa3c 628e c7bc 3804 a73c a876 663d
00000260: 6145 3b3d 2f4c 393e 0d3e acbc 984e e3ba
00000270: 020e 9fbc 8219 cebc 6622 2dbd 740e d53b
00000280: cf81 1dba 671b 3a3e c60c 54bb 0a9b a3bb
00000290: 8232 573d 1e4b 46be 554f adbb 6721 d33c
000002a0: 723b 03bd 6c6a 33be 9348 ffbc fe54 3a3d
000002b0: 197a c8bd dfdc a03d ed0b 55bb 38a9 a8b9
000002c0: d130 853c 7619 31bd 20b3 54bd e372 6e3d
000002d0: 019e a3bd 1e0a a33d 4ec4 1dbd 6099 863d
000002e0: 174f 9b3d 7b6e 79bd c64c a3ba 9b09 ef3c
000002f0: 2a13 1fbd 6984 b33d f837 9a3d 88c7 1e3c
00000300: 369a 00be f570 5d3d e1ce da3d e6b6 533d
00000310: 842a 12bd 985f 313c 7dd5 df3d e2a6 d73c
00000320: 70cd 8f3b c53d 673d 3a15 293d 5721 04bd
00000330: 5e5b 993c 5943 fe3c 77e0 7b3d 2647 f6bb
00000340: 5195 863d fc41 fa3c c80e 103d b4fd 1c3d
00000350: 3220 6fbc c826 833d 7620 2ebd f0eb e4bc
00000360: 7389 5a3d e6b0 3a3b da08 c93b 3215 50bd
00000370: 0fd0 593c 8aa3 c23d a9b0 05bb be08 08bd
00000380: a373 4ebd e7f3 e9bd f350 b0b9 47b4 6abd
00000390: 9238 a93c a589 0a3e 7fcc 3abd 59a9 02be
000003a0: ada7 0f3d 0954 3dbe 805e adbd 1b6d 343d
000003b0: b40e e53c eb0a 43bb 1487 493c c2dd 923c
000003c0: 68e3 ccbb 7fee fa3c 3e89 063c 0bec 5abd
000003d0: cf1a 85bc adcc 113e 59f2 0bbd bb34 183b
000003e0: 225d 843d df7d e53c 61a6 723c 14ae 0e3c
000003f0: f92f fe3d 1f83 623d 8988 d9bc 8e54 f73c

fc1.bias f4 [256]
-0.03505511 0.028474815 0.07411323 -0.031133668 -0.050306432 -0.2534699 -0.2556471 -0.010209558
-0.15308796 -0.17469427 0.09233488 -0.016934007 0.08751601 -0.2014578 -0.033838198 0.21299505
0.002075628 -0.018523742 -0.08453319 -0.15744422 0.11403426 -0.23245855 0.0015779821 -0.20103161
0.00011302718 -0.21593148 -0.005584456 -0.0986583 -0.21068199 -0.080575556 -0.14336538 -0.07877504
-0.037543356 -0.025663124 -0.13700724 0.099753015 -0.18811154 0.105011046 -0.18884148 0.05718355
-0.12164661 -0.1689024 -0.1160298 -0.11235296 -0.106800586 -0.14042956 -0.14088535 -0.1945619
0.24682024 0.08921371 -0.13154106 0.116537094 -0.13669346 -0.31880853 0.003013839 -0.104041964
0.17430258 -0.23502383 -0.24135612 0.09545873 -0.006881955 0.07791362 -0.059840143 -0.1942518
0.051464953 -0.03461086 -0.15772662 0.13612273 -0.20980035 -0.15496513 -0.10435428 -0.17599335
-0.22192697 -0.15420167 -0.060809184 0.13296753 0.043453332 -0.06521844 0.018441863 0.034137283
-0.0156120565 -0.15207106 -0.21052468 -0.18709011 0.062188607 -0.099183634 -0.17746496 0.037384678
-0.2037613 0.037925597 -0.07874714 0.0643621 -0.09467931 0.18341717 -0.15413854 -0.18345043
0.06366176 -0.16633157 0.21870421 0.010910067 0.025190618 -0.039987367 0.002478335 -0.062070828
-0.1491396 0.13735555 0.011700622 -0.07035309 0.030827241 -0.111727975 -0.049326554 -0.19456758
-0.14593744 -0.20770214 -0.04384342 0.13782942 0.12516822 -0.2488948 -0.16637169 0.117246754
-0.13846597 -0.04657704 0.07643512 0.07991438 0.026297482 -0.0292049 0.005169038 0.014474618
0.06931425 -0.16945338 -0.21766075 0.13899708 -0.14324813 0.09301156 0.14148115 0.103952065
0.045479212 -0.008565195 0.037898004 0.022640057 0.052486364 -0.20179957 0.078081265 0.040655337
0.10426998 -0.23236725 -0.06108652 -0.18018012 -0.073482595 0.20708965 0.0302215 0.16565907
0.18461317 -0.18160482 0.13064139 -0.08132077 0.15033336 0.032243367 -0.047088977 0.02661356
-0.21903059 -0.04497069 -0.015442012 -0.09324222 -0.092439935 0.21709132 -0.035116497 0.072327614
0.041906636 0.19541627 0.07555629 -0.14570704 -0.3448374 -0.20821935 -0.23216273 -0.20086394
-0.026492758 0.083734825 -0.14939873 0.0944887 -0.11057077 0.19200909 0.10166012 0.0697452
0.1103752 -0.14281766 -0.19100991 -0.1374094 -0.21451753 0.12669866 0.03583031 0.07554667
-0.06991257 -0.17813909 0.21587177 -0.10008944 -0.19764893 0.036556512 0.15585485 0.087499246
0.01871072 -0.06971977 -0.0024575708 -0.05451156 0.17181498 0.20550267 -0.12473019 0.14354672
-0.06506705 -0.2808392 -0.027832389 -0.06839586 0.13539983 -0.00037273354 -0.061217874 -0.19370028
0.10171863 0.13547988 -0.025758434 -0.029735561 -0.09082185 0.01285904 0.2324107 -0.05637392
-0.071961254 -0.20733875 0.10746428 -0.09934825 -0.054308284 -0.055295136 0.14286958 0.07267931
-0.1265562 -0.16143769 -0.007453741 0.15810002 -0.08853422 0.07831541 -0.0782674 0.17820434
-0.07632975 -0.14841905 0.11796984 -0.13772489 -0.1233565 0.10996351 -0.10949434 -0.11428466
-0.06631307 -0.15090285 -0.2086826 -0.18905236 0.14914417 0.1570627 -0.18154378 0.10116772
00000000: f295 0fbd 0444 e93c adc8 973d 090c ffbc
00000010: 1e0e 4ebd cfc6 81be 2de4 82be fd45 27bc
00000020: 17c3 1cbe 0ee3 32be 121a bd3d 30b9 8abc
00000030: 983b b33d f44a 4ebe ec99 0abd 601b 5a3e
00000040: 4207 083b 1abf 97bc bd1f adbd 0f39 21be
00000050: cb8a e93d 9d09 6ebe 4bd4 ce3a 3bdb 4dbe
00000060: 0109 ed38 241d 5dbe d0fd b6bb 5d0d cabd
00000070: 05bd 57be cc04 a5bd 60ce 12be cf54 a1bd
00000080: 10c7 19bd 793b d2bc a04b 0cbe 4f4b cc3d
00000090: 50a0 40be 0810 d73d a95f 41be 4c39 6a3d
000000a0: dc21 f9bd c0f4 2cbe 08a1 edbd 4f19 e6bd
000000b0: 44ba dabd c4cc 0fbe 4044 10be 3c3b 47be
000000c0: 72be 7c3e adb5 b63d b3b2 06be 00ab ee3d
000000d0: 5ff9 0bbe df3a a3be d483 453b f413 d5bd
000000e0: 607c 323e 16aa 70be 0f26 77be de7f c33d
000000f0: 0682 e1bb 2d91 9f3d f01a 75bd f2e9 46be
00000100: eacc 523d 1ec4 0dbd 1683 21be c263 0b3e
00000110: e7d5 56be 2eaf 1ebe b2b7 d5bd 9a37 34be
00000120: d340 63be 0be7 1dbe 0d13 79bd a428 083e
00000130: 1ffc 313d 3f91 85bd 6413 973c 89d3 0b3d
00000140: b6c9 7fbc 84b8 1bbe c893 57be 8d94 3fbe
00000150: 7bb9 7e3d ca20 cbbd 60b9 35be ad20 193d
00000160: cda6 50be df57 1b3d 2e46 a1bd 47d0 833d
00000170: 3ae7 c1bd b6d1 3b3e 7ed6 1dbe 6eda 3bbe
00000180: 1961 823d d352 2abe fff3 5f3e 23c0 323c
00000190: 8e5c ce3c cbc9 23bd 906b 223b fb3d 7ebd
000001a0: 0db8 18be efa6 0c3e f7b3 3f3c 4815 90bd
000001b0: 6989 fc3c a3d1 e4bd a40a 4abd b93c 47be
000001c0: a070 15be dfaf 54be 2895 33bd 2823 0d3e
000001d0: 192c 003e 47de 7ebe 575d 2abe 111f f03d
000001e0: 06ca 0dbe 91c7 3ebd 048a 9c3d 27aa a33d
000001f0: d16d d73c 1d3f efbc 0961 a93b f326 6d3c
00000200: a1f4 8d3d 3085 2dbe 76e2 5ebe 4055 0e3e
00000210: a3af 12be d87c be3d 6fe0 103e d2e4 d43d
00000220: 6948 3a3d 0855 0cbc f03a 1b3d a477 b93c
00000230: f1fb 563d 8ca4 4ebe 12e9 9f3d 3686 263d
00000240: 808b d53d aef1 6dbe dc35 7abd 2381 38be
00000250: 0b7e 96bd 4f0f 543e 1493 f73c 88a2 293e
00000260: 3c0b 3d3e 9df6 39be dbc6 053e 818b a6bd
00000270: fdf0 193e 9f11 043d 5fe0 40bd ae04 da3c
00000280: 8e49 60be 3033 38bd 7e00 7dbc c7f5 bebd
00000290: 2651 bdbd 304d 5e3e 51d6 0fbd 8020 943d
000002a0: 4ba6 2b3d 341b 483e 42bd 9a3d 3a34 15be
000002b0: 878e b0be 7437 55be 11bc 6dbe 47af 4dbe
000002c0: 5707 d9bc 2a7d ab3d fbfb 18be 4b83 c13d
000002d0: ee72 e2bd 089e 443e 2e33 d03d 92d6 8e3d
000002e0: 650c e23d cb3e 12be 1a98 43be 0db5 0cbe
000002f0: 7caa 5bbe 4bbd 013e cec2 123d 36b8 9a3d
00000300: 522e 8fbd 186a 36be 7d0d 5d3e b1fb ccbd
00000310: 7b64 4abe 48bc 153d 6a98 1f3e ce32 b33d
00000320: 3947 993c 3dc9 8ebd 320f 21bb 8347 5fbd
00000330: 44f0 2f3e 4b6f 523e 8b72 ffbd e9fd 123e
00000340: e041 85bd 28ca 8fbe c000 e4bc 2113 8cbd
00000350: 41a6 0a3e 736b c3b9 98bf 7abd 5e59 46be
00000360: db51 d03d 3dbb 0a3e 5a03 d3bc fe97 f3bc
00000370: ce00 babd b9ae 523c 12fd 6d3e 57e8 66bd
00000380: 6c60 93bd 9c50 54be 3c16 dc3d 1877 cbbd
00000390: 5d72 5ebd 277d 62bd 674c 123e e4d8 943d
000003a0: f397 01be ec4f 25be 833e f4bb f9e4 213e
000003b0: 6e51 b5bd d463 a03d a94a a0bd 337b 363e
000003c0: c652 9cbd 2afb 17be 2c9a f13d c107 0dbe
000003d0: 55a2 fcbd 8c34 e13d 923e e0bd 130e eabd
000003e0: 26cf 87bd 4786 1abe e4b0 55be f196 41be
000003f0: 40b9 183e 0bd5 203e 9de6 39be 0631 cf3d

fc2.weight f4 [128, 256]
-0.099261746 0.02802797 0.09857351 -0.0007350384 0.0337317 0.034672696 -0.020789122 0.08794527
0.010869776 0.047424983 -0.07799673 -0.045750316 -0.051758837 -0.06282596 -0.009781012 0.046907336
-0.039972886 -0.05530439 -0.08430456 -0.2098179 -0.10146474 0.06484006 0.049515583 -0.09098262
-0.03454321 -0.02104645 -0.085515216 -0.21330559 -0.00040257486 -0.058557767 0.09294335 -0.03944798
0.033159178 0.03956598 0.04566602 0.015039736 -0.07506536 -0.14489132 0.020793987 0.081598304
0.08076311 -0.026261685 0.0038060625 -0.033809714 0.05602803 0.042322487 0.054300755 -0.034265578
0.07108104 -0.06541433 -0.006311331 -0.104790695 0.030179884 -0.086992085 -0.015974382 0.022042586
0.033971723 0.10412937 -0.275165 -0.111156344 -0.05419475 -0.008505235 -0.024714356 0.01075361
-0.014925787 0.012511952 0.046134092 -0.09117018 -0.11015047 0.0051012808 0.03201282 -0.03837709
-0.01817537 0.06721763 -0.08071958 0.012438612 -0.07057715 0.01906317 0.012443007 -0.04325647
0.018188206 -0.2455339 -0.0013759513 0.0066831755 0.095547564 0.05201668 -0.06261524 -0.023261895
0.005368932 -0.01317743 0.068838276 -0.057839654 -0.102876544 0.027696893 -0.0138015095 0.031684965
0.075020954 -0.11477294 0.071041286 -0.0576428 -0.017830607 0.1078928 0.037791103 -0.108700596
0.05304692 0.021301104 -0.0034965372 0.074741445 -0.21968073 0.0030120327 -0.029748473 -0.03316312
-0.04134807 0.043460947 -0.0013678747 0.0035645496 0.05992199 0.11705354 -0.05033703 0.055428382
0.05296111 -0.02790062 -0.045746956 0.02824453 -0.036548655 0.09839732 0.04177471 -0.017897438
-0.008961515 0.05674602 0.009991723 0.09257676 0.025386864 0.10124352 0.13992141 -0.06457202
0.024785945 0.057522938 0.02977542 -0.02991073 0.008757309 0.044924874 0.0034435096 -0.097569115
0.026850129 0.02185159 -0.08540669 -0.03409236 -0.045597646 0.046102915 0.025045278 -0.05624443
-0.053797226 -0.13698196 0.070086665 0.0034442008 0.10543221 0.06898548 -0.0036443484 0.08569736
0.045442246 -0.09616111 0.07407898 -0.01050096 0.053869937 -0.0550771 -0.08621489 0.048993245
0.05540388 0.049642738 -0.047192365 -0.042668518 0.050413407 -0.0008269794 -0.036751628 -0.08887925
-0.015943222 -0.004129923 0.054096654 0.024443526 0.0749425 -0.026026137 -0.025886409 -0.059342023
0.043283165 0.050223578 0.0039692693 -0.059942793 0.06676864 0.023391766 -0.08383371 -0.01505113
-0.07777049 -0.011240459 0.016140351 0.02669404 -0.02699231 -0.04229043 -0.052781455 -0.04158275
-0.033492822 0.005116655 0.035541687 -0.18006578 0.07948458 0.0670687 -0.046024516 0.083342485
-0.01289276 0.0013196596 0.012606108 0.0127711175 0.081383325 0.04649399 0.070064604 -0.050185915
-0.0012733019 0.0714162 0.050818235 -0.03224351 -0.054878384 0.017417066 0.021202147 0.1085091
-0.0022123815 -0.031533703 -0.15979041 -0.009601707 0.06066051 -0.011023472 0.014051817 -0.026834501
-0.027838048 -0.017647179 -0.026166538 0.055369843 0.03188665 0.026314123 0.05376888 -0.041687824
0.076539405 -0.0398752 0.037164867 -0.06954665 -0.047711074 0.05807148 0.09101316 -0.10133989
0.07321044 -0.0544852 0.087140046 -0.038511697 -0.05652738 0.017355338 -0.056073546 -0.06197706
00000000: be49 cbbd ea9a e53c e9e0 c93d 98af 40ba
00000010: 402a 0a3d f504 0e3d f34d aabc a61c b43d
00000020: 2517 323c b340 423d c0bc 9fbd af64 3bbd
00000030: 1301 54bd e6aa 80bd 8a40 20bc e821 403d
00000040: 9cba 23bd db86 62bd dfa7 acbd 81da 56be
00000050: bfcc cfbd deca 843d dad0 4a3d 1955 babd
00000060: 2e7d 0dbd 9b69 acbc 9a22 afbd c86c 5abe
00000070: af10 d3b9 45da 6fbd 1559 be3d 3494 21bd
00000080: ebd1 073d f00f 223d 4b0c 3b3d 3a69 763c
00000090: debb 99bd 645e 14be 2758 aa3c 031d a73d
000000a0: 2167 a53d bf22 d7bc 226f 793b 0e7c 0abd
000000b0: a67d 653d 585a 2d3d 786a 5e3d 105a 0cbd
000000c0: f092 913d f3f7 85bd 48cf cebb 819c d6bd
000000d0: ce3b f73c e828 b2bd b5dc 82bc a792 b43c
000000e0: ef25 0b3d c741 d53d 6de2 8cbe f0a5 e3bd
000000f0: 50fb 5dbd 8b59 0bbc c375 cabc e92f 303c
00000100: 4a8b 74bc eefe 4c3c 1af7 3c3d 6eb7 babd
00000110: 9296 e1bd a528 a73b e01f 033d 4c31 1dbd
00000120: 83e4 94bc 66a9 893d 4f50 a5bd 52cb 4b3c
00000130: c18a 90bd 5d2a 9c3c c1dd 4b3c b22d 31bd
00000140: 6fff 943c 3d6d 7bbe 4459 b4ba 8afe da3b
00000150: 71ae c33d 710f 553d 6b3c 80bd bb8f bebc
00000160: deed af3b 26e6 57bc 15fb 8c3d 46e9 6cbd
00000170: f0b0 d2bd 98e4 e23c ba1f 62bc 18c8 013d
00000180: 96a4 993d 130e ebbd 187e 913d db1a 6cbd
00000190: 7e11 92bc e6f6 dc3d d8ca 1a3d 6b9e debd
000001a0: ba47 593d a77f ae3c 2926 65bb 0b12 993d
000001b0: fcf3 60be 8665 453b 12b3 f3bc 0dd6 07bd
000001c0: 985c 29bd 1b04 323d 424a b3ba 389b 693b
000001d0: c370 753d c4b9 ef3d 342e 4ebd df08 633d
000001e0: c0ed 583d d78f e4bc 2961 3bbd 1361 e73c
000001f0: 0bb4 15bd 8984 c93d f51b 2b3d a69d 92bc
00000200: 51d3 12bc 846e 683d 53b4 233c e298 bd3d
00000210: 1df8 cf3c c358 cf3d 8f47 0f3e 563e 84bd
00000220: e50b cb3c 2c9d 6b3d 95eb f33c 5907 f5bc
00000230: d17a 0f3c 2503 383d 81ac 613b 51d2 c7bd
00000240: cdf4 db3c 1b02 b33c b4e9 aebd 6ea4 0bbd
00000250: 99c4 3abd 69d6 3c3d c12b cd3c 8f60 66bd
00000260: 7b5a 5cbd 0045 0cbe 9989 8f3d 1ab8 613b
00000270: d8ec d73d 4248 8d3d 05d6 6ebb 1982 af3d
00000280: a621 3a3d 1ef0 c4bd b8b6 973d 380c 2cbc
00000290: b9a6 5c3d 8698 61bd 6f91 b0bd 24ad 483d
000002a0: 2eef 623d 2f56 4b3d c84c 41bd 2fc5 2ebd
000002b0: 4a7e 4e3d a6c9 58ba e088 16bd 5306 b6bd
000002c0: 5c9b 82bc 4e54 87bb 7494 5d3d ca3d c83c
000002d0: 747b 993d c434 d5bc bc0f d4bc 9f10 73bd
000002e0: b049 313d 3db7 4d3d a510 823b 9386 75bd
000002f0: ffbd 883d 17a0 bf3c 02b1 abbd 0499 76bc
00000300: 2246 9fbd e729 38bc c538 843c 76ad da3c
00000310: fa1e ddbc bb38 2dbd 5e31 58bd ac52 2abd
00000320: c52f 09bd 9da9 a73b 2994 113d 2a63 38be
00000330: d0c8 a23d 515b 893d 3484 3cbd 77af aa3d
00000340: 283c 53bc 6ef8 ac3a d989 4e3c f33d 513c
00000350: 4dac a63d 7b70 3e3d 087e 8f3d bf8f 4dbd
00000360: ece4 a6ba a842 923d c826 503d c511 04bd
00000370: 28c8 60bd 3cae 8e3c 20b0 ad3c 053a de3d
00000380: 9afd 10bb 7c29 01bd 19a0 23be 7a50 1dbc
00000390: 2877 783d cb9b 34bc 9839 663c 07d4 dbbc
000003a0: 9e0c e4bc d190 90bc 355b d6bc 7dcb 623d
000003b0: 939b 023d b790 d73c c23c 5c3d dac0 2abd
000003c0: b1c0 9c3d 2d54 23bd 303a 183d 796e 8ebd
000003d0: b06c 43bd 5cdc 6d3d 1c65 ba3d 4a8b cfbd
000003e0: 5bef 953d e02b 5fbd 7b76 b23d 71be 1dbd
000003f0: 4189 67bd c82c 8e3c 60ad 65bd a8db 7dbd

fc2.bias f4 [128]
0.015238515 -0.13552603 -0.17374095 -0.07475912 -0.094824515 -0.029830873 -0.049956076 -0.2528956
-0.17130323 -0.09636943 -0.16956605 -0.14457127 -0.23778051 -0.103663206 -0.14935812 -0.09101939
-0.18652211 -0.1186465 -0.16650641 -0.19282979 -0.14248931 -0.07009959 -0.04028882 -0.03678567
-0.056389105 -0.058745984 -0.19443922 -0.03495727 -0.11944345 -0.11484168 -0.114331774 -0.07802845
-0.20860282 -0.1625234 -0.12787889 -0.11474221 -0.16239041 -0.059518397 0.012345849 -0.14418884
0.018994499 -0.1303177 -0.07094154 -0.034115855 -0.1298341 -0.08747916 -0.045737892 -1.3044009e-05
-0.18718827 -0.1838321 -0.1615806 0.005240548 -0.17372672 0.016209966 -0.08549922 -0.06657231
0.06838269 -0.06607318 -0.057747282 -0.14049026 -0.10007576 -0.19562492 -0.19736531 -0.11730942
-0.16358389 0.13317995 -0.14424571 -0.1575679 -0.13145538 -0.007882074 -0.0072461474 -0.057447303
-0.1134725 -0.2111044 -0.040921714 -0.15367067 -0.20239967 0.038192492 -0.21614528 -0.15556857
-0.078657694 -0.1909509 -0.033182736 -0.110266246 -0.15607178 -0.0891674 -0.14256059 -0.104383275
-0.11628763 -0.051736794 -0.1347615 -0.08340183 -0.077306606 -0.102030784 -0.14349462 0.03755556
-0.025912521 -0.1160051 -0.117997155 -0.18247536 -0.08437998 -0.06905446 -0.11198808 -0.069128655
-0.12508044 -0.118725635 -0.11871995 -0.13299699 -0.14003399 -0.15874594 -0.16233903 -0.06707851
-0.1992496 0.027208341 -0.1485125 -0.13619593 -0.018797563 -0.016791603 -0.09554456 -0.07239748
-0.10196369 -0.16394591 -0.044550095 -0.18671319 -0.14213648 -0.07020422 -0.04888681 -0.21407092
00000000: f7aa 793c 56c7 0abe 26e9 31be 4f1b 99bd
00000010: 5b33 c2bd e05f f4bc be9e 4cbd 887b 81be
00000020: 1d6a 2fbe 565d c5bd b9a2 2dbe 7e0a 14be
00000030: bc7c 73be 604d d4bd 56f1 18be 6068 babd
00000040: a7ff 3ebe f0fc f2bd a880 2abe 2c75 45be
00000050: b8e8 11be 6090 8fbd e405 25bd 92ac 16bd
00000060: 43f8 66bd a19f 70bd 131b 47be 5b2f 0fbd
00000070: c49e f4bd 1d32 ebbd c726 eabd 61cd 9fbd
00000080: fa9b 55be 896c 26be aff2 02be f7fd eabd
00000090: ac49 26be 90c9 73bd 3e46 4a3c 3da6 13be
000000a0: 5a9a 9b3c 0172 05be cc49 91bd 11bd 0bbd
000000b0: 3bf3 04be 4628 b3bd a857 3bbd 98d7 5ab7
000000c0: 48ae 3fbe 7b3e 3cbe 6375 25be e7b8 ab3b
000000d0: 6be5 31be c3ca 843c 371a afbd 1057 88bd
000000e0: 390c 8c3d 6051 87bd 6a88 6cbd aedc 0fbe
000000f0: 85f4 ccbd e651 48be 221a 4abe ec3f f0bd
00000100: 8982 27be 5360 083e 26b5 13be 7b59 21be
00000110: 3d9c 06be d123 01bc 1771 edbb dd4d 6bbd
00000120: 4564 e8bd c02b 58be 879d 27bd d85b 1dbe
00000130: dc41 4fbe bb6f 1c3d 3055 5dbe 5e4d 1fbe
00000140: 4917 a1bd a288 43be 9fea 07bd 45d3 e1bd
00000150: 48d1 1fbe 669d b6bd 67fb 11be e6c6 d5bd
00000160: 3528 eebd f6e9 53bd ebfe 09be 94ce aabd
00000170: ed52 9ebd 84f5 d0bd 41f0 12be dcd3 193d
00000180: 7f46 d4bc 1594 edbd 7ea8 f1bd d2da 3abe
00000190: 69cf acbd 6d6c 8dbd 025a e5bd 5393 8dbd
000001a0: 1615 00be 6d26 f3bd 7223 f3bd 5d30 08be
000001b0: 1265 0fbe 4c8e 22be 343c 26be 7560 89bd
000001c0: 1608 4cbe 07e4 de3c a913 18be f276 0bbe
000001d0: 59fd 99bc 8b8e 89bc deac c3bd 2145 94bd
000001e0: 57d2 d0bd 70e1 27be 297a 36bd be31 3fbe
000001f0: 3a8c 11be 3bc7 8fbd 893d 48bd 6835 5bbe

fc3.weight f4 [2, 128]
0.09466729 -0.23740639 0.21879494 -0.18514104 -0.16029285 -0.16795817 0.11072998 -0.24260636
-0.17428254 0.17723073 0.4145026 0.3203884 0.2966023 0.03855022 0.24886057 0.14264224
-0.21697152 0.17045127 0.24918178 0.15394585 -0.07628054 0.20924047 0.1438659 0.10190512
-0.20738803 0.20413716 -0.24636865 -0.15560448 0.3134843 -0.27135268 -0.24098743 0.08825397
-0.22658315 0.33236998 -0.32003668 -0.22201116 0.29027155 -0.18286261 -0.05582689 -0.13123061
-0.15917228 0.18770757 -0.15007581 -0.2089754 -0.29642156 -0.16578725 -0.13806762 -0.1380275
-0.23373042 0.031664185 -0.014913628 0.03840193 -0.16102774 0.011636161 -0.1409685 0.016884053
-0.13990659 -0.14403495 -0.025469309 0.13806973 0.10190014 0.35404047 0.14646669 0.1841887
0.19020121 0.13533762 -0.08841333 -0.18741816 -0.27292934 0.11535275 0.0075530196 -0.16422337
0.19695759 -0.26028815 -0.14871457 -0.31796393 -0.29748923 -0.13189062 0.29474008 -0.19287984
-0.105854325 -0.16488558 -0.10247162 0.18043612 0.19268437 0.11725349 0.05947035 -0.13800327
-0.15406518 -0.11290315 0.06393148 0.21900822 0.31896827 -0.07823799 0.21923149 0.16073158
0.15177736 -0.16917977 0.046121813 -0.1908586 0.042392954 0.20998189 -0.16543865 0.2738432
0.11095635 -0.15464261 -0.2310189 0.2388039 0.1491462 0.11980795 -0.23420475 -0.19435035
-0.2475727 -0.1680249 0.19509071 -0.25220928 -0.17099617 -0.1638711 -0.3337856 -0.207497
-0.2617735 0.058494568 -0.14692299 0.28652418 0.26874977 -0.18640439 0.014747512 -0.24824247
-0.37014654 -6.161841e-05 -0.052908536 0.22092384 -0.04613474 0.08663235 0.11945076 -0.08263395
0.05317679 0.11625178 -0.0100427475 0.0018352647 0.057222318 -0.26976028 -0.007744726 0.25515276
0.08007499 0.17156424 0.1646282 -0.20569497 0.21151955 0.13159546 -0.10237586 0.10331551
-0.05974837 -0.11832166 0.0722701 -0.043671697 0.052491575 -0.011858382 -0.027211657 -0.26446337
0.015835777 -0.22887132 0.0811244 -0.0342727 0.019552846 -0.03235179 0.36008045 0.21274658
-0.060228046 0.31763607 -0.09883508 0.31190678 -0.0759133 0.119518414 0.078047365 0.15382625
0.057517935 -0.3258787 -0.31752867 -0.3634717 0.2579399 -0.313664 -0.2663253 -0.43598536
-0.034984358 0.021344552 0.39095023 0.08327875 -0.26847604 -0.004579166 0.10202853 0.307548
0.19365971 0.082770176 -0.20828754 0.045321386 -0.08519608 -0.11405134 -0.2815279 -0.057183042
-0.21473905 -0.00849497 -0.101849325 -0.038716156 -0.0708031 -0.11865046 0.034325335 0.049662594
0.05047837 -0.13155666 -0.037371185 0.09321627 -0.18409592 -0.0877315 0.317893 -0.22970246
0.21268189 -0.07231306 -0.22679602 -0.0051571024 0.12653574 0.3467872 0.17797124 -0.12847617
0.2544055 0.027145416 -0.33353007 -0.024016162 -0.24863583 -0.0927518 -0.038491506 0.18093143
-0.27347636 -0.038508113 0.11529228 -0.27108043 0.21920195 0.3695635 0.025511486 -0.032339588
0.062246066 -0.051885758 0.10304459 0.003402474 -0.058619794 0.14915301 -0.04064761 0.15795049
-0.111766465 0.081981204 -0.20809798 -0.016734052 -0.029285228 0.16008617 -0.2649557 0.056886684
00000000: ede0 c13d a91a 73be c80b 603e 9d95 3dbe
00000010: cf23 24be 3afd 2bbe 66c6 e23d cd6d 78be
00000020: 1f77 32be f97b 353e af39 d43e f309 a43e
00000030: 42dc 973e d6e6 1d3d 4ed5 7e3e cf10 123e
00000040: c82d 5ebe c78a 2e3e 8229 7f3e fba3 1d3e
00000050: f938 9cbd 2243 563e 9551 133e a2b3 d03d
00000060: 875d 54be 5509 513e 1048 7cbe c856 1fbe
00000070: 0481 a03e bdee 8abe 69c5 76be 7fbe b43d
00000080: 6a05 68be 662c aa3e d9db a3be e556 63be
00000090: 799e 943e 5640 3bbe bdaa 64bd 5161 06be
000000a0: 0ffe 22be 6a36 403e 79ad 19be a6fd 55be
000000b0: 91c4 97be 22c4 29be 9961 0dbe 1557 0dbe
000000c0: 0757 6fbe 4eb2 013d 4a58 74bc 584b 1d3d
000000d0: 75e4 24be 99a5 3e3c 0c5a 10be 6d50 8a3c
000000e0: ac43 0fbe e67d 13be 03a5 d0bc 2762 0d3e
000000f0: 05b1 d03d cb44 b53e 5dfb 153e f69b 3c3e
00000100: 1bc4 423e f295 0a3e 0c12 b5bd 8cea 3fbe
00000110: 65bd 8bbe 103e ec3d 527f f73b 2c2a 28be
00000120: 40af 493e 7d44 85be a248 18be 2bcc a2be
00000130: 8250 98be 560e 07be 2ce8 963e 4b82 45be
00000140: 27ca d8bd c4d7 28be a4dc d1bd 3fc4 383e
00000150: 0d4f 453e 9922 f03d 2f97 733d bb50 0dbe
00000160: 43c3 1dbe c439 e7bd 82ee 823d b143 603e
00000170: cf4f a33e 3d3b a0bd 387e 603e d296 243e
00000180: 866b 1b3e 763d 2dbe 3aea 3c3d 7070 43be
00000190: 3ca4 2d3d 7e05 573e c068 29be 2d35 8c3e
000001a0: 153d e33d a25a 1ebe 3890 6cbe 0289 743e
000001b0: c8b9 183e df5d f53d 5fd3 6fbe c703 47be
000001c0: b383 7dbe b80e 2cbe dcc5 473e 9321 81be
000001d0: 9f19 2fbe d3cd 27be f2e5 aabe 187a 54be
000001e0: 2d07 86be 0098 6f3d fb72 16be 4cb3 923e
000001f0: 9299 893e cbe0 3ebe 8c9f 713c 4633 7ebe
00000200: d983 bdbe 2239 81b8 9fb6 58bd dc39 623e
00000210: c8f7 3cbd 4d6c b13d 9aa2 f43d fd3b a9bd
00000220: e8cf 593d 6a15 ee3d 568a 24bc 448d f03a
00000230: f361 6a3d 051e 8abe 78c7 fdbb 62a3 823e
00000240: 5bfe a33d 89ae 2f3e 4b94 283e b4a1 52be
00000250: 9598 583e f6c0 063e 6faa d1bd 1597 d33d
00000260: b5ba 74bd a052 f2bd 5902 943d 18e1 32bd
00000270: 6801 573d a949 42bc fbea debc be67 87be
00000280: 08ba 813c 3e5d 6abe 8d24 a63d 8861 0cbd
00000290: 4a2d a03c 5083 04bd 775c b83e 3dda 593e
000002a0: afb1 76bd 32a1 a23e 0c6a cabd 3fb2 9f3e
000002b0: 6f78 9bbd 12c6 f43d 4cd7 9f3d a184 1d3e
000002c0: ed97 6b3d 93d9 a6be 1e93 a2be f618 babe
000002d0: b310 843e 9198 a0be ca5b 88be 7939 dfbe
000002e0: c24b 0fbd c5da ae3c a12a c83e 0d8e aa3d
000002f0: b175 89be d40c 96bb 55f4 d03d ee76 9d3e
00000300: bb4e 463e 6983 a93d 5449 55be eba2 393d
00000310: 487b aebd c093 e9bd 6d24 90be c438 6abd
00000320: 8ee4 5bbe 7d2e 0bbc 6196 d0bd d594 1ebd
00000330: 3701 91bd 03ff f2bd b998 0c3d 016b 4b3d
00000340: 68c2 4e3d cab6 06be 8712 19bd 2ce8 be3d
00000350: a483 3cbe 93ac b3bd dfc2 a23e 1f37 6bbe
00000360: 48c9 593e df18 94bd 373d 68be e9fc a8bb
00000370: 9692 013e 188e b13e 183e 363e 428f 03be
00000380: 7041 823e 1060 de3c 74c4 aabe 8bbd c4bc
00000390: 649a 7ebe a8f4 bdbd 45a9 1dbd 1746 393e
000003a0: 1805 8cbe afba 1dbd 5c1e ec3d 0ecb 8abe
000003b0: 7a76 603e 6d37 bd3e 77fd d03c 8476 04bd
000003c0: bbf5 7e3d 2986 54bd 0b09 d33d 0bfc 5e3b
000003d0: 4f1b 70bd 91bb 183e 1c7e 26bd c6bd 213e
000003e0: d1e5 e4bd c3e5 a73d a317 55be da15 89bc
000003f0: 93e7 efbc a1ed 233e 46a8 87be 0302 693d

fc3.bias f4 [2]
-0.04575307 0.14969534
00000000: 9267 3bbd bc49 193e

sequential.0.weight f4 [256, 24]
0.05172856 0.0075357584 0.03583939 -0.053427126 0.0006502435 -0.06385066 0.04038396 0.023582876
0.024266867 0.0451094 -0.02914659 -0.04439259 0.078810394 -0.13183728 0.032908905 0.0088047935
-0.04261525 -0.082020104 -0.03196744 0.013757475 0.10958655 -0.09532628 0.033435594 -0.0314111
0.121993616 0.09018795 0.007364202 0.09769856 -0.07081102 -0.041108105 0.015881862 0.0049417173
0.15067871 0.08060948 0.021289557 0.023295885 -0.13801019 -0.034107007 -0.026130524 0.033356845
0.152422 0.034677982 -0.02742509 0.025224108 -0.03840258 0.04774318 0.017788384 -0.013092467
0.0016972603 0.18047518 0.044910252 -0.0041208505 -0.06404021 0.03239047 -0.03785415 -0.058078654
0.069293015 0.15580332 -0.0073856213 -0.057450794 -0.018946724 0.048017167 0.011798686 -0.03761463
0.05708045 0.12843372 -0.05870426 0.04571617 -0.008451994 0.08323399 -0.012323825 0.12083956
-0.00851829 0.07028629 -0.013815271 -0.0077181607 -0.051832136 0.07809117 0.010004343 -0.014678603
-0.005688424 0.05300218 -0.02181121 -0.016699657 0.13841343 -0.01123759 0.01663737 0.055146936
0.07348049 0.060859315 -0.049440667 -0.007751001 0.35470477 0.028885026 0.04704143 0.021805925
0.04970319 0.01338575 0.066390835 0.011763633 0.062147103 -0.13845795 -0.039352782 -0.060471565
-0.012644053 -0.015255701 0.020688435 -0.08238189 0.10333722 0.11113409 0.04267229 -0.015070778
0.041167255 0.012636297 -0.017744664 -0.04771465 0.0025540094 0.14865763 0.02089873 0.02053893
0.060227863 0.05877632 -0.019239288 0.0109672565 -0.042756427 -0.03408808 0.05897441 0.02919567
0.030735072 0.071053125 -0.025876828 -0.12578076 -0.094417684 -0.04278796 0.04171804 -0.09980599
0.056472193 -0.10299323 0.030557282 -0.02308776 0.035957128 0.043810196 0.038798943 -0.049283545
-0.07590486 0.2074026 -0.007058984 -0.03327162 0.030530993 -0.024359886 0.020387754 0.056265503
0.04572046 0.18095468 -0.021025682 -0.0017342148 -0.01941586 -0.025158647 -0.042269133 0.006501967
-0.00060084177 0.18174516 -0.0032356246 -0.0049928473 0.052538402 -0.19364592 -0.005288998 0.025772763
-0.032039113 -0.17521065 -0.031162536 0.04549121 -0.09788913 0.07854628 -0.003250833 -0.00032169535
0.016258629 -0.043237172 -0.05192864 0.058215033 -0.07989121 0.07960914 -0.03851729 0.06572223
0.075834446 -0.060896378 -0.0012458793 0.029179385 -0.038836636 0.087654896 0.075302064 0.009691127
-0.12558827 0.054062802 0.1068399 0.051688097 -0.035685077 0.010826014 0.109293915 0.026324693
0.0043885037 0.056455392 0.04128001 -0.032258358 0.018720325 0.031037973 0.061493363 -0.007515806
0.065714486 0.030549042 0.035170346 0.038327888 -0.014595078 0.06403881 -0.042511426 -0.027944535
0.053353738 0.0028486787 0.0061350884 -0.050801463 0.013294234 0.09503849 -0.0020399487 -0.033211462
-0.05040325 -0.11423474 -0.00033629648 -0.057300832 0.020656858 0.1352907 -0.04560518 -0.12759914
0.035072017 -0.18489088 -0.0846529 0.044049364 0.027961113 -0.0029761146 0.012300272 0.017928008
-0.006252695 0.030631302 0.008211432 -0.053447764 -0.016248135 0.14238234 -0.034166668 0.002322479
0.06463076 0.028014122 0.014810176 0.008708496 0.12411494 0.055300828 -0.026554363 0.030191686
00000000: 54e1 533d 86ee f63b 53cc 123d 67d6 5abd
00000010: 1a75 2a3a 23c4 82bd a769 253d e030 c13c
00000020: 4fcb c63c a2c4 383d d4c4 eebc 01d5 35bd
00000030: 5867 a13d 5a00 07be 7dcb 063d fb41 103c
00000040: 548d 2ebd 28fa a7bd 4af0 02bd 0867 613c
00000050: ea6e e03d 6d3a c3bd c3f3 083d eda8 00bd
00000060: cad7 f93d 76b4 b83d 674f f13b 2f16 c83d
00000070: 5e05 91bd f960 28bd ae1a 823c 21ee a13b
00000080: 854b 1a3e 9516 a53d 7067 ae3c 03d7 be3c
00000090: 8b52 0dbe cab3 0bbd ae0f d6bc 30a1 083d
000000a0: 8314 1c3e 800a 0e3d 95aa e0bc caa2 ce3c
000000b0: 064c 1dbd 5a8e 433d f2b8 913c c981 56bc
000000c0: 9b76 de3a 7cce 383e d0f3 373d 3308 87bb
000000d0: 8327 83bd dfab 043d f40c 1bbd e2e3 6dbd
000000e0: 7fe9 8d3d e88a 1f3e 1503 f2bb 8651 6bbd
000000f0: 2936 9bbc a6ad 443d 474f 413c cc11 1abd
00000100: 31cd 693d 2184 033e e173 70bd e140 3b3d
00000110: 3b7a 0abc 9576 aa3d dee9 49bc bb7a f73d
00000120: 4c90 0bbc 42f2 8f3d 7259 62bc a0e8 fcbb
00000130: ef4d 54bd 43ee 9f3d 42e9 233c 867e 70bc
00000140: f665 babb d018 593d 6cad b2bc b8cd 88bc
00000150: 40bc 0d3e de1d 38bc 184b 883c c1e1 613d
00000160: f07c 963d 9e47 793d 4c82 4abd 1cfc fdbb
00000170: dd9b b53e 4aa0 ec3c 84ae 403d 57a2 b23c
00000180: 9295 4b3d e84f 5b3c ebf7 873d 41bc 403c
00000190: f68d 7e3d ecc7 0dbe 6230 21bd 08b1 77bd
000001a0: 0129 4fbc 0cf3 79bc cb7a a93c d6b7 a8bd
000001b0: 77a2 d33d 459a e33d 24c9 2e3d 6deb 76bc
000001c0: ff9e 283d 7908 4f3c 425d 91bc 7070 43bd
000001d0: 2b61 273b b539 183e d033 ab3c 4241 a83c
000001e0: 7eb1 763d 70bf 703d b69b 9dbc 02b0 333c
000001f0: 5d21 2fbd f19f 0bbd 278f 713d c22b ef3c
00000200: 1ec8 fb3c 4d84 913d a4fb d3bc accc 00be
00000210: 0f5e c1bd 6e42 2fbd 89e0 2a3d 1567 ccbd
00000220: 634f 673d 1dee d2bd 4453 fa3c 8b22 bdbc
00000230: c847 133d 5272 333d a4eb 1e3d 8bdd 49bd
00000240: 0274 9bbd 5961 543e 0d4f e7bb d247 08bd
00000250: 221c fa3c 628e c7bc 3804 a73c a876 663d
00000260: 6145 3b3d 2f4c 393e 0d3e acbc 984e e3ba
00000270: 020e 9fbc 8219 cebc 6622 2dbd 740e d53b
00000280: cf81 1dba 671b 3a3e c60c 54bb 0a9b a3bb
00000290: 8232 573d 1e4b 46be 554f adbb 6721 d33c
000002a0: 723b 03bd 6c6a 33be 9348 ffbc fe54 3a3d
000002b0: 197a c8bd dfdc a03d ed0b 55bb 38a9 a8b9
000002c0: d130 853c 7619 31bd 20b3 54bd e372 6e3d
000002d0: 019e a3bd 1e0a a33d 4ec4 1dbd 6099 863d
000002e0: 174f 9b3d 7b6e 79bd c64c a3ba 9b09 ef3c
000002f0: 2a13 1fbd 6984 b33d f837 9a3d 88c7 1e3c
00000300: 369a 00be f570 5d3d e1ce da3d e6b6 533d
00000310: 842a 12bd 985f 313c 7dd5 df3d e2a6 d73c
00000320: 70cd 8f3b c53d 673d 3a15 293d 5721 04bd
00000330: 5e5b 993c 5943 fe3c 77e0 7b3d 2647 f6bb
00000340: 5195 863d fc41 fa3c c80e 103d b4fd 1c3d
00000350: 3220 6fbc c826 833d 7620 2ebd f0eb e4bc
00000360: 7389 5a3d e6b0 3a3b da08 c93b 3215 50bd
00000370: 0fd0 593c 8aa3 c23d a9b0 05bb be08 08bd
00000380: a373 4ebd e7f3 e9bd f350 b0b9 47b4 6abd
00000390: 9238 a93c a589 0a3e 7fcc 3abd 59a9 02be
000003a0: ada7 0f3d 0954 3dbe 805e adbd 1b6d 343d
000003b0: b40e e53c eb0a 43bb 1487 493c c2dd 923c
000003c0: 68e3 ccbb 7fee fa3c 3e89 063c 0bec 5abd
000003d0: cf1a 85bc adcc 113e 59f2 0bbd bb34 183b
000003e0: 225d 843d df7d e53c 61a6 723c 14ae 0e3c
000003f0: f92f fe3d 1f83 623d 8988 d9bc 8e54 f73c

sequential.0.bias f4 [256]
-0.03505511 0.028474815 0.07411323 -0.031133668 -0.050306432 -0.2534699 -0.2556471 -0.010209558
-0.15308796 -0.17469427 0.09233488 -0.016934007 0.08751601 -0.2014578 -0.033838198 0.21299505
0.002075628 -0.018523742 -0.08453319 -0.15744422 0.11403426 -0.23245855 0.0015779821 -0.20103161
0.00011302718 -0.21593148 -0.005584456 -0.0986583 -0.21068199 -0.080575556 -0.14336538 -0.07877504
-0.037543356 -0.025663124 -0.13700724 0.099753015 -0.18811154 0.105011046 -0.18884148 0.05718355
-0.12164661 -0.1689024 -0.1160298 -0.11235296 -0.106800586 -0.14042956 -0.14088535 -0.1945619
0.24682024 0.08921371 -0.13154106 0.116537094 -0.13669346 -0.31880853 0.003013839 -0.104041964
0.17430258 -0.23502383 -0.24135612 0.09545873 -0.006881955 0.07791362 -0.059840143 -0.1942518
0.051464953 -0.03461086 -0.15772662 0.13612273 -0.20980035 -0.15496513 -0.10435428 -0.17599335
-0.22192697 -0.15420167 -0.060809184 0.13296753 0.043453332 -0.06521844 0.018441863 0.034137283
-0.0156120565 -0.15207106 -0.21052468 -0.18709011 0.062188607 -0.099183634 -0.17746496 0.037384678
-0.2037613 0.037925597 -0.07874714 0.0643621 -0.09467931 0.18341717 -0.15413854 -0.18345043
0.06366176 -0.16633157 0.21870421 0.010910067 0.025190618 -0.039987367 0.002478335 -0.062070828
-0.1491396 0.13735555 0.011700622 -0.07035309 0.030827241 -0.111727975 -0.049326554 -0.19456758
-0.14593744 -0.20770214 -0.04384342 0.13782942 0.12516822 -0.2488948 -0.16637169 0.117246754
-0.13846597 -0.04657704 0.07643512 0.07991438 0.026297482 -0.0292049 0.005169038 0.014474618
0.06931425 -0.16945338 -0.21766075 0.13899708 -0.14324813 0.09301156 0.14148115 0.103952065
0.045479212 -0.008565195 0.037898004 0.022640057 0.052486364 -0.20179957 0.078081265 0.040655337
0.10426998 -0.23236725 -0.06108652 -0.18018012 -0.073482595 0.20708965 0.0302215 0.16565907
0.18461317 -0.18160482 0.13064139 -0.08132077 0.15033336 0.032243367 -0.047088977 0.02661356
-0.21903059 -0.04497069 -0.015442012 -0.09324222 -0.092439935 0.21709132 -0.035116497 0.072327614
0.041906636 0.19541627 0.07555629 -0.14570704 -0.3448374 -0.20821935 -0.23216273 -0.20086394
-0.026492758 0.083734825 -0.14939873 0.0944887 -0.11057077 0.19200909 0.10166012 0.0697452
0.1103752 -0.14281766 -0.19100991 -0.1374094 -0.21451753 0.12669866 0.03583031 0.07554667
-0.06991257 -0.17813909 0.21587177 -0.10008944 -0.19764893 0.036556512 0.15585485 0.087499246
0.01871072 -0.06971977 -0.0024575708 -0.05451156 0.17181498 0.20550267 -0.12473019 0.14354672
-0.06506705 -0.2808392 -0.027832389 -0.06839586 0.13539983 -0.00037273354 -0.061217874 -0.19370028
0.10171863 0.13547988 -0.025758434 -0.029735561 -0.09082185 0.01285904 0.2324107 -0.05637392
-0.071961254 -0.20733875 0.10746428 -0.09934825 -0.054308284 -0.055295136 0.14286958 0.07267931
-0.1265562 -0.16143769 -0.007453741 0.15810002 -0.08853422 0.07831541 -0.0782674 0.17820434
-0.07632975 -0.14841905 0.11796984 -0.13772489 -0.1233565 0.10996351 -0.10949434 -0.11428466
-0.06631307 -0.15090285 -0.2086826 -0.18905236 0.14914417 0.1570627 -0.18154378 0.10116772
00000000: f295 0fbd 0444 e93c adc8 973d 090c ffbc
00000010: 1e0e 4ebd cfc6 81be 2de4 82be fd45 27bc
00000020: 17c3 1cbe 0ee3 32be 121a bd3d 30b9 8abc
00000030: 983b b33d f44a 4ebe ec99 0abd 601b 5a3e
00000040: 4207 083b 1abf 97bc bd1f adbd 0f39 21be
00000050: cb8a e93d 9d09 6ebe 4bd4 ce3a 3bdb 4dbe
00000060: 0109 ed38 241d 5dbe d0fd b6bb 5d0d cabd
00000070: 05bd 57be cc04 a5bd 60ce 12be cf54 a1bd
00000080: 10c7 19bd 793b d2bc a04b 0cbe 4f4b cc3d
00000090: 50a0 40be 0810 d73d a95f 41be 4c39 6a3d
000000a0: dc21 f9bd c0f4 2cbe 08a1 edbd 4f19 e6bd
000000b0: 44ba dabd c4cc 0fbe 4044 10be 3c3b 47be
000000c0: 72be 7c3e adb5 b63d b3b2 06be 00ab ee3d
000000d0: 5ff9 0bbe df3a a3be d483 453b f413 d5bd
000000e0: 607c 323e 16aa 70be 0f26 77be de7f c33d
000000f0: 0682 e1bb 2d91 9f3d f01a 75bd f2e9 46be
00000100: eacc 523d 1ec4 0dbd 1683 21be c263 0b3e
00000110: e7d5 56be 2eaf 1ebe b2b7 d5bd 9a37 34be
00000120: d340 63be 0be7 1dbe 0d13 79bd a428 083e
00000130: 1ffc 313d 3f91 85bd 6413 973c 89d3 0b3d
00000140: b6c9 7fbc 84b8 1bbe c893 57be 8d94 3fbe
00000150: 7bb9 7e3d ca20 cbbd 60b9 35be ad20 193d
00000160: cda6 50be df57 1b3d 2e46 a1bd 47d0 833d
00000170: 3ae7 c1bd b6d1 3b3e 7ed6 1dbe 6eda 3bbe
00000180: 1961 823d d352 2abe fff3 5f3e 23c0 323c
00000190: 8e5c ce3c cbc9 23bd 906b 223b fb3d 7ebd
000001a0: 0db8 18be efa6 0c3e f7b3 3f3c 4815 90bd
000001b0: 6989 fc3c a3d1 e4bd a40a 4abd b93c 47be
000001c0: a070 15be dfaf 54be 2895 33bd 2823 0d3e
000001d0: 192c 003e 47de 7ebe 575d 2abe 111f f03d
000001e0: 06ca 0dbe 91c7 3ebd 048a 9c3d 27aa a33d
000001f0: d16d d73c 1d3f efbc 0961 a93b f326 6d3c
00000200: a1f4 8d3d 3085 2dbe 76e2 5ebe 4055 0e3e
00000210: a3af 12be d87c be3d 6fe0 103e d2e4 d43d
00000220: 6948 3a3d 0855 0cbc f03a 1b3d a477 b93c
00000230: f1fb 563d 8ca4 4ebe 12e9 9f3d 3686 263d
00000240: 808b d53d aef1 6dbe dc35 7abd 2381 38be
00000250: 0b7e 96bd 4f0f 543e 1493 f73c 88a2 293e
00000260: 3c0b 3d3e 9df6 39be dbc6 053e 818b a6bd
00000270: fdf0 193e 9f11 043d 5fe0 40bd ae04 da3c
00000280: 8e49 60be 3033 38bd 7e00 7dbc c7f5 bebd
00000290: 2651 bdbd 304d 5e3e 51d6 0fbd 8020 943d
000002a0: 4ba6 2b3d 341b 483e 42bd 9a3d 3a34 15be
000002b0: 878e b0be 7437 55be 11bc 6dbe 47af 4dbe
000002c0: 5707 d9bc 2a7d ab3d fbfb 18be 4b83 c13d
000002d0: ee72 e2bd 089e 443e 2e33 d03d 92d6 8e3d
000002e0: 650c e23d cb3e 12be 1a98 43be 0db5 0cbe
000002f0: 7caa 5bbe 4bbd 013e cec2 123d 36b8 9a3d
00000300: 522e 8fbd 186a 36be 7d0d 5d3e b1fb ccbd
00000310: 7b64 4abe 48bc 153d 6a98 1f3e ce32 b33d
00000320: 3947 993c 3dc9 8ebd 320f 21bb 8347 5fbd
00000330: 44f0 2f3e 4b6f 523e 8b72 ffbd e9fd 123e
00000340: e041 85bd 28ca 8fbe c000 e4bc 2113 8cbd
00000350: 41a6 0a3e 736b c3b9 98bf 7abd 5e59 46be
00000360: db51 d03d 3dbb 0a3e 5a03 d3bc fe97 f3bc
00000370: ce00 babd b9ae 523c 12fd 6d3e 57e8 66bd
00000380: 6c60 93bd 9c50 54be 3c16 dc3d 1877 cbbd
00000390: 5d72 5ebd 277d 62bd 674c 123e e4d8 943d
000003a0: f397 01be ec4f 25be 833e f4bb f9e4 213e
000003b0: 6e51 b5bd d463 a03d a94a a0bd 337b 363e
000003c0: c652 9cbd 2afb 17be 2c9a f13d c107 0dbe
000003d0: 55a2 fcbd 8c34 e13d 923e e0bd 130e eabd
000003e0: 26cf 87bd 4786 1abe e4b0 55be f196 41be
000003f0: 40b9 183e 0bd5 203e 9de6 39be 0631 cf3d

sequential.2.weight f4 [256]
0.9883889 1.0286372 0.9178005 1.1533669 0.8925462 0.9087678 1.034405 0.9413611
0.9253472 0.9648887 0.99057114 0.9477883 0.96171206 0.9603208 0.99049115 0.9040036
0.8960765 0.93147665 1.0990618 1.0376498 1.0184965 0.99213386 0.9593094 0.9865316
0.9319698 1.0152385 1.0051845 1.0576135 0.9347538 0.9500851 0.9402617 0.9943666
0.9021604 0.9929848 1.0837384 1.0295272 1.04012 1.0491629 1.0073044 0.9486566
0.95489216 0.95495415 1.0547006 0.8709766 0.8762368 0.91881704 1.0243297 0.92883086
0.8640529 1.0939194 0.9445968 0.9772629 0.96162766 1.0741668 0.9620487 0.96099436
0.95731175 1.2391086 1.0633625 0.9448825 0.8924463 0.94799966 0.94364995 0.9067683
0.8835073 0.9688667 0.91148937 1.1291349 0.8875834 0.91120535 1.0105244 0.9017883
0.9685551 0.8961207 1.0080315 0.92783946 0.9517746 1.1298407 0.960589 1.0001891
1.0242109 0.96972984 0.9633804 0.95540667 0.9569749 1.0328676 1.0735508 0.98513985
1.0191934 0.9487317 0.90420914 0.96151423 1.0239621 0.97794193 0.88023007 0.9092112
1.1422209 0.84445894 0.95351636 0.95231104 0.9895658 0.95821303 0.98049045 1.1083934
0.9162719 0.9539405 1.0138516 0.97387576 1.0309817 0.94446033 0.9206588 1.1711475
0.90634626 0.8929677 0.867222 0.9108636 1.0545102 1.0221052 0.9190809 0.9528173
1.0383506 0.9268696 0.96424556 0.93012226 0.9779487 0.93988276 0.90965176 1.0074631
0.98019475 0.8766002 1.047487 0.92730045 1.0282459 0.9137474 0.98566014 0.9142945
0.9605944 0.9888183 1.0486505 0.97381353 0.9144052 0.9604685 0.9199453 0.9061483
0.9458212 0.97066915 0.9377335 0.9414051 0.941637 0.96446985 1.0429426 0.8774155
0.99383444 1.0353692 0.919603 0.9508767 1.04339 0.97097075 0.9756371 1.0301566
0.9618899 0.94208205 0.9626109 1.027256 0.97439367 0.8981585 0.9324118 1.2139128
0.9913787 0.91561824 0.9378328 0.9302953 1.0602202 0.98671925 0.9172568 1.093489
0.9330221 0.9409633 0.9670782 0.9926836 0.9217144 0.92982495 1.2110314 0.91860825
1.0934198 0.9636259 0.990772 1.0099298 1.16682 0.9325772 0.94143736 0.9645433
0.9026318 0.91936576 0.9107954 0.89602506 0.904012 0.9758549 0.9407024 1.0102137
0.9146466 0.9725773 0.91672355 1.3236569 0.86025816 0.91486996 1.003717 0.95628625
0.9243229 1.02708 0.96102685 1.000757 0.9352418 0.9704115 0.9664614 1.019281
0.96619976 0.9231739 0.982912 0.93226624 0.92903095 0.9781489 0.9458752 0.9975393
1.0594214 0.9538465 1.0326877 1.0150545 1.0354794 1.0203946 0.9513162 1.04417
0.94920164 1.0828662 0.94902164 0.93609285 0.9792982 0.8712603 0.97015196 0.9402874
0.9842966 0.96142584 0.8987605 0.96177447 0.9694981 0.9001202 0.9370765 0.9515292
0.95896196 0.9785077 1.0095614 0.9953165 0.9810728 0.92536205 0.97944 0.8880655
00000000: 0e07 7d3f 62aa 833f f9f4 6a3f 87a1 933f
00000010: e87d 643f 02a5 683f 6267 843f 0bfd 703f
00000020: 8ee3 6c3f f202 773f 1296 7d3f 41a2 723f
00000030: c332 763f 95d7 753f d490 7d3f c86c 673f
00000040: 4565 653f 4175 6e3f 0fae 8c3f b5d1 843f
00000050: 185e 823f 7cfc 7d3f 4d95 753f 568d 7c3f
00000060: 9395 6e3f 56f3 813f e3a9 803f e15f 873f
00000070: 064c 6f3f c738 733f feb4 703f cf8e 7e3f
00000080: fcf3 663f 4034 7e3f f1b7 8a3f 8cc7 833f
00000090: a722 853f f84a 863f 5aef 803f 29db 723f
000000a0: d073 743f e077 743f 6e00 873f 53f8 5e3f
000000b0: 0e51 603f 9837 6b3f 3c1d 833f dcc7 6d3f
000000c0: 9232 5d3f 8d05 8c3f 19d1 713f e72d 7a3f
000000d0: 3b2d 763f 4c7e 893f d348 763f ba03 763f
000000e0: 6212 753f 1c9b 9e3f 431c 883f d2e3 713f
000000f0: 5c77 643f 1bb0 723f 0b93 713f f821 683f
00000100: 892d 623f a607 783f 5e57 693f 7e87 903f
00000110: aa38 633f c144 693f dd58 813f 99db 663f
00000120: 3af3 773f 2b68 653f 2d07 813f e386 6d3f
00000130: 80a7 733f 9f9e 903f 29e9 753f 3206 803f
00000140: 5819 833f 3740 783f 19a0 763f 8895 743f
00000150: 4ffc 743f 0135 843f 1d6a 893f 2032 7c3f
00000160: ee74 823f 15e0 723f 407a 673f cc25 763f
00000170: 3111 833f 675a 7a3f c256 613f 11c2 683f
00000180: 4b34 923f 762e 583f a619 743f a8ca 733f
00000190: 2f54 7d3f 734d 753f 6c01 7b3f d6df 8d3f
000001a0: cc90 6a3f 7235 743f e4c5 813f ec4f 793f
000001b0: 35f7 833f 27c8 713f 4cb0 6b3f 29e8 953f
000001c0: 4f06 683f 8899 643f 4302 5e3f 5b2e 693f
000001d0: 31fa 863f 58d4 823f e348 6b3f d6eb 733f
000001e0: ace8 843f 5347 6d3f ccd8 763f 7e1c 6e3f
000001f0: d95a 7a3f 289c 703f f0de 683f 8df4 803f
00000200: 0bee 7a3f df68 603f 0e14 863f 9063 6d3f
00000210: 909d 833f 59eb 693f 3954 7c3f 340f 6a3f
00000220: 84e9 753f 3223 7d3f 2e3a 863f d84b 793f
00000230: 7616 6a3f 43e1 753f 8981 6b3f 56f9 673f
00000240: 5721 723f c67d 783f 4d0f 703f edff 703f
00000250: 1f0f 713f 7fe7 763f 257f 853f 4d9e 603f
00000260: ef6b 7e3f fa86 843f 1a6b 6b3f a86c 733f
00000270: ce8d 853f 8a91 783f 5ac3 793f 2cdc 833f
00000280: 6b3e 763f 4a2c 713f ab6d 763f 207d 833f
00000290: dd71 793f b7ed 653f 8ab2 6e3f 7f61 9b3f
000002a0: ffca 7d3f f565 6a3f cf15 703f d527 6e3f
000002b0: 4cb5 873f a299 7c3f 57d1 6a3f 73f7 8b3f
000002c0: 89da 6e3f f9e2 703f 7092 773f 8320 7e3f
000002d0: 7af5 6b3f 0209 6e3f 1403 9b3f e929 6b3f
000002e0: 2ef5 8b3f 30b0 763f 3ca3 7d3f 6145 813f
000002f0: 5c5a 953f 61bd 6e3f 0a02 713f 4fec 763f
00000300: e112 673f 8e5b 6b3f e329 693f e661 653f
00000310: 556d 673f a0d1 793f dfd1 703f af4e 813f
00000320: 4826 6a3f d3fa 783f 65ae 6a3f 976d a93f
00000330: e139 5c3f eb34 6a3f cc79 803f 2dcf 743f
00000340: 6da0 6c3f 5c77 833f db05 763f ce18 803f
00000350: 026c 6f3f e36c 783f 046a 773f cd77 823f
00000360: de58 773f 2055 6c3f 1fa0 7b3f 00a9 6e3f
00000370: f9d4 6d3f f767 7a3f e124 723f bc5e 7f3f
00000380: 1f9b 873f 492f 743f 1c2f 843f 4eed 813f
00000390: 978a 843f 4a9c 823f 7589 733f 5da7 853f
000003a0: e1fe 723f 5c9b 8a3f 15f3 723f c8a3 6f3f
000003b0: 49b3 7a3f ea0a 5f3f e15b 783f adb6 703f
000003c0: ddfa 7b3f 0120 763f 2b15 663f da36 763f
000003d0: 0731 783f 476e 663f 3fe4 6f3f 6b97 733f
000003e0: 887e 753f 7b7f 7a3f 4f39 813f 10cd 7e3f
000003f0: 9627 7b3f 87e4 6c3f 94bc 7a3f 4358 633f
