data/multiagent/checkpoint_critic_{i}.pth (torch, 166148 bytes, 11 tensors)

fcs1.weight f4 [256, 24]
000000 13 ef 32 bc 7b 30 83 bc 70 43 08 3d 62 2f c8 bc
       -0.010921258 -0.016014328 0.03326744 -0.024436656
000010 34 12 43 be 86 b7 e2 bd 1f 94 6d bc 02 c6 30 3d
       -0.19049913 -0.110701606 -0.014500647 0.043157585
000020 f3 a7 8e bc 72 10 f6 3c 60 ad 20 bd f3 34 18 3c
       -0.017414069 0.030037139 -0.039227843 0.009289968
000030 bc 95 d4 bd a5 aa ed bb 7a 44 78 3d bd 9e 8f 3c
       -0.10380122 -0.0072530084 0.06061218 0.017531747
000040 bb b9 c4 3c b5 c5 12 bd 87 82 64 3d 4b 1a 3f bc
       0.024014344 -0.03583308 0.055788543 -0.011663984
000050 47 88 d9 bd a7 59 c9 3d 93 fc 21 bd fe 4b 81 3c
       -0.10621696 0.09831553 -0.039547514 0.015783306
000060 da 81 0e 3d f3 95 e7 3c aa c1 a4 3d 9a c9 97 b8
       0.034791805 0.028269744 0.08044751 -7.237792e-05
000070 c5 e2 9a 3c 89 9f 9d 3c e1 20 00 3e b7 9f ae bc
       0.01890696 0.019241111 0.12512542 -0.021316392
000080 2f be 12 3b 6d 01 01 bc d0 98 c3 3c 28 3d ea 3c
       0.002239119 -0.007873875 0.023876578 0.028593615
000090 63 09 26 3d 5e 88 30 3d 62 5c 47 bc c8 6a d9 3c
       0.040536296 0.0430988 -0.012168022 0.026540175
0000a0 70 f3 77 3d df dc 97 3c 07 b1 20 bc c0 46 ba bd
       0.060534894 0.018537937 -0.009807832 -0.09095526
0000b0 4a 39 95 3d 45 4e 5c bc c0 90 05 3d f8 1c 81 bd
       0.07286318 -0.013446395 0.032608747 -0.063043535
0000c0 4e c7 8a bc 6e e9 7e bd dc b0 47 3c 60 a8 b7 bd
       -0.016940739 -0.062234335 0.012188163 -0.08967662
0000d0 db f7 37 bd c1 9c be bd 10 31 09 3d 72 30 9c bd
       -0.044914108 -0.09307242 0.033494055 -0.07626428
0000e0 3b 27 63 bd d9 94 10 bd c3 83 74 3c f8 c7 07 bd
       -0.055457335 -0.035298202 0.014923993 -0.03314969
0000f0 4b 2d a9 3c 02 19 ec bd 24 c8 ef 3c 70 c1 31 3d
       0.02065148 -0.11528207 0.02927024 0.043397367
000100 d5 c6 12 bd c1 e7 ab bd d8 76 5b 3d 68 90 1c 3d
       -0.035834152 -0.08393813 0.053580135 0.038223654
000110 3e 7b c1 3d a3 a0 2f bb 60 f2 b9 bb b2 9d 26 3d
       0.09447335 -0.0026798628 -0.0056746453 0.040677734
000120 5a 17 68 3d 79 f1 52 3d 70 f4 40 3d 67 a5 91 3a
       0.056662895 0.051499818 0.047108114 0.0011111916
000130 cf c6 27 bd 65 4a 8f 3d 5b 59 6e 3d f6 b0 ae 3c
       -0.040961083 0.069966115 0.058190685 0.021324616
000140 f5 93 04 3c b7 3c b9 3d 09 2e fa bb ba 52 b2 3c
       0.008091916 0.090447836 -0.0076348823 0.021767963
000150 5a ee 0d 3d 4b f5 73 bc a6 b9 66 3d cd 05 65 bd
       0.034651138 -0.014890025 0.056329392 -0.055913735
000160 60 c7 8d bc 51 29 9e 3d ed 97 31 3d 7a 1c 38 bd
       -0.017306983 0.07722724 0.04335778 -0.044949032
000170 a1 c9 a0 3d 7b 6b d1 bd 63 28 6f 3d 66 98 59 bd
       0.07850958 -0.102255784 0.058388125 -0.053123854
000180 6c 95 06 3e 28 15 05 bd db e2 8d bc 3b f1 a7 3d
       0.13142937 -0.03249088 -0.017320087 0.08200308
000190 fa 08 a0 bc f1 ae c3 bd 8d a9 31 3d c7 75 16 3d
       -0.01953553 -0.09554852 0.043374587 0.036733415
0001a0 08 d1 f5 bb 4f b1 1b 3d 75 df 0a bd 2f 74 02 bd
       -0.007501725 0.03801089 -0.03390451 -0.031849083
0001b0 4a aa 39 3d be 54 73 bd 7d 3a 64 bd cf 54 85 3d
       0.045328416 -0.05940699 -0.05571984 0.065103166
0001c0 ea 24 d4 3d 8a c7 44 bd ff 7e d6 3c 1b 57 11 bd
       0.10358603 -0.048041858 0.026183603 -0.03548346
0001d0 14 88 4a bb 4d a0 5f bd a2 55 8a 3d 2d 76 9f bd
       -0.0030903863 -0.054596234 0.067546144 -0.07786212
0001e0 12 7e e8 3d b7 98 40 3d e5 fa 9f 3c 5f 09 98 b9
       0.11352171 0.04702064 0.019528816 -0.0002899868
0001f0 e7 a6 d7 3d f4 5d ab bc 35 94 ae bc 8b 9d 2a bd
       0.10529881 -0.020918824 -0.021310905 -0.04165415
000200 a1 50 be 3d 5a bd a1 bd 14 db 58 3c 93 c2 85 bb
       0.092927225 -0.07897444 0.013235826 -0.004082033
000210 07 d4 59 3d 0f ab 46 3d e2 63 3c bc ba a8 e2 bc
       0.05318072 0.048502978 -0.011498423 -0.027668346
000220 92 f9 5d bc c1 5d ae bd 21 4a f3 38 95 a8 f2 3c
       -0.013548272 -0.08513976 0.000116009505 0.029621402
000230 c1 bb 10 bd 34 52 18 3e 79 df 80 3c 0e c6 31 bd
       -0.035335306 0.14875108 0.01573156 -0.04340177
000240 c9 ed 85 3d cc 78 a8 3d 5a cc a6 bd 32 95 0c 3c
       0.065394945 0.08226165 -0.08144446 0.008580493
000250 b9 a4 81 bc 3a dd e6 3d 14 2e 27 bd dc 50 7e 3d
       -0.015825616 0.11272664 -0.040815428 0.062088832
000260 89 cb 87 3d 22 b4 00 3e 19 f7 7d 3d 56 26 9f 3d
       0.06630618 0.12568715 0.06200323 0.07770984
000270 79 a5 f9 bc 42 d2 7c bb 4e 01 a0 bc b6 0a fd 3c
       -0.030474411 -0.0038577472 -0.019531872 0.030888896
000280 27 d3 62 3d 66 0c 29 3e 18 cb 8c bc 45 d0 79 3c
       0.05537715 0.16508636 -0.017186686 0.015247409
000290 26 0c 36 3d 7a 25 91 bd 90 41 a2 bc ae a8 67 3d
       0.04444518 -0.07087226 -0.019806653 0.05655735
0002a0 63 4e 9e bc ea 9d c5 3d ea 72 b1 3c fe 69 05 3d
       -0.019324487 0.0964926 0.02166124 0.032571785
0002b0 fe a8 1b bc e0 e8 cf 3d 89 70 63 3d bc 1b 62 3d
       -0.00950074 0.10151839 0.055527244 0.05520223
0002c0 b6 a6 d5 bc 53 e0 a9 3d 21 8e 53 bd 0c 63 3a bd
       -0.02608047 0.082947396 -0.051649217 -0.045504615
0002d0 fd 8a 6a bd fb 4d c5 bc db 29 a3 3c 73 fb c6 3c
       -0.057261456 -0.024085036 0.01991742 0.024289822
0002e0 f7 6a 5e bd a1 be c5 bc 3e f4 0b 3c 17 37 a8 bc
       -0.05430123 -0.02413875 0.008542119 -0.020534081
0002f0 77 e3 01 be ab 41 ce 3c 2c 0f f7 3c 2e b7 65 bd
       -0.12684427 0.025177797 0.030158602 -0.056082897
000300 51 40 25 bd 55 f9 e6 bd e2 0a 28 bb db 2d 06 3d
       -0.04034454 -0.11278025 -0.0025641252 0.032758575
000310 18 a3 06 3d 56 a1 0d 3d 1f fb 97 3c 95 70 0b 3c
       0.032870382 0.03457769 0.018552361 0.008510728
000320 cd dd ac bd 75 03 91 bd 46 4c 2b 3d 6a 28 8d 3d
       -0.08440743 -0.070807375 0.041820787 0.06892474
000330 06 05 8c bc d6 ef 2d 3d f0 9d 2b bd 89 ce 20 bc
       -0.01709224 0.042465053 -0.041898668 -0.009814867
000340 6c 82 89 bd e6 2e 17 be c6 b7 31 bd 1e 67 ad 3c
       -0.06714329 -0.14763984 -0.04338815 0.021167334
000350 41 18 23 bd a7 a7 47 3e 10 ec 29 bd 8f 33 59 bb
       -0.039818052 0.19497548 -0.041484892 -0.0033142304
000360 e6 66 75 bd 32 a9 49 3d 56 b7 db 3c 48 12 04 bd
       -0.059912585 0.049233623 0.02682082 -0.032243997
000370 91 ff 12 bd 3a fc 99 bd ed 1f c2 3d 64 b8 24 bd
       -0.03588826 -0.075188115 0.094787456 -0.04021491
000380 9f dc 22 3d ad 41 4a bd d1 7a a2 3d 75 f8 0e bd
       0.039761182 -0.04937904 0.079335816 -0.034904916
000390 2f 5a 08 bd 9d f2 3c bd 43 ed 35 3c 3d f3 39 bd
       -0.03328913 -0.04612981 0.011103931 -0.045397986
0003a0 3d 87 6c bd 08 cf 06 3c ec ed 81 bd 0f c1 00 3d
       -0.05774616 0.008228071 -0.06344208 0.031434115
0003b0 81 a8 c8 bc 92 37 e7 bb 40 cd 8d 3c ad b2 96 bb
       -0.024494411 -0.007056185 0.017309785 -0.0045989365
0003c0 d0 b8 d0 bc b8 77 a8 3d ab 65 ea 3d 85 ef 08 bd
       -0.02547875 0.082259595 0.11445173 -0.03343155
0003d0 66 34 e8 3c 2f c9 7d 3b 11 81 cf 3d b8 d0 80 3c
       0.028345298 0.003872465 0.10132039 0.015724525
0003e0 fd 3a f2 bc ce 2a 17 3c 61 0a a6 3c b9 be 81 3c
       -0.029569143 0.009226514 0.02026862 0.015838014
0003f0 7d 2c 5a 3d e5 51 1d bd 48 6f 83 bd 62 56 ec 3c
       0.053265084 -0.03840818 -0.064177096 0.028849784

fcs1.bias f4 [256]
000000 d0 8c 19 be 2d 37 55 3d e8 dd 1a 3e 0a e1 24 3d
       -0.14995122 0.052054573 0.15123713 0.040253676
000010 ed 8a 59 bd 56 ae 20 be 7e 04 0f be 4f a8 4e bd
       -0.053111006 -0.15691504 -0.13966557 -0.05045348
000020 1e ae 69 be f1 db 8a bd 18 53 15 3e 0c d7 0a 3d
       -0.22820327 -0.06780232 0.14582479 0.03389649
000030 f6 1f 5d 3d b3 97 8a be 78 1d a5 3d a8 13 02 3e
       0.05398556 -0.27068862 0.08062261 0.12702811
000040 d8 09 c6 3c af 7e 07 3e 74 27 28 be fb 39 99 bd
       0.024174616 0.1323192 -0.164213 -0.07481762
000050 37 5b 1f be d6 0e e1 bd 8a a8 91 3c dc 53 3a be
       -0.1556214 -0.10989158 0.017780561 -0.18196052
000060 31 87 a6 bc cb 34 ae be dc 1c 6c 3d 56 1c b5 3d
       -0.020328136 -0.34024653 0.05764471 0.08843295
000070 69 5a 16 be 1d b0 44 bd ab 0f f9 bd eb 61 5c bd
       -0.14682926 -0.048019517 -0.121611916 -0.05380432
000080 d8 c7 b0 bd 25 fe 34 3d 81 c7 56 be ae 36 56 3c
       -0.08631867 0.044187684 -0.20974542 0.01307456
000090 55 15 71 be ec 13 56 3e 2a b0 ec bb 29 3c 86 3d
       -0.23543294 0.20906037 -0.007223149 0.065544434
0000a0 87 52 b2 bd ca 2b 09 be 56 fd 01 ba ca 62 c1 3c
       -0.08707147 -0.1339561 -0.00049587095 0.023606677
0000b0 4f e1 b1 bd f1 b2 6d 3d 51 8a 0a bd 17 5d 09 be
       -0.08685552 0.05803198 -0.033823315 -0.13414417
0000c0 09 c6 15 3e f2 0f 95 3d e9 bd 45 3c ae 0e 51 3e
       0.14626326 0.07278432 0.012069204 0.20415756
0000d0 12 8a 36 bd dd 8f c5 bd e6 01 5d 3c fa 49 66 bd
       -0.044565268 -0.0964658 0.013489222 -0.056222893
0000e0 de 15 1f 3e c7 35 81 bc 5d f8 ee bd ca ec 15 3e
       0.15535685 -0.015772713 -0.11668465 0.14641109
0000f0 6e cd db 3c 6c 29 12 3e 78 a1 23 bc 9b 39 58 be
       0.026831355 0.14273614 -0.009987228 -0.21115725
000100 5b b1 b0 3d 13 87 f0 3b 96 28 ef bd ca b8 57 3e
       0.08627578 0.007340321 -0.11677663 0.21066585
000110 28 c6 6b be d9 4c 27 bd 1d 58 f2 bd 9a d4 63 be
       -0.2302481 -0.040844772 -0.118332125 -0.2224907
000120 53 57 21 be 2c ac 08 be 58 cc 0b bd fb 39 34 3e
       -0.15755968 -0.13346928 -0.034130424 0.17600243
000130 06 3d 12 3e 5e b9 8a 3e a3 a4 9a 3c 52 eb c5 3d
       0.14281091 0.2709455 0.018877333 0.096640244
000140 76 12 af bd 9c de 07 be 0f 1d 36 be 02 3a 31 be
       -0.08548443 -0.13268512 -0.17784522 -0.17307284
000150 09 3c a3 3d 88 70 12 be 60 d2 d7 bd 6f 20 92 3d
       0.07970435 -0.1430074 -0.10538173 0.071350925
000160 27 e3 a7 bd fd 8d a8 3d 42 27 16 be fe a1 47 bd
       -0.08197623 0.08230207 -0.14663413 -0.048738472
000170 cb ac 8c bc 4e 66 fa 3d 09 a1 3e be 2a 31 49 be
       -0.017172238 0.12226544 -0.18616118 -0.19647661
000180 70 64 20 3e 15 7c 34 be 50 3a 5f 3e f6 c2 0b 3e
       0.15663314 -0.17625459 0.21799588 0.1364859
000190 88 63 bc 3d 21 a4 cf bc 5d f9 0e 3e 5f 3b c9 3d
       0.091986716 -0.025346817 0.13962312 0.09825777
0001a0 fc 3f dc bd 72 0b 08 3e d3 44 3a 3d 4d 41 94 be
       -0.107543916 0.13285616 0.045475792 -0.2895607
0001b0 32 52 02 be 76 04 11 be 5c 27 8e bd 23 a2 31 be
       -0.12726668 -0.14161858 -0.06941101 -0.17347006
0001c0 5a c0 cd bd b0 ea 1c be aa 93 71 bd dd 22 f0 3d
       -0.10046454 -0.15323901 -0.058978714 0.117254
0001d0 d5 c9 33 3e 06 87 35 be 30 93 20 be fa 03 84 3d
       0.17557462 -0.17727289 -0.15681148 0.06446071
0001e0 21 35 87 bd 5e dc f5 bc c2 46 c9 3d db d1 2b 3e
       -0.066019304 -0.030012306 0.09827949 0.16779272
0001f0 bb b5 35 3d 45 e5 33 3d 9c 1d 38 3d 5a 32 20 3d
       0.044362765 0.04391982 0.044950113 0.03911052
000200 5c 87 34 3e fb 94 63 be 9a 82 47 be be 8b 41 3e
       0.1762976 -0.222248 -0.19483414 0.18900964
000210 ec 15 4c be 75 5a b5 3d bc 0f cc 3d af 26 22 3e
       -0.19930238 0.08855144 0.099639386 0.15835069
000220 91 81 5e 3d 93 6b e2 3c b8 27 73 3d b8 e3 d4 bd
       0.054322783 0.027639186 0.05936405 -0.103949964
000230 ca 1e 6d 3d a9 68 e9 bd 3a fa f7 3d 1a ac 38 3c
       0.05789069 -0.113969155 0.12108274 0.011271501
000240 48 31 29 3e 65 74 ce bd 95 83 e2 bd 49 ec f6 bd
       0.16522706 -0.10080794 -0.110602535 -0.120567866
000250 14 2e 0b bd ec 01 52 3e 9d a7 73 3d 74 d3 44 3e
       -0.03397949 0.20508546 0.05948602 0.19221288
000260 8d 4d 28 3e 90 80 2f be 90 51 8f 3e 92 63 0f 3d
       0.16435833 -0.17138886 0.27991915 0.035007067
000270 03 74 48 3e 95 a6 c0 3b f5 d5 06 3d 24 c7 16 3e
       0.19575505 0.005879233 0.03291889 0.14724404
000280 a9 0c e6 bd 5d 84 23 be 33 87 2d 3d f2 65 87 bd
       -0.112328835 -0.15968461 0.042365264 -0.066112414
000290 e3 e7 9d bc a3 ea 05 be 7f c5 b6 3d bc 88 98 3d
       -0.019275611 -0.13077788 0.08924388 0.07447955
0002a0 45 cc a3 3d a9 2c d2 3d 1d 30 ef 3d 09 b7 12 be
       0.07997946 0.102624245 0.11679099 -0.14327635
0002b0 5c 9e 7b be f2 d9 2b be 9f c2 e7 be db f9 36 be
       -0.24572128 -0.16782358 -0.45265672 -0.1786875
0002c0 67 3c 53 bd 89 8a 1c 3e 05 08 25 be 8a a7 df 3c
       -0.051571276 0.15287222 -0.1611634 0.027301569
0002d0 da 61 d1 bd 92 ea a9 3d 61 71 3a 3e 1a 66 69 3d
       -0.10223742 0.08296694 0.18207313 0.056982137
0002e0 25 3c 01 3e 1c d7 1c be ce 7d 03 be 96 1f e6 bd
       0.126206 -0.15316433 -0.1284096 -0.11236493
0002f0 2e 5f 64 3d 5a 26 2f 3e 64 b5 f0 3d cb 44 65 3d
       0.055754833 0.17104474 0.117533475 0.05597381
000300 69 12 ee bc 9e 52 de bd 28 a3 5e 3e 50 4d 39 be
       -0.029061513 -0.10855602 0.21741927 -0.18095899
000310 01 5e f5 bd c5 8f de 3d df 23 30 3e 24 fd b5 bc
       -0.119808204 0.108672656 0.17201184 -0.022215433
000320 71 72 8c bc 12 f3 6d 3d 8c 31 53 bc c6 76 09 be
       -0.017144414 0.058093138 -0.012890231 -0.13424215
000330 96 f6 6c 3e f6 5e 73 3e da 4b a6 bc 21 d7 b3 3d
       0.2314094 0.23766693 -0.02029984 0.08781267
000340 f2 f4 80 bd af d3 11 be dc 08 a1 3d c5 d9 07 bd
       -0.062967196 -0.14240907 0.07863018 -0.033166666
000350 ca a1 54 3e dd 4f a5 3b 19 d1 89 bd e5 7e 36 be
       0.20764843 0.005044921 -0.06729335 -0.17821844
000360 44 54 e1 3d 10 51 01 3e 65 1d d4 3c d9 cb 39 bd
       0.110024005 0.12628579 0.025892923 -0.04536042
000370 76 90 46 bd d8 ab c8 3d 72 3a 62 3e 65 c5 03 bc
       -0.048477612 0.097984016 0.22092608 -0.008042668
000380 8a dd da bc 5e 42 41 be 35 f3 01 3d 20 28 ed bd
       -0.026716966 -0.18872973 0.03172608 -0.11579919
000390 6f 0a 1b bc 35 fd 0a be eb b9 3e 3e 8b e8 b7 3d
       -0.009462937 -0.13573153 0.1862561 0.08979901
0003a0 3f 27 0f bd 4a 5e 64 bd 43 5e b1 3d 73 e5 3f 3d
       -0.034949537 -0.055753984 0.08660557 0.04684968
0003b0 9a cb b3 bd c1 57 ee 3d e6 e1 35 3d d8 6c 06 3e
       -0.08779068 0.116378315 0.044404887 0.13127458
0003c0 ed 55 c0 bd f4 8d f8 bd db 4d 26 3e 54 a5 40 bc
       -0.09391389 -0.121364504 0.16240637 -0.011758167
0003d0 c7 96 15 be 9c d6 59 3e ea c5 3f bd 99 c3 0a be
       -0.14608298 0.21273273 -0.046819605 -0.13551177
0003e0 a8 b6 cb be 91 e7 40 bd da c9 ad bd dd b9 43 be
       -0.39787793 -0.04709584 -0.08485766 -0.1911387
0003f0 e5 97 b8 3d 33 28 6b 3e 32 d9 16 be fc 04 e4 3d
       0.090133466 0.22964554 -0.14731291 0.11133763

fc2.weight f4 [128, 258]
000000 2c 3f 58 bc 69 f5 be bc 68 b7 84 3d 80 68 c3 3a
       -0.013198655 -0.02331038 0.064802945 0.0014908463
000010 8a 61 6a 3d 72 be 5f bd 9a 32 16 3d 96 f8 d7 3d
       0.057221927 -0.054624982 0.03666935 0.10545461
000020 1e 99 4e bd 89 6a 7a 3c f1 8e 29 3d 5d 24 61 bd
       -0.050438993 0.015284189 0.041396085 -0.05496632
000030 82 9a bf bc 5b 9d 01 bd 83 17 cc 3c 34 c1 cb 3c
       -0.023389105 -0.031644206 0.024913555 0.0248724
000040 64 9a 1d bd a9 0b 77 3c 93 f2 ce 3c ea ff 86 3c
       -0.038477316 0.015078464 0.025262153 0.016479451
000050 16 90 8d 3d 9b c0 78 bc 83 72 05 3d 91 e6 f8 3c
       0.06912248 -0.0151826395 0.03257991 0.03038338
000060 76 dc 49 bd 63 af 98 bc b0 32 55 bd ab ac 88 3d
       -0.049282514 -0.018638318 -0.052050292 0.06673559
000070 f0 eb 61 3d 07 92 87 3a 87 c2 9d bc b0 f7 b5 3c
       0.05515665 0.0010343202 -0.019257797 0.022212833
000080 e3 d3 6b 3d 0a da c0 3c 70 24 63 be 5e c9 c0 3d
       0.057575118 0.02354147 -0.22181869 0.09413408
000090 48 e3 de bc 69 a0 5e 3d f7 8b 58 bd ec 59 86 bd
       -0.027207986 0.054352198 -0.052867856 -0.0656012
0000a0 d7 99 98 bd 09 2d 90 3c e3 16 ba bb 1d a0 55 bd
       -0.074512176 0.0175996 -0.005678998 -0.05215465
0000b0 b6 bc e0 bc 0b ed c3 bd 9f 67 ae bb ad 62 8d bc
       -0.027433734 -0.09566697 -0.005322411 -0.017258966
0000c0 06 b3 35 bd 8c ba 09 3d 46 43 e6 bc b9 95 c9 3b
       -0.044360183 0.03362517 -0.02810825 0.0061518815
0000d0 04 1b 69 3d 5c 7d 68 3d 4a 0b fd bc 8c 12 5e 3d
       0.05691053 0.056760177 -0.030889172 0.054216906
0000e0 c1 75 8a bd a5 0a 1b 3d 76 60 29 3c 54 85 51 3d
       -0.06760741 0.03785195 0.0103379395 0.051152542
0000f0 d6 f1 5c bb a5 a8 34 3d 67 12 ae 3d 9f 69 91 bd
       -0.0033713481 0.044106144 0.08499604 -0.07100224
000100 af 7b 9c bc 50 be 90 bd 88 d7 19 bd eb aa 00 bd
       -0.019101946 -0.07067549 -0.037559062 -0.031413
000110 74 9a 1c 3c 82 46 9d bd c6 a0 29 3c c5 40 cb 3c
       0.009558309 -0.07679464 0.010353273 0.024811158
000120 9f b9 dd bb 65 f1 24 3d d7 b8 db bc 03 70 95 3b
       -0.0067665125 0.040269274 -0.026821537 0.004560472
000130 9e 08 17 3d d1 52 65 3d 4e 46 4e 3d be 26 b3 bd
       0.036873452 0.055987183 0.050360017 -0.08747624
000140 df f6 9f 3d 8e d3 f7 ba dc 4d 7a 3d cf a1 90 3b
       0.07810759 -0.0018907653 0.06110941 0.0044138203
000150 10 c2 c9 3c db 40 a6 3d 42 9e 23 3d cb cc 1a 3d
       0.024628669 0.08117839 0.03994585 0.037792962
000160 60 bd 9e bd ec 01 9a 3a 82 fc 4c bd f8 4c 86 be
       -0.07750964 0.001174984 -0.050045498 -0.26230597
000170 ee 0f 9f bd 3e 8b c2 bc 97 ce d9 3c 9d 92 ca ba
       -0.0776671 -0.023748036 0.026587768 -0.0015455071
000180 b4 9a 9c 3d f9 00 48 bd df d2 ba bc 61 44 a5 bd
       0.07646695 -0.048829053 -0.02280563 -0.08069683
000190 c7 da 96 3d 9d 81 8a bd a2 df fb bc af 12 37 3c
       0.07365947 -0.06763003 -0.030746285 0.011173888
0001a0 21 d0 42 bc 8d 49 10 bd 8e 7a 9a bc 48 08 d0 bc
       -0.011890442 -0.035226393 -0.018857267 -0.025394574
0001b0 5f 52 28 bb 1c 25 06 bd 9c e1 93 3c 82 4d e0 3d
       -0.0025683863 -0.032750234 0.018051915 0.109522834
0001c0 36 27 a2 bd be 4c 49 bc db 8e 6c bd 6b 0a 93 3d
       -0.07917635 -0.012286363 -0.057753425 0.071797214
0001d0 b8 87 22 bd 8c 22 6f bc 1b ce a7 3d 0a 5e 84 3d
       -0.039680213 -0.014595639 0.081936084 0.06463249
0001e0 c1 16 a6 bd c0 bb 19 3d 11 d7 6a bc 81 e9 d9 3c
       -0.08109809 0.037532568 -0.014333502 0.026600601
0001f0 89 d9 80 bd 0a d7 ec bc 42 5f 0b bd 2d 13 89 bc
       -0.062914915 -0.028911132 -0.03402639 -0.016732777
000200 d3 09 24 bd 07 6d ae bc 15 a3 90 bd e1 35 0b bb
       -0.04004843 -0.021292223 -0.070623554 -0.002124183
000210 15 40 42 3c 67 5e 1b 3d 15 90 ef 3c 5f d2 e8 3c
       0.011856099 0.037931826 0.029243508 0.028420625
000220 86 25 89 3d 23 15 20 be a5 45 13 3d a6 f2 a1 3d
       0.0669661 -0.15633063 0.03595509 0.0790761
000230 03 f8 32 bc e5 6a 92 bb e5 d8 04 3d c0 32 3b 3c
       -0.010923388 -0.004468309 0.03243341 0.011425674
000240 07 08 9d bd 81 60 b1 bd f3 d8 67 bd 41 c2 bc ba
       -0.07667547 -0.08660985 -0.056603383 -0.0014401154
000250 f4 09 8d 3d 6e cd b9 3b 2b 7a 05 bd d4 1f a9 3c
       0.06886664 0.005670241 -0.03258721 0.02064506
000260 91 fb 6e 3d c5 24 f8 3d e1 29 5b bd 0c d8 77 bd
       0.05834538 0.12116388 -0.053506736 -0.060508773
000270 b7 59 13 3d c9 e0 9f 3d f5 1d 5c 3c 4b 26 9a 3d
       0.03597423 0.07806546 0.013434877 0.07526835
000280 18 ec 12 3a 19 3f f9 3c 3d 42 8c 3d 1a db 3b bd
       0.0005604639 0.030425595 0.068485714 -0.04586325
000290 fb 06 48 bd 46 e0 e3 3c 4a 16 f9 bc 6b a7 c7 bc
       -0.048834782 0.027816903 -0.030406136 -0.024371823
0002a0 b7 d7 6d 3d f3 95 68 bd eb 90 cd bc cf e0 71 bc
       0.05806705 -0.056783628 -0.025093516 -0.014763071
0002b0 56 c1 31 3e d4 8a 81 39 e6 d8 81 bd 17 29 01 3d
       0.17358908 0.00024708232 -0.06340198 0.031533327
0002c0 c9 56 67 3d b8 9b 20 3d 3c 90 00 3d d0 a6 d5 bc
       0.05647925 0.039211005 0.031387553 -0.026080519
0002d0 45 8e af bc 58 bc f9 bc b8 d9 c5 bc f9 92 aa bd
       -0.021430144 -0.030485317 -0.024151668 -0.08328814
0002e0 f8 cf 83 3d b2 1d ed 3c 2a ca 1c 3d 95 87 00 3c
       0.06436151 0.028944824 0.038278736 0.007844825
0002f0 9b 93 bc bd 06 f7 09 3d f2 df 0a 3d 11 9c a7 3d
       -0.09207841 0.033682846 0.033904977 0.08184064
000300 b0 98 1d bc 82 9e 30 b9 fc b4 2e bb 1e dd 13 3d
       -0.009618923 -0.00016843717 -0.0026658168 0.036099546
000310 50 ea cc 3c cf eb 44 3d 56 a9 09 3c a5 22 28 be
       0.025014073 0.048076447 0.008402189 -0.16419466
000320 b5 6a b3 3d 9c 07 1a bd b0 83 ca 3c 13 78 97 bc
       0.08760587 -0.037604913 0.024720997 -0.018489873
000330 b0 a9 c7 3c 5b ee 8d bd 49 33 8c 3d 84 7f 76 bc
       0.024372905 -0.06930228 0.06845719 -0.0150450505
000340 a4 5d 45 bd d0 59 64 bc 35 14 27 3d b4 28 7a bc
       -0.048185006 -0.013937429 0.040790755 -0.015268493
000350 2e 23 49 3c 4a ec 0f bd 27 ea eb bb 75 be 46 3d
       0.012276454 -0.035137452 -0.007199544 0.048521478
000360 33 71 f5 bb d9 ff a9 bd ed 93 2c 3d 05 16 9a 3d
       -0.007490301 -0.08300752 0.04213326 0.07523731
000370 e0 db 21 be 82 ba 94 bc 46 fb 82 3d 24 a2 f5 3c
       -0.15806532 -0.01815534 0.06395583 0.029984541
000380 9d a7 89 bd b6 e6 96 bd 70 21 84 bc 98 8b 86 bc
       -0.06721423 -0.07368223 -0.016129225 -0.016423985
000390 52 36 99 bd 20 6a 3c bd e1 f9 17 bd 8f 02 31 bc
       -0.07481064 -0.045999646 -0.037103537 -0.010803833
0003a0 41 9b 50 3d 38 23 cc ba e7 78 3a 3d 35 ba 75 3d
       0.05092931 -0.0015574461 0.045525458 0.059992034
0003b0 4b e3 0b bd f2 ae f0 bc c0 c3 be 3c 05 8a 97 3d
       -0.03415231 -0.029380295 0.0232867 0.07399372
0003c0 95 60 f4 3b 2c 87 1a bd 3f 61 07 3d 2f 3b d5 bc
       0.0074578025 -0.037726566 0.033051725 -0.026029197
0003d0 8d 1b a1 3d a0 2d 38 bd fd 5b 26 bd c4 b8 df 3c
       0.07866583 -0.044965386 -0.04061507 0.027309783
0003e0 45 e1 d5 3c ed 56 e0 bc d7 a2 35 3d 53 9b 97 bd
       0.026108393 -0.0273852 0.04434475 -0.074026726
0003f0 69 ec 45 39 e2 d5 5c 3d 46 74 8a 3d 80 51 39 3d
       0.00018875454 0.053914912 0.06760459 0.04524374

fc2.bias f4 [128]
000000 5d ba 92 bc 31 aa e2 bd d3 77 b2 bd 4d d0 c1 bd
       -0.01791113 -0.11067618 -0.08714261 -0.09463558
000010 bd af c3 bd bd f7 ec bd 6c 98 a8 bb d1 90 d5 bc
       -0.09555004 -0.1157069 -0.005145123 -0.02607003
000020 6e fa a6 bd df 8c 80 bd aa a3 33 bd e3 60 3b be
       -0.081532344 -0.06276869 -0.043857254 -0.18298678
000030 b4 a6 aa bd 62 83 42 be 18 56 65 be e9 00 1e be
       -0.08332577 -0.18995431 -0.22396123 -0.15430035
000040 3b e7 39 be ec 3d 95 bd 04 72 a5 bd a7 86 f1 bd
       -0.18154614 -0.07287201 -0.080783874 -0.11793261
000050 a1 39 97 bd 2c 6a bc bd d9 27 d3 bd f4 29 ea bd
       -0.07384039 -0.09199938 -0.10310335 -0.11433783
000060 b8 38 05 be d3 3a e1 bd ed df e4 bd e7 b3 c8 bd
       -0.13009918 -0.10997548 -0.11175523 -0.09799939
000070 57 5f 8d bd 3c e6 a5 bd 9e 30 07 be 80 45 fe bc
       -0.0690295 -0.08100554 -0.1320214 -0.031039
000080 7f a9 e1 bd 7b ea 38 be 37 88 0b be 5f 7f bf bc
       -0.11018657 -0.18058197 -0.1362618 -0.023376165
000090 d2 50 0e 3c 2f ff b6 bd eb 9b c7 3c 04 60 e7 bd
       0.008686261 -0.08935391 0.02436634 -0.112976104
0000a0 97 bb 91 bd 61 26 09 be f4 bf 98 bd 6f cf 68 bd
       -0.07115858 -0.13393547 -0.07458487 -0.05683845
0000b0 7b e6 f6 bd 68 99 0e be 94 96 56 be 4a fb 75 bd
       -0.120556794 -0.13925707 -0.20955878 -0.0600541
0000c0 d0 36 a5 bd cb a2 12 bd ae 74 cc bd 38 83 64 bd
       -0.08067095 -0.035799783 -0.099831924 -0.055789202
0000d0 a0 5c c0 bd 54 0f 43 be 3a ce d8 bc 2a 1f 3e be
       -0.09392667 -0.19048816 -0.026465524 -0.18566576
0000e0 60 74 d8 bd 4d 92 16 be ad 12 d5 bd 32 64 2f be
       -0.10569072 -0.14704247 -0.10403953 -0.17128065
0000f0 22 4e d5 bd 45 2a f3 bd 38 22 98 bd 51 b9 19 be
       -0.10415293 -0.11873297 -0.07428402 -0.15012099
000100 40 53 61 be bb da 16 be 1f b4 8e 3c a6 3e c3 bd
       -0.22004414 -0.14731877 0.017419873 -0.095334336
000110 28 db e5 bd 01 e8 10 be 9d d3 a1 bd a3 45 d0 bd
       -0.11223441 -0.14151002 -0.0790169 -0.10169532
000120 59 bd 41 be 55 d3 0e be b8 de ad bd 77 ce 80 bd
       -0.18919887 -0.13947804 -0.08489746 -0.0628938
000130 b8 53 dc bd 4d 0d 02 be e6 d5 a5 bd 99 c7 ea bd
       -0.107581556 -0.12700386 -0.080974385 -0.114638515
000140 bc 65 09 be 45 92 e7 bd 6d b7 a4 bd 24 25 28 be
       -0.13417715 -0.113071956 -0.08042798 -0.16420418
000150 9e 47 c9 bd 5d 16 95 bd fa bd 1d be a0 07 d1 bd
       -0.09828113 -0.07279656 -0.15404502 -0.102065325
000160 7b e6 2a be 8e 1d cb bd d4 44 e9 bd 15 c6 b4 bd
       -0.16689484 -0.099177465 -0.11390081 -0.08826844
000170 38 9e 6d be 3d a6 05 be 12 0f d0 bc f5 a6 ed bd
       -0.23204887 -0.13051696 -0.025397811 -0.1160411
000180 59 43 b2 bd 97 d4 2f be b0 5f e2 bd 07 cb fc bd
       -0.08704252 -0.1717094 -0.11053407 -0.12343412
000190 0a c6 2b be b8 e9 a8 bd 60 07 12 bd bf 40 76 bd
       -0.16774765 -0.08247703 -0.035651565 -0.06012034
0001a0 e4 15 de bd 7d 09 29 be cd b7 f9 bd fc 39 cc bd
       -0.10844019 -0.16507526 -0.1219326 -0.09971997
0001b0 15 b9 1b be cc 54 2f bd 00 16 ff bd 76 72 a4 bd
       -0.15207322 -0.042805478 -0.12455368 -0.08029644
0001c0 a8 c3 87 bd 5f 60 0e bc da a3 ef bd a5 e1 76 bd
       -0.06629115 -0.008689969 -0.11701174 -0.060273785
0001d0 4e 25 06 be 5c 9e 5f be 5b 18 6f 3b 51 00 76 bd
       -0.13100168 -0.21837753 0.0036483023 -0.060058895
0001e0 42 ae 96 bd ba 8b 35 bd 0b 78 b4 bd d2 30 57 bd
       -0.07357456 -0.044322707 -0.08811959 -0.052536793
0001f0 3d ab 2d be ac 21 f9 3c 2d 7f 00 be 7e 32 98 bd
       -0.16959853 0.030411564 -0.12548514 -0.074315056

fc3.weight f4 [1, 128]
000000 6e c0 5b 3c 5b 50 3e bc 98 85 bd bb a5 42 f5 3b
       0.013412578 -0.011615838 -0.005783748 0.0074847513
000010 94 7a 28 bc 92 31 22 3c 50 ae 39 3c fc 42 d9 bb
       -0.010283131 0.009899514 0.011333063 -0.0066302996
000020 54 91 6b 3c 6a f9 02 bc f4 49 09 bc 7b 3b 11 bc
       0.014377911 -0.007994035 -0.008379448 -0.008864279
000030 9e 3b 05 3c 59 73 40 3c 92 2d 11 bc 8a 4d b9 bc
       0.00813189 0.011746251 -0.008860962 -0.022619981
000040 ee 8c 86 3c 85 b6 92 bc 36 a2 23 3d e6 3d 02 bc
       0.016424622 -0.017909298 0.03994962 -0.007949328
000050 76 f7 55 bc 6e 33 78 bc 27 4d a0 ba b6 cd 58 3d
       -0.013059488 -0.015148981 -0.0012230024 0.052930556
000060 6c 56 1b 3c dd a3 a1 bb 49 f2 c4 3b 7b e8 13 bc
       0.009481054 -0.004932864 0.006010328 -0.009027596
000070 30 fb 8c bb 5e c8 ea 3c 03 59 0b 3c 43 f9 dd bb
       -0.004302405 0.028659996 0.008505109 -0.006774099
000080 72 88 d7 bb b0 f8 6f 3c 26 fc 3d bc 6a 90 29 bc
       -0.006577545 0.014646694 -0.011595761 -0.010349372
000090 69 44 c4 bb ca c1 0c 3c 66 1a 03 3c 9b c7 12 3c
       -0.0059896004 0.008591125 0.008001899 0.008958722
0000a0 09 5d 17 3c ef 1c 3f 3c 4a 16 da bb 32 3d c1 bb
       0.00923849 0.011664613 -0.006655489 -0.0058971876
0000b0 04 39 66 3c 20 02 51 bc 5e ac d9 3c d8 8c d7 bb
       0.0140516795 -0.012756854 0.026571449 -0.006578069
0000c0 72 00 8f bc 6e e2 02 bc 47 4a 7f bb 29 7b 2b 3c
       -0.017456267 -0.007988555 -0.0038954185 0.010466375
0000d0 b4 1e b6 bb 1a e6 ce 3d 40 2d 00 bb dd 7f 91 bc
       -0.0055578593 0.10102482 -0.001955822 -0.017761165
0000e0 2c a1 e6 bc 56 29 9d bb 48 e3 ae bc df 7f 5f bc
       -0.028153025 -0.0047961874 -0.02134861 -0.013641327
0000f0 a5 10 3f 3c 8f bb 4f bc 0a 3c be bb 0c dc a8 bc
       0.011661683 -0.012678995 -0.005805497 -0.020612739
000100 09 fb 62 bd 0d 9c a9 3b b9 4c 00 bc 14 42 79 bc
       -0.055415187 0.0051760734 -0.007830792 -0.015213508
000110 e1 58 72 bc 66 4c a5 bb de 78 18 3c b2 e6 51 bc
       -0.014791698 -0.005044508 0.009306161 -0.01281135
000120 6c 36 15 bc 0e 6f 11 3c 72 9d 04 3c b9 9d e3 bb
       -0.0091072135 0.008876575 0.0080941785 -0.0069462922
000130 8f fd be bb 5d 3a 97 bb fe a8 e2 3b 1c ba 62 bc
       -0.0058285664 -0.0046151117 0.006917118 -0.013838317
000140 f1 00 bc bb 6b b6 88 bc dd 52 bf bb 95 89 d9 bb
       -0.005737417 -0.016688546 -0.0058387355 -0.0066387155
000150 0c 3a 18 bc e7 71 6f 3d 53 fb 7e 3c 43 9e 36 bc
       -0.009291183 0.058458235 0.01556285 -0.011146131
000160 bd a7 26 3c ff 1b 1f bc cf 31 08 bc fa 28 a9 bb
       0.010171828 -0.009711265 -0.008312657 -0.0051623555
000170 f4 bf 31 bc d9 d1 07 3c f2 c5 48 3c 28 17 04 3c
       -0.010848988 0.008289778 0.012254225 0.0080621615
000180 0b 91 6f bc f5 2b b8 3d d6 c8 a3 3c e1 a3 0d bc
       -0.014621983 0.08992759 0.019993227 -0.008645029
000190 2f 5a ca bb 31 dc 4f bc 7e aa 8a bb a7 c1 cd bb
       -0.0061753015 -0.012686775 -0.00423175 -0.0062791887
0001a0 57 4e c4 3b 64 4a 96 3c e0 a9 b6 3b e8 a3 29 3d
       0.005990784 0.01834602 0.00557445 0.04141608
0001b0 e5 55 e9 bb e7 e4 c7 bb 5d 69 d7 3b ce af a5 bb
       -0.007120835 -0.0061002853 0.0065738396 -0.005056358
0001c0 c6 41 8f bb 6e 15 f7 3b 47 b1 8c bb 78 38 06 3c
       -0.0043718545 0.0075403964 -0.004293594 0.008192174
0001d0 fe 9a da bc 8a de 63 bc fc 14 46 bc a1 29 f1 3b
       -0.026685234 -0.013908038 -0.012089964 0.007359699
0001e0 48 7c d9 3b 6b 32 aa bb 46 2d d3 3b cc 31 18 bc
       0.00663713 -0.0051939986 0.006444606 -0.009289216
0001f0 e2 16 92 3c 80 fb 51 bc e3 4c 12 3d 99 c9 e4 bb
       0.017833177 -0.01281631 0.035717856 -0.00698204

sequential.0.weight f4 [256, 24]
000000 13 ef 32 bc 7b 30 83 bc 70 43 08 3d 62 2f c8 bc
       -0.010921258 -0.016014328 0.03326744 -0.024436656
000010 34 12 43 be 86 b7 e2 bd 1f 94 6d bc 02 c6 30 3d
       -0.19049913 -0.110701606 -0.014500647 0.043157585
000020 f3 a7 8e bc 72 10 f6 3c 60 ad 20 bd f3 34 18 3c
       -0.017414069 0.030037139 -0.039227843 0.009289968
000030 bc 95 d4 bd a5 aa ed bb 7a 44 78 3d bd 9e 8f 3c
       -0.10380122 -0.0072530084 0.06061218 0.017531747
000040 bb b9 c4 3c b5 c5 12 bd 87 82 64 3d 4b 1a 3f bc
       0.024014344 -0.03583308 0.055788543 -0.011663984
000050 47 88 d9 bd a7 59 c9 3d 93 fc 21 bd fe 4b 81 3c
       -0.10621696 0.09831553 -0.039547514 0.015783306
000060 da 81 0e 3d f3 95 e7 3c aa c1 a4 3d 9a c9 97 b8
       0.034791805 0.028269744 0.08044751 -7.237792e-05
000070 c5 e2 9a 3c 89 9f 9d 3c e1 20 00 3e b7 9f ae bc
       0.01890696 0.019241111 0.12512542 -0.021316392
000080 2f be 12 3b 6d 01 01 bc d0 98 c3 3c 28 3d ea 3c
       0.002239119 -0.007873875 0.023876578 0.028593615
000090 63 09 26 3d 5e 88 30 3d 62 5c 47 bc c8 6a d9 3c
       0.040536296 0.0430988 -0.012168022 0.026540175
0000a0 70 f3 77 3d df dc 97 3c 07 b1 20 bc c0 46 ba bd
       0.060534894 0.018537937 -0.009807832 -0.09095526
0000b0 4a 39 95 3d 45 4e 5c bc c0 90 05 3d f8 1c 81 bd
       0.07286318 -0.013446395 0.032608747 -0.063043535
0000c0 4e c7 8a bc 6e e9 7e bd dc b0 47 3c 60 a8 b7 bd
       -0.016940739 -0.062234335 0.012188163 -0.08967662
0000d0 db f7 37 bd c1 9c be bd 10 31 09 3d 72 30 9c bd
       -0.044914108 -0.09307242 0.033494055 -0.07626428
0000e0 3b 27 63 bd d9 94 10 bd c3 83 74 3c f8 c7 07 bd
       -0.055457335 -0.035298202 0.014923993 -0.03314969
0000f0 4b 2d a9 3c 02 19 ec bd 24 c8 ef 3c 70 c1 31 3d
       0.02065148 -0.11528207 0.02927024 0.043397367
000100 d5 c6 12 bd c1 e7 ab bd d8 76 5b 3d 68 90 1c 3d
       -0.035834152 -0.08393813 0.053580135 0.038223654
000110 3e 7b c1 3d a3 a0 2f bb 60 f2 b9 bb b2 9d 26 3d
       0.09447335 -0.0026798628 -0.0056746453 0.040677734
000120 5a 17 68 3d 79 f1 52 3d 70 f4 40 3d 67 a5 91 3a
       0.056662895 0.051499818 0.047108114 0.0011111916
000130 cf c6 27 bd 65 4a 8f 3d 5b 59 6e 3d f6 b0 ae 3c
       -0.040961083 0.069966115 0.058190685 0.021324616
000140 f5 93 04 3c b7 3c b9 3d 09 2e fa bb ba 52 b2 3c
       0.008091916 0.090447836 -0.0076348823 0.021767963
000150 5a ee 0d 3d 4b f5 73 bc a6 b9 66 3d cd 05 65 bd
       0.034651138 -0.014890025 0.056329392 -0.055913735
000160 60 c7 8d bc 51 29 9e 3d ed 97 31 3d 7a 1c 38 bd
       -0.017306983 0.07722724 0.04335778 -0.044949032
000170 a1 c9 a0 3d 7b 6b d1 bd 63 28 6f 3d 66 98 59 bd
       0.07850958 -0.102255784 0.058388125 -0.053123854
000180 6c 95 06 3e 28 15 05 bd db e2 8d bc 3b f1 a7 3d
       0.13142937 -0.03249088 -0.017320087 0.08200308
000190 fa 08 a0 bc f1 ae c3 bd 8d a9 31 3d c7 75 16 3d
       -0.01953553 -0.09554852 0.043374587 0.036733415
0001a0 08 d1 f5 bb 4f b1 1b 3d 75 df 0a bd 2f 74 02 bd
       -0.007501725 0.03801089 -0.03390451 -0.031849083
0001b0 4a aa 39 3d be 54 73 bd 7d 3a 64 bd cf 54 85 3d
       0.045328416 -0.05940699 -0.05571984 0.065103166
0001c0 ea 24 d4 3d 8a c7 44 bd ff 7e d6 3c 1b 57 11 bd
       0.10358603 -0.048041858 0.026183603 -0.03548346
0001d0 14 88 4a bb 4d a0 5f bd a2 55 8a 3d 2d 76 9f bd
       -0.0030903863 -0.054596234 0.067546144 -0.07786212
0001e0 12 7e e8 3d b7 98 40 3d e5 fa 9f 3c 5f 09 98 b9
       0.11352171 0.04702064 0.019528816 -0.0002899868
0001f0 e7 a6 d7 3d f4 5d ab bc 35 94 ae bc 8b 9d 2a bd
       0.10529881 -0.020918824 -0.021310905 -0.04165415
000200 a1 50 be 3d 5a bd a1 bd 14 db 58 3c 93 c2 85 bb
       0.092927225 -0.07897444 0.013235826 -0.004082033
000210 07 d4 59 3d 0f ab 46 3d e2 63 3c bc ba a8 e2 bc
       0.05318072 0.048502978 -0.011498423 -0.027668346
000220 92 f9 5d bc c1 5d ae bd 21 4a f3 38 95 a8 f2 3c
       -0.013548272 -0.08513976 0.000116009505 0.029621402
000230 c1 bb 10 bd 34 52 18 3e 79 df 80 3c 0e c6 31 bd
       -0.035335306 0.14875108 0.01573156 -0.04340177
000240 c9 ed 85 3d cc 78 a8 3d 5a cc a6 bd 32 95 0c 3c
       0.065394945 0.08226165 -0.08144446 0.008580493
000250 b9 a4 81 bc 3a dd e6 3d 14 2e 27 bd dc 50 7e 3d
       -0.015825616 0.11272664 -0.040815428 0.062088832
000260 89 cb 87 3d 22 b4 00 3e 19 f7 7d 3d 56 26 9f 3d
       0.06630618 0.12568715 0.06200323 0.07770984
000270 79 a5 f9 bc 42 d2 7c bb 4e 01 a0 bc b6 0a fd 3c
       -0.030474411 -0.0038577472 -0.019531872 0.030888896
000280 27 d3 62 3d 66 0c 29 3e 18 cb 8c bc 45 d0 79 3c
       0.05537715 0.16508636 -0.017186686 0.015247409
000290 26 0c 36 3d 7a 25 91 bd 90 41 a2 bc ae a8 67 3d
       0.04444518 -0.07087226 -0.019806653 0.05655735
0002a0 63 4e 9e bc ea 9d c5 3d ea 72 b1 3c fe 69 05 3d
       -0.019324487 0.0964926 0.02166124 0.032571785
0002b0 fe a8 1b bc e0 e8 cf 3d 89 70 63 3d bc 1b 62 3d
       -0.00950074 0.10151839 0.055527244 0.05520223
0002c0 b6 a6 d5 bc 53 e0 a9 3d 21 8e 53 bd 0c 63 3a bd
       -0.02608047 0.082947396 -0.051649217 -0.045504615
0002d0 fd 8a 6a bd fb 4d c5 bc db 29 a3 3c 73 fb c6 3c
       -0.057261456 -0.024085036 0.01991742 0.024289822
0002e0 f7 6a 5e bd a1 be c5 bc 3e f4 0b 3c 17 37 a8 bc
       -0.05430123 -0.02413875 0.008542119 -0.020534081
0002f0 77 e3 01 be ab 41 ce 3c 2c 0f f7 3c 2e b7 65 bd
       -0.12684427 0.025177797 0.030158602 -0.056082897
000300 51 40 25 bd 55 f9 e6 bd e2 0a 28 bb db 2d 06 3d
       -0.04034454 -0.11278025 -0.0025641252 0.032758575
000310 18 a3 06 3d 56 a1 0d 3d 1f fb 97 3c 95 70 0b 3c
       0.032870382 0.03457769 0.018552361 0.008510728
000320 cd dd ac bd 75 03 91 bd 46 4c 2b 3d 6a 28 8d 3d
       -0.08440743 -0.070807375 0.041820787 0.06892474
000330 06 05 8c bc d6 ef 2d 3d f0 9d 2b bd 89 ce 20 bc
       -0.01709224 0.042465053 -0.041898668 -0.009814867
000340 6c 82 89 bd e6 2e 17 be c6 b7 31 bd 1e 67 ad 3c
       -0.06714329 -0.14763984 -0.04338815 0.021167334
000350 41 18 23 bd a7 a7 47 3e 10 ec 29 bd 8f 33 59 bb
       -0.039818052 0.19497548 -0.041484892 -0.0033142304
000360 e6 66 75 bd 32 a9 49 3d 56 b7 db 3c 48 12 04 bd
       -0.059912585 0.049233623 0.02682082 -0.032243997
000370 91 ff 12 bd 3a fc 99 bd ed 1f c2 3d 64 b8 24 bd
       -0.03588826 -0.075188115 0.094787456 -0.04021491
000380 9f dc 22 3d ad 41 4a bd d1 7a a2 3d 75 f8 0e bd
       0.039761182 -0.04937904 0.079335816 -0.034904916
000390 2f 5a 08 bd 9d f2 3c bd 43 ed 35 3c 3d f3 39 bd
       -0.03328913 -0.04612981 0.011103931 -0.045397986
0003a0 3d 87 6c bd 08 cf 06 3c ec ed 81 bd 0f c1 00 3d
       -0.05774616 0.008228071 -0.06344208 0.031434115
0003b0 81 a8 c8 bc 92 37 e7 bb 40 cd 8d 3c ad b2 96 bb
       -0.024494411 -0.007056185 0.017309785 -0.0045989365
0003c0 d0 b8 d0 bc b8 77 a8 3d ab 65 ea 3d 85 ef 08 bd
       -0.02547875 0.082259595 0.11445173 -0.03343155
0003d0 66 34 e8 3c 2f c9 7d 3b 11 81 cf 3d b8 d0 80 3c
       0.028345298 0.003872465 0.10132039 0.015724525
0003e0 fd 3a f2 bc ce 2a 17 3c 61 0a a6 3c b9 be 81 3c
       -0.029569143 0.009226514 0.02026862 0.015838014
0003f0 7d 2c 5a 3d e5 51 1d bd 48 6f 83 bd 62 56 ec 3c
       0.053265084 -0.03840818 -0.064177096 0.028849784

sequential.0.bias f4 [256]
000000 d0 8c 19 be 2d 37 55 3d e8 dd 1a 3e 0a e1 24 3d
       -0.14995122 0.052054573 0.15123713 0.040253676
000010 ed 8a 59 bd 56 ae 20 be 7e 04 0f be 4f a8 4e bd
       -0.053111006 -0.15691504 -0.13966557 -0.05045348
000020 1e ae 69 be f1 db 8a bd 18 53 15 3e 0c d7 0a 3d
       -0.22820327 -0.06780232 0.14582479 0.03389649
000030 f6 1f 5d 3d b3 97 8a be 78 1d a5 3d a8 13 02 3e
       0.05398556 -0.27068862 0.08062261 0.12702811
000040 d8 09 c6 3c af 7e 07 3e 74 27 28 be fb 39 99 bd
       0.024174616 0.1323192 -0.164213 -0.07481762
000050 37 5b 1f be d6 0e e1 bd 8a a8 91 3c dc 53 3a be
       -0.1556214 -0.10989158 0.017780561 -0.18196052
000060 31 87 a6 bc cb 34 ae be dc 1c 6c 3d 56 1c b5 3d
       -0.020328136 -0.34024653 0.05764471 0.08843295
000070 69 5a 16 be 1d b0 44 bd ab 0f f9 bd eb 61 5c bd
       -0.14682926 -0.048019517 -0.121611916 -0.05380432
000080 d8 c7 b0 bd 25 fe 34 3d 81 c7 56 be ae 36 56 3c
       -0.08631867 0.044187684 -0.20974542 0.01307456
000090 55 15 71 be ec 13 56 3e 2a b0 ec bb 29 3c 86 3d
       -0.23543294 0.20906037 -0.007223149 0.065544434
0000a0 87 52 b2 bd ca 2b 09 be 56 fd 01 ba ca 62 c1 3c
       -0.08707147 -0.1339561 -0.00049587095 0.023606677
0000b0 4f e1 b1 bd f1 b2 6d 3d 51 8a 0a bd 17 5d 09 be
       -0.08685552 0.05803198 -0.033823315 -0.13414417
0000c0 09 c6 15 3e f2 0f 95 3d e9 bd 45 3c ae 0e 51 3e
       0.14626326 0.07278432 0.012069204 0.20415756
0000d0 12 8a 36 bd dd 8f c5 bd e6 01 5d 3c fa 49 66 bd
       -0.044565268 -0.0964658 0.013489222 -0.056222893
0000e0 de 15 1f 3e c7 35 81 bc 5d f8 ee bd ca ec 15 3e
       0.15535685 -0.015772713 -0.11668465 0.14641109
0000f0 6e cd db 3c 6c 29 12 3e 78 a1 23 bc 9b 39 58 be
       0.026831355 0.14273614 -0.009987228 -0.21115725
000100 5b b1 b0 3d 13 87 f0 3b 96 28 ef bd ca b8 57 3e
       0.08627578 0.007340321 -0.11677663 0.21066585
000110 28 c6 6b be d9 4c 27 bd 1d 58 f2 bd 9a d4 63 be
       -0.2302481 -0.040844772 -0.118332125 -0.2224907
000120 53 57 21 be 2c ac 08 be 58 cc 0b bd fb 39 34 3e
       -0.15755968 -0.13346928 -0.034130424 0.17600243
000130 06 3d 12 3e 5e b9 8a 3e a3 a4 9a 3c 52 eb c5 3d
       0.14281091 0.2709455 0.018877333 0.096640244
000140 76 12 af bd 9c de 07 be 0f 1d 36 be 02 3a 31 be
       -0.08548443 -0.13268512 -0.17784522 -0.17307284
000150 09 3c a3 3d 88 70 12 be 60 d2 d7 bd 6f 20 92 3d
       0.07970435 -0.1430074 -0.10538173 0.071350925
000160 27 e3 a7 bd fd 8d a8 3d 42 27 16 be fe a1 47 bd
       -0.08197623 0.08230207 -0.14663413 -0.048738472
000170 cb ac 8c bc 4e 66 fa 3d 09 a1 3e be 2a 31 49 be
       -0.017172238 0.12226544 -0.18616118 -0.19647661
000180 70 64 20 3e 15 7c 34 be 50 3a 5f 3e f6 c2 0b 3e
       0.15663314 -0.17625459 0.21799588 0.1364859
000190 88 63 bc 3d 21 a4 cf bc 5d f9 0e 3e 5f 3b c9 3d
       0.091986716 -0.025346817 0.13962312 0.09825777
0001a0 fc 3f dc bd 72 0b 08 3e d3 44 3a 3d 4d 41 94 be
       -0.107543916 0.13285616 0.045475792 -0.2895607
0001b0 32 52 02 be 76 04 11 be 5c 27 8e bd 23 a2 31 be
       -0.12726668 -0.14161858 -0.06941101 -0.17347006
0001c0 5a c0 cd bd b0 ea 1c be aa 93 71 bd dd 22 f0 3d
       -0.10046454 -0.15323901 -0.058978714 0.117254
0001d0 d5 c9 33 3e 06 87 35 be 30 93 20 be fa 03 84 3d
       0.17557462 -0.17727289 -0.15681148 0.06446071
0001e0 21 35 87 bd 5e dc f5 bc c2 46 c9 3d db d1 2b 3e
       -0.066019304 -0.030012306 0.09827949 0.16779272
0001f0 bb b5 35 3d 45 e5 33 3d 9c 1d 38 3d 5a 32 20 3d
       0.044362765 0.04391982 0.044950113 0.03911052
000200 5c 87 34 3e fb 94 63 be 9a 82 47 be be 8b 41 3e
       0.1762976 -0.222248 -0.19483414 0.18900964
000210 ec 15 4c be 75 5a b5 3d bc 0f cc 3d af 26 22 3e
       -0.19930238 0.08855144 0.099639386 0.15835069
000220 91 81 5e 3d 93 6b e2 3c b8 27 73 3d b8 e3 d4 bd
       0.054322783 0.027639186 0.05936405 -0.103949964
000230 ca 1e 6d 3d a9 68 e9 bd 3a fa f7 3d 1a ac 38 3c
       0.05789069 -0.113969155 0.12108274 0.011271501
000240 48 31 29 3e 65 74 ce bd 95 83 e2 bd 49 ec f6 bd
       0.16522706 -0.10080794 -0.110602535 -0.120567866
000250 14 2e 0b bd ec 01 52 3e 9d a7 73 3d 74 d3 44 3e
       -0.03397949 0.20508546 0.05948602 0.19221288
000260 8d 4d 28 3e 90 80 2f be 90 51 8f 3e 92 63 0f 3d
       0.16435833 -0.17138886 0.27991915 0.035007067
000270 03 74 48 3e 95 a6 c0 3b f5 d5 06 3d 24 c7 16 3e
       0.19575505 0.005879233 0.03291889 0.14724404
000280 a9 0c e6 bd 5d 84 23 be 33 87 2d 3d f2 65 87 bd
       -0.112328835 -0.15968461 0.042365264 -0.066112414
000290 e3 e7 9d bc a3 ea 05 be 7f c5 b6 3d bc 88 98 3d
       -0.019275611 -0.13077788 0.08924388 0.07447955
0002a0 45 cc a3 3d a9 2c d2 3d 1d 30 ef 3d 09 b7 12 be
       0.07997946 0.102624245 0.11679099 -0.14327635
0002b0 5c 9e 7b be f2 d9 2b be 9f c2 e7 be db f9 36 be
       -0.24572128 -0.16782358 -0.45265672 -0.1786875
0002c0 67 3c 53 bd 89 8a 1c 3e 05 08 25 be 8a a7 df 3c
       -0.051571276 0.15287222 -0.1611634 0.027301569
0002d0 da 61 d1 bd 92 ea a9 3d 61 71 3a 3e 1a 66 69 3d
       -0.10223742 0.08296694 0.18207313 0.056982137
0002e0 25 3c 01 3e 1c d7 1c be ce 7d 03 be 96 1f e6 bd
       0.126206 -0.15316433 -0.1284096 -0.11236493
0002f0 2e 5f 64 3d 5a 26 2f 3e 64 b5 f0 3d cb 44 65 3d
       0.055754833 0.17104474 0.117533475 0.05597381
000300 69 12 ee bc 9e 52 de bd 28 a3 5e 3e 50 4d 39 be
       -0.029061513 -0.10855602 0.21741927 -0.18095899
000310 01 5e f5 bd c5 8f de 3d df 23 30 3e 24 fd b5 bc
       -0.119808204 0.108672656 0.17201184 -0.022215433
000320 71 72 8c bc 12 f3 6d 3d 8c 31 53 bc c6 76 09 be
       -0.017144414 0.058093138 -0.012890231 -0.13424215
000330 96 f6 6c 3e f6 5e 73 3e da 4b a6 bc 21 d7 b3 3d
       0.2314094 0.23766693 -0.02029984 0.08781267
000340 f2 f4 80 bd af d3 11 be dc 08 a1 3d c5 d9 07 bd
       -0.062967196 -0.14240907 0.07863018 -0.033166666
000350 ca a1 54 3e dd 4f a5 3b 19 d1 89 bd e5 7e 36 be
       0.20764843 0.005044921 -0.06729335 -0.17821844
000360 44 54 e1 3d 10 51 01 3e 65 1d d4 3c d9 cb 39 bd
       0.110024005 0.12628579 0.025892923 -0.04536042
000370 76 90 46 bd d8 ab c8 3d 72 3a 62 3e 65 c5 03 bc
       -0.048477612 0.097984016 0.22092608 -0.008042668
000380 8a dd da bc 5e 42 41 be 35 f3 01 3d 20 28 ed bd
       -0.026716966 -0.18872973 0.03172608 -0.11579919
000390 6f 0a 1b bc 35 fd 0a be eb b9 3e 3e 8b e8 b7 3d
       -0.009462937 -0.13573153 0.1862561 0.08979901
0003a0 3f 27 0f bd 4a 5e 64 bd 43 5e b1 3d 73 e5 3f 3d
       -0.034949537 -0.055753984 0.08660557 0.04684968
0003b0 9a cb b3 bd c1 57 ee 3d e6 e1 35 3d d8 6c 06 3e
       -0.08779068 0.116378315 0.044404887 0.13127458
0003c0 ed 55 c0 bd f4 8d f8 bd db 4d 26 3e 54 a5 40 bc
       -0.09391389 -0.121364504 0.16240637 -0.011758167
0003d0 c7 96 15 be 9c d6 59 3e ea c5 3f bd 99 c3 0a be
       -0.14608298 0.21273273 -0.046819605 -0.13551177
0003e0 a8 b6 cb be 91 e7 40 bd da c9 ad bd dd b9 43 be
       -0.39787793 -0.04709584 -0.08485766 -0.1911387
0003f0 e5 97 b8 3d 33 28 6b 3e 32 d9 16 be fc 04 e4 3d
       0.090133466 0.22964554 -0.14731291 0.11133763

sequential.2.weight f4 [256]
000000 fb 1a 76 3f d1 27 66 3f 4d 88 5b 3f 24 ab 65 3f
       0.9613492 0.89904505 0.85754853 0.89714265
000010 1f b3 63 3f 73 07 6a 3f 90 2f 59 3f 59 3d 61 3f
       0.8894519 0.91417617 0.848382 0.87984234
000020 46 3b 68 3f e8 02 62 3f 90 70 68 3f c9 68 60 3f
       0.90715444 0.88285685 0.90796757 0.8765989
000030 8b 47 5e 3f 80 6f 5b 3f 2a b1 6c 3f e9 bc 7c 3f
       0.86827916 0.8571701 0.9245783 0.98725754
000040 db 89 52 3f bb f5 58 3f 4c 7b 54 3f 5f fd 46 3f
       0.822416 0.84749955 0.83000636 0.77730364
000050 dd 22 98 3f 1a 07 62 3f 52 2b 62 3f c4 c9 72 3f
       1.188564 0.88292086 0.8834735 0.9483912
000060 f6 59 56 3f 0a 8a 77 3f ef d1 6a 3f 65 4e 62 3f
       0.8373102 0.96695006 0.91726583 0.8840087
000070 77 32 6d 3f 8d 3f 5d 3f 5d 34 7d 3f 0f aa 67 3f
       0.9265513 0.86425096 0.98908025 0.90493864
000080 e0 25 5d 3f 2a 2e 61 3f 95 65 8a 3f 5b 45 6c 3f
       0.8638592 0.87961066 1.081225 0.9229333
000090 bc a6 5e 3f 1f f1 50 3f 03 f1 67 3f 9b 19 54 3f
       0.86973166 0.8161792 0.9060213 0.8285157
0000a0 7b 34 8d 3f e1 c8 63 3f 12 2a 62 3f ae c1 59 3f
       1.1031641 0.8897839 0.88345444 0.85061157
0000b0 a8 26 62 3f 2e 34 58 3f c4 5c 67 3f 1d 68 60 3f
       0.88340235 0.8445462 0.90375924 0.87658864
0000c0 bf e7 5d 3f 13 ae 68 3f a5 e1 57 3f e8 ab 74 3f
       0.8668174 0.90890616 0.8432868 0.9557481
0000d0 2f ac 65 3f af 01 64 3f 4d db 59 3f 17 b3 69 3f
       0.89715856 0.8906507 0.8510025 0.91288894
0000e0 a1 38 59 3f 7d 0d 5e 3f a0 57 5e 3f a9 bf 7d 3f
       0.84852034 0.8673933 0.86852455 0.99120575
0000f0 0b 48 5b 3f b2 36 5b 3f 81 b3 60 3f 85 29 59 3f
       0.85656804 0.85630333 0.877739 0.8482898
000100 ee 8a 69 3f 0c 45 62 3f 94 ec 5b 3f 51 08 6c 3f
       0.91227615 0.8838661 0.85907865 0.9220019
000110 fc 14 64 3f 13 12 7f 3f 52 9a 81 3f 50 d4 70 3f
       0.8909452 0.99636954 1.012522 0.94073963
000120 78 85 5c 3f eb 4e 68 3f ab 67 65 3f b3 90 8c 3f
       0.8614116 0.9074542 0.8961131 1.0981659
000130 7b 39 69 3f 2f c8 64 3f fb 7e 63 3f f2 9e 60 3f
       0.91103333 0.89367956 0.8886563 0.8774253
000140 72 8a 6b 3f 5a 25 6a 3f 8f 60 61 3f fd 5a 5e 3f
       0.92008126 0.91463244 0.8803796 0.8685759
000150 37 05 61 3f 1c f1 7f 3f 47 8a 60 3f 9a 51 5b 3f
       0.8789858 0.9997728 0.87710994 0.8567139
000160 66 b8 5c 3f e2 b6 59 3f b1 eb 8e 3f 4c b1 97 3f
       0.8621887 0.8504468 1.1165677 1.1850982
000170 38 72 55 3f 14 a1 6a 3f 31 dd 7c 3f 14 ba 5a 3f
       0.8337741 0.91652036 0.9877501 0.8544018
000180 ac ea 61 3f 80 83 61 3f eb 08 50 3f 4c a7 89 3f
       0.88248706 0.8809128 0.8126361 1.075418
000190 bc 5c 89 3f de b1 6c 3f 90 c9 56 3f 2f d7 67 3f
       1.0731425 0.92458904 0.8390131 0.9056272
0001a0 5a c3 65 3f 5a 94 4c 3f cf 2d 61 3f 78 50 7f 3f
       0.8975121 0.79913867 0.87960523 0.9973216
0001b0 b8 5b 7c 3f 43 0f 9c 3f e0 2d 66 3f 6d 39 87 3f
       0.9857745 1.2192158 0.8991375 1.05644
0001c0 99 a2 8d 3f 33 17 63 3f fd 4e 6d 3f 74 10 66 3f
       1.1065246 0.88707274 0.9269865 0.89868855
0001d0 fa 23 65 3f c4 73 68 3f 00 0c 5e 3f 94 78 72 3f
       0.8950802 0.90801644 0.8673706 0.9471524
0001e0 62 2c 5e 3f a7 9b 63 3f 5a 39 5a 3f 57 bb 6b 3f
       0.8678647 0.8890938 0.8524376 0.9208273
0001f0 2c fa 6d 3f 54 e1 74 3f b5 ac 60 3f 74 65 5d 3f
       0.92959857 0.95656323 0.8776353 0.8648293
000200 36 92 54 3f 73 16 64 3f 61 5b 6b 3f ed 21 6b 3f
       0.830356 0.89096755 0.9193631 0.9184864
000210 7f df 6b 3f 6f 49 65 3f 35 89 8b 3f 9c a9 69 3f
       0.921379 0.89565176 1.0901247 0.9127443
000220 28 00 62 3f a3 7b 90 3f 5c d9 5c 3f 1a 7a 80 3f
       0.8828149 1.1287731 0.86269164 1.0037262
000230 90 48 6c 3f 5f 71 66 3f 31 9e 63 3f 76 06 67 3f
       0.9229822 0.9001674 0.88913256 0.90244234
000240 77 94 a2 3f 58 1f 7c 3f f2 bf 77 3f 4d d5 65 3f
       1.2701558 0.98485327 0.9677726 0.89778596
000250 7f dc 66 3f b2 45 5c 3f 16 09 5e 3f b8 de 4a 3f
       0.901802 0.86043847 0.86732614 0.7924609
000260 e4 58 55 3f 93 90 89 3f b9 14 63 3f 1c 49 70 3f
       0.8333876 1.0747246 0.88703495 0.93861556
000270 00 1e 57 3f 67 bd 61 3f 16 b6 60 3f eb a7 5f 3f
       0.8403015 0.8817963 0.8777784 0.873656
000280 dd 47 61 3f 7c c4 8e 3f 35 a8 70 3f 2e f5 64 3f
       0.8800028 1.1153712 0.94006664 0.89436615
000290 ee 81 67 3f 40 15 74 3f 79 b8 6b 3f 60 e2 6c 3f
       0.9043263 0.95344925 0.9207836 0.9253292
0002a0 c6 71 54 3f be e0 73 3f 08 23 62 3f 0b f1 63 3f
       0.82986104 0.95264804 0.88334703 0.8903968
0002b0 d1 61 87 3f 9d fb 60 3f ad 0f 80 3f 60 78 60 3f
       1.0576726 0.8788393 1.0004784 0.8768368
0002c0 fe 25 5d 3f 92 76 66 3f 3e eb 55 3f ee bc 60 3f
       0.86386096 0.90024674 0.83562076 0.87788284
0002d0 0e ca 82 3f 76 70 6b 3f 9c ce 68 3f 69 bb 6d 3f
       1.0217912 0.91968477 0.9094026 0.9286409
0002e0 d2 74 90 3f cf b1 6a 3f 0b e5 87 3f 10 45 84 3f
       1.1285651 0.91677564 1.0616773 1.0333576
0002f0 ad 42 5b 3f 25 7e 61 3f 39 ba 6a 3f c3 0f 85 3f
       0.85648614 0.88083106 0.91690403 1.0395435
000300 38 b2 59 3f 56 12 60 3f 58 31 6c 3f fe 08 63 3f
       0.85037565 0.8752798 0.9226279 0.88685596
000310 70 30 96 3f 24 e3 4f 3f 7a 70 63 3f 44 07 8d 3f
       1.1733532 0.81205964 0.888435 1.1017842
000320 14 6c 56 3f 14 a6 5d 3f 27 99 59 3f dc 9d 67 3f
       0.83758664 0.8658154 0.84999317 0.9047525
000330 9f fe 6d 3f 93 57 61 3f 5c 17 61 3f 5b 22 61 3f
       0.92966646 0.8802425 0.8792627 0.8794305
000340 d5 e3 77 3f 91 b3 65 3f 7f 9f 5f 3f ab 09 5b 3f
       0.9683202 0.8972712 0.87352747 0.8556163
000350 79 ef 61 3f 23 6d 62 3f c8 1b 72 3f 5c 79 7a 3f
       0.8825603 0.8844778 0.9457364 0.9784143
000360 5b 7e 66 3f fc 05 6e 3f 8f dc 67 3f 28 5a 65 3f
       0.90036553 0.9297788 0.9057092 0.8959069
000370 1f 49 8d 3f 5b 5f 65 3f 1a 29 6b 3f b0 fc 6d 3f
       1.103794 0.89598626 0.9185959 0.92963696
000380 d1 88 67 3f 06 a5 5b 3f 0e 18 5f 3f 76 65 67 3f
       0.9044314 0.8579868 0.8714608 0.9038919
000390 02 11 92 3f 45 57 70 3f 9e 4d 72 3f 26 3f 72 3f
       1.141144 0.9388316 0.94649684 0.94627607
0003a0 7b 07 5c 3f d5 81 62 3f 76 a0 86 3f 96 4e 6a 3f
       0.85948914 0.8847936 1.0517719 0.9152616
0003b0 a3 a1 64 3f a2 2b 6e 3f 4c af 69 3f ce e3 69 3f
       0.8930914 0.9303533 0.91283107 0.9136323
0003c0 d1 1a 65 3f e8 7c 66 3f e4 aa 60 3f 03 d8 6a 3f
       0.89494044 0.9003434 0.8776076 0.9173586
0003d0 f1 ad 6c 3f 2a f9 5b 3f f6 ce 60 3f d5 b5 66 3f
       0.92452914 0.8592707 0.878158 0.90121204
0003e0 e0 78 97 3f 9d 79 62 3f f4 af 58 3f cd 76 5f 3f
       1.1833763 0.8846682 0.84643483 0.8729065
0003f0 70 2f 81 3f ba 2d 65 3f 6a 45 69 3f 36 1b 66 3f
       1.0092602 0.895229 0.9112154 0.8988527
