data/agentsharedencoder/checkpoint_critic_1.pth (torch, 166148 bytes, 11 tensors)

fcs1.weight f4 [256, 24]
0	0xbd11d9bc	-0.03560804
1	0xbd8416d6	-0.06449668
2	0x3cd85d14	0.02641157
3	0xbd020484	-0.031742588
4	0xbdac4510	-0.0841161
5	0xbe116ca2	-0.14201596
6	0xbcaef448	-0.021356717
7	0x3d12d979	0.03585193
8	0xbccb7421	-0.024835648
9	0xbba1f06a	-0.0049419897
10	0xbd4eedf6	-0.050519906
11	0x3db4a9e4	0.088214666
12	0x3d58bb29	0.052912865
13	0xbd9ad4f3	-0.07560148
14	0x3d4a042c	0.049320385
15	0x3dc58b12	0.09645666
16	0x3bbdc87b	0.0057917214
17	0xbdb1f965	-0.08690146
18	0x3d436778	0.047706097
19	0xbda803c4	-0.08203843
20	0x3cb47a20	0.02203089
21	0x3df411ad	0.11917434
22	0xbd43179a	-0.04762993
23	0xbd5f9b52	-0.054591484
24	0x3d093627	0.03349891
25	0x3d55aad9	0.052164886
26	0x3cf28d19	0.029608296
27	0x3cac2e20	0.021018088
28	0xbd1300cb	-0.035889428
29	0x3c2c331f	0.010510235
30	0x3d982361	0.07428623
31	0xb96cf6d3	-0.00022598663
32	0xbca9d7e2	-0.020732824
33	0x3cc102c8	0.023560897
34	0x3a9f3d49	0.0012149002
35	0x3c9f5845	0.01945127
36	0xbc049485	-0.00809205
37	0xbc7bceb9	-0.015369111
38	0xbd0ea920	-0.03482926
39	0x3c8e8635	0.01739798
40	0x3d7c96b5	0.061667163
41	0x3cda6a40	0.026661992
42	0xbcdc7b55	-0.026914278
43	0xbdb26e7b	-0.08712479
44	0x3dbf2c65	0.093346395
45	0xbd1df597	-0.03856429
46	0x3c7dfda6	0.015502369
47	0xbd728978	-0.05921313
48	0x3d155bec	0.036464617
49	0x3caba6a5	0.020953486
50	0xb91c5e34	-0.00014912413
51	0xbd8d713a	-0.06906362
52	0xbce797b5	-0.028270582
53	0xbd5ebdc4	-0.054380193
54	0x3cad4f34	0.021155931
55	0xbd63f282	-0.055651195
56	0xbced4371	-0.028962823
57	0x3bbc8308	0.005752925
58	0xbc07f337	-0.008297733
59	0xbd821c3e	-0.06353043
60	0x3d974d10	0.073877454
61	0xbbf1e368	-0.0073818453
62	0x3bc63633	0.0060489415
63	0x3c554568	0.013017036
64	0x3c5b1fa4	0.013374243
65	0xbd9fad49	-0.077967234
66	0x3da43e2f	0.08019673
67	0x3d04b390	0.032397807
68	0x3dc5afa4	0.096526414
69	0xbd39e567	-0.04538479
70	0x3cab8e74	0.02094195
71	0x3d0ec0a4	0.034851685
72	0xbc040624	-0.008058105
73	0xbc3e3bce	-0.011610938
74	0x3ca0173e	0.019542333
75	0x3d026c0f	0.031841334
76	0xbdb03796	-0.08604352
77	0x3d0ec86c	0.034859106
78	0x3cfae094	0.030624665
79	0x3d553749	0.052054677
80	0xbd2ca9a7	-0.04215398
81	0x3d25cd91	0.040479247
82	0xbb65fcf0	-0.003509339
83	0x3cb6168a	0.022227544
84	0xbd1dddb6	-0.03854152
85	0x3b8e1b3e	0.0043367436
86	0x3d779e74	0.060453847
87	0xbd6323ff	-0.05545425
88	0xbda9eba5	-0.08296899
89	0x3d52ee64	0.05149688
90	0x3d83f038	0.064423025
91	0x3d07cdda	0.0331553
92	0x3c5c1a7b	0.013434048
93	0x3c0389ee	0.0080284905
94	0x3da2b856	0.079453155
95	0x3ccca338	0.024980173
96	0x3cec0cd8	0.028814718
97	0xbdd778fd	-0.105211236
98	0xbbe300a8	-0.0069275685
99	0xb9fda2f6	-0.00048377336
100	0x3da0ee2e	0.07857929
101	0x3d911810	0.07084668
102	0x3d5c3b3b	0.053767424
103	0xbd3b6731	-0.045752708
104	0xbd9a9cec	-0.07549462
105	0xbd7c2137	-0.061555114
106	0xbc994a79	-0.01871227
107	0xbcee8ca5	-0.029119799
108	0x3dd6ac10	0.10482037
109	0x3d92466f	0.071423404
110	0xbd25ff6b	-0.04052679
111	0x3d8aec9f	0.06783413
112	0xbd07dcff	-0.033169743
113	0xbe078542	-0.13234428
114	0x3ac0d814	0.0014712834
115	0xbda648ec	-0.081193775
116	0x3d546c4f	0.051861104
117	0x3c1d915b	0.009617175
118	0x3d2f72f1	0.042834226
119	0xbdfd1335	-0.12357179
120	0x3bc740c7	0.00608072
121	0x3c50c100	0.012741327
122	0x3ca7d68e	0.02048805
123	0xbc7a1dfd	-0.015265939
124	0xbbd849f2	-0.006600612
125	0x3dc3bd29	0.09557564
126	0xbca6b836	-0.02035151
127	0xbd67f424	-0.056629315
128	0x3c8afae9	0.016965346
129	0xbcecd48f	-0.02890995
130	0x3d37fd76	0.044919454
131	0xbcdc66ba	-0.026904453
132	0xbd50a79c	-0.050941095
133	0x3d8bdada	0.06828852
134	0x3ca559da	0.020184446
135	0xbd4ecf49	-0.05049065
136	0xbc30276d	-0.010751587
137	0x3d79a8d8	0.060952038
138	0x3c7ae93b	0.015314396
139	0x3d8a0899	0.06739921
140	0xbdef5607	-0.1168633
141	0x3e09b417	0.13447605
142	0x3cfd60e4	0.03092999
143	0xbbb846cf	-0.0056236754
144	0x3d802c26	0.06258421
145	0x3db1d3e7	0.08682995
146	0xbd2c05b6	-0.041997634
147	0xbcd2b19a	-0.025719453
148	0xbbe51b03	-0.0069917454
149	0x3d67403b	0.05645774
150	0xbab35609	-0.0013682257
151	0x3ce3a474	0.027788378
152	0x3d0e649f	0.03476393
153	0x3cfb2d8f	0.030661372
154	0x3db00c29	0.08596069
155	0x3d051763	0.032493006
156	0xbc9c6851	-0.01909271
157	0x3cb5d5fb	0.02219676
158	0x3b9108ba	0.004426089
159	0xbc6ac56b	-0.014329295
160	0x3d4a64f7	0.049412694
161	0x3d1591ec	0.036516115
162	0xbd5b7eef	-0.05358785
163	0xbd30a163	-0.04312266
164	0x3d665f30	0.05624312
165	0xbdf36e6f	-0.11886298
166	0xbd663a37	-0.05620786
167	0xbaed8940	-0.0018122569
168	0xbcaac2f3	-0.020844912
169	0x3d1b655a	0.037938453
170	0x3c180bbc	0.009280141
171	0xbc85df92	-0.016341958
172	0xbcc745ea	-0.02432533
173	0x3d1156db	0.035483222
174	0x3d30ba9e	0.043146722
175	0x3bce09e7	0.0062878015
176	0xbd26e905	-0.04074957
177	0xbc8e3ee9	-0.017363982
178	0xbdafd773	-0.085860156
179	0xbda69d5c	-0.08135483
180	0xbce1db58	-0.027570412
181	0xbccc8440	-0.024965405
182	0xbc6a2da8	-0.014293112
183	0xbc3d639d	-0.011559394
184	0xbd9d0666	-0.07667236
185	0xbdc8d913	-0.098070286
186	0x3abd3299	0.0014434635
187	0xbd23a6ad	-0.039953876
188	0xbcb3477d	-0.021884674
189	0x3dc272a6	0.09494524
190	0x3cbce815	0.023059884
191	0xbd9aa1a7	-0.07550364
192	0x3d07c246	0.033144258
193	0x3d6ecd4a	0.058301248
194	0xbd783636	-0.060598575
195	0x3cf71fa0	0.030166447
196	0x3ce6495a	0.028111149
197	0x3df844cc	0.12122497
198	0xbd21b7a6	-0.03948178
199	0x3bc1f785	0.005919399
200	0xbd8b4b3a	-0.06801458
201	0x3ca20d62	0.019781772
202	0x3d1475f7	0.036245313
203	0x3c32bf9a	0.010909939
204	0x3cd5effc	0.02611541
205	0x3dba7a24	0.09105328
206	0xbd42736f	-0.047473367
207	0xbd8aea13	-0.06782927
208	0xbce7c1d0	-0.02829066
209	0xbdd3a03b	-0.10333296
210	0xbd01d802	-0.03170014
211	0xbd64a2d1	-0.055819336
212	0x3d85c785	0.06532196
213	0xbc392f50	-0.011302784
214	0xbcf41872	-0.029796813
215	0xbda474e9	-0.08030111
216	0xbd967f0b	-0.0734845
217	0x3c75ba2c	0.014998
218	0xbd158ebb	-0.03651307
219	0xba45acd7	-0.0007540709
220	0xbdb47c69	-0.08812792
221	0xbd972b41	-0.07381297
222	0x3d00d5dd	0.031453956
223	0xbc0ef209	-0.008724698
224	0x3d9474dd	0.072488524
225	0x3cbeefb2	0.023307655
226	0x3d47d22f	0.04878443
227	0x3bae4053	0.0053177266
228	0xbdb14abb	-0.08656832
229	0xbda5ca40	-0.08095217
230	0xbc9f4eed	-0.019446814
231	0xbba992d7	-0.0051749754
232	0x3cab5120	0.020912707
233	0x3d889ee1	0.06670929
234	0xbd32cae9	-0.04365054
235	0x3cdc8f6e	0.026923861
236	0xbe20bd27	-0.15697156
237	0xbd37c2c6	-0.044863485
238	0x3d17f783	0.03710128
239	0xbc153ee7	-0.009109235
240	0xbd4239ee	-0.047418527
241	0x3d89ca41	0.0672803
242	0x3db90a62	0.090351835
243	0xbcbbc78c	-0.0229223
244	0xbcb5116c	-0.022103034
245	0x3dbc54c5	0.09195856
246	0x3d9e25be	0.077220425
247	0x3cd6e8b0	0.026234
248	0xbd475a6d	-0.04867022
249	0x3bcf8526	0.006333011
250	0x3c97af63	0.018516248
251	0x3c9c7bd2	0.01910201
252	0x3d4fb321	0.05070794
253	0xbd02b291	-0.031908575
254	0xbd870606	-0.06592946
255	0x3d038a69	0.03211442

fcs1.bias f4 [256]
0	0xbde90736	-0.113783285
1	0x3e344e5c	0.17608017
2	0x3e048c51	0.12944151
3	0x3dc8389d	0.09776423
4	0x3ca9c64f	0.020724444
5	0xbe49e5b1	-0.19716527
6	0xbe44a8e0	-0.19205046
7	0x38d5a318	0.0001018701
8	0xbe111055	-0.14166386
9	0xbe95d3f4	-0.2926327
10	0xbc2c31cd	-0.01050992
11	0xbd375be7	-0.04476538
12	0x3dd30bb6	0.10304968
13	0xbdd96120	-0.10614228
14	0x3d115612	0.035482474
15	0x3e127301	0.14301683
16	0x3d5d58c4	0.05403973
17	0x3d513b38	0.051081866
18	0xbe2caa5b	-0.1686186
19	0xbe2f72b5	-0.17133601
20	0xbe22984e	-0.15878412
21	0xbe52ecc9	-0.20598139
22	0xbd49226a	-0.049105085
23	0xbe3bd7bf	-0.1834402
24	0x3d679272	0.056536146
25	0xbea55bf8	-0.3229673
26	0x3d4a60eb	0.049408834
27	0x3c359a47	0.011084146
28	0xbe8a763d	-0.27043334
29	0xbcebfc78	-0.02880691
30	0xbdc15b0f	-0.09441196
31	0xbdc95de1	-0.09832359
32	0xbc2e455b	-0.010636653
33	0x3da34fff	0.079742424
34	0xbda1c21d	-0.07898352
35	0x3d880031	0.066406615
36	0xbe654657	-0.22390114
37	0x3de044a4	0.10950592
38	0xbd85eaf8	-0.06538957
39	0x3cb49cba	0.02204739
40	0xbe262991	-0.16226794
41	0xbe9d71ef	-0.30750987
42	0xbd11d681	-0.035604957
43	0xbe069d95	-0.1314605
44	0xbdc546b2	-0.09632625
45	0xbd37f9e4	-0.04491605
46	0xbd532757	-0.05155119
47	0xbe40a3fa	-0.18812552
48	0x3e149562	0.1451011
49	0x3cd69017	0.026191754
50	0xbdbe2756	-0.092848465
51	0x3dfd0d5c	0.12356064
52	0xbe16b637	-0.14717947
53	0xbe5c42d3	-0.21509866
54	0x3e11697f	0.142004
55	0xbde9cf67	-0.11416512
56	0x3da5da9c	0.08098337
57	0xbde07471	-0.109597094
58	0xbd7b570a	-0.061362304
59	0x3dc858bd	0.097825505
60	0x3e0200c7	0.12695609
61	0xbc91b220	-0.017785132
62	0xbc2b56c0	-0.0104576945
63	0xbe39d7f0	-0.1814878
64	0x3ddaec2f	0.1068958
65	0x3d6723b8	0.05643055
66	0xbe2d866d	-0.1694581
67	0x3e07fc8e	0.13279936
68	0xbe966094	-0.29370558
69	0x3c5ae587	0.013360388
70	0xbdcdf7d8	-0.10057038
71	0xbe852b1e	-0.26009458
72	0xbe2a5d3c	-0.16637129
73	0xbca47646	-0.020075928
74	0xbc8a51a7	-0.016884638
75	0x3e6d2770	0.23159575
76	0x3d8de3fc	0.0692825
77	0x3e30e4d2	0.17274788
78	0x3d084e4f	0.033277806
79	0xbd914f4f	-0.07095205
80	0xbd4b544c	-0.04964094
81	0xbe2d4759	-0.16921748
82	0xbe1d6ff4	-0.15374738
83	0xbe1b5389	-0.15168585
84	0x3e11c997	0.14237057
85	0xbe14b0d4	-0.1452058
86	0xbd79031c	-0.06079398
87	0xbc9c2aa6	-0.019063305
88	0xbe07de65	-0.1326843
89	0x3d23a5b2	0.03995294
90	0xbddca02f	-0.1077274
91	0xbd6cd3a1	-0.057819013
92	0xbdf74040	-0.120728016
93	0x3dc00bb2	0.09377231
94	0xbdbf0ad0	-0.09328234
95	0xbe29f99d	-0.16599126
96	0x3e037fe9	0.12841763
97	0xbdfa0cad	-0.12209449
98	0x3e1a12a3	0.15046172
99	0x3dbddc72	0.09270562
100	0x3e0a4d3f	0.1350603
101	0xba356ea8	-0.0006921091
102	0xbaf110e6	-0.0018391877
103	0xbcffeb34	-0.031240083
104	0xbe177f59	-0.14794673
105	0x3e131da6	0.14366779
106	0x3e4f4816	0.20242342
107	0xbd8fb773	-0.07017412
108	0xbc81af97	-0.015830798
109	0xbdc2ea2f	-0.09517323
110	0xbd97c4df	-0.07410597
111	0xbe149ff8	-0.14514148
112	0xbdae4c99	-0.085107036
113	0xbe786260	-0.24256277
114	0xbd250a4c	-0.040293023
115	0x3ddee486	0.10883431
116	0x3e2b4808	0.16726696
117	0xbe4a53b9	-0.197585
118	0xbe2bce13	-0.1677783
119	0x3de7aa07	0.11311727
120	0xbe1de219	-0.1541828
121	0x3cd8f041	0.02648175
122	0x3d914a4d	0.0709425
123	0x3dc6884f	0.096939676
124	0x3da21fe8	0.07916242
125	0x3dc6e8d1	0.09712375
126	0xbc140de0	-0.009036511
127	0x3c824f9b	0.0159071
128	0x3db84cfd	0.08999059
129	0xbe7285f7	-0.23683916
130	0xbe41ccf8	-0.18925846
131	0x3e0229ab	0.12711208
132	0xbe8563e3	-0.2605277
133	0x3dfd2212	0.12360014
134	0x3d82f9ca	0.063953
135	0x3e12a62a	0.14321199
136	0x3d9a47fc	0.07533261
137	0xbb627483	-0.003455431
138	0xbb8b1d75	-0.004245455
139	0x3d7e7903	0.062127125
140	0x3dc973d9	0.09836549
141	0xbe3a617a	-0.18201247
142	0x3e164aeb	0.14677016
143	0x3daaa96d	0.08333097
144	0x3e30aa28	0.1725241
145	0xbdf481e8	-0.1193884
146	0xbd623f98	-0.05523643
147	0xbdf637d1	-0.12022365
148	0x3d8a034c	0.0673891
149	0x3df66802	0.12031557
150	0x3dbc331f	0.09189438
151	0x3cdcb7a4	0.026943035
152	0x3e2378ac	0.15964001
153	0xbe97fc2e	-0.29684585
154	0x3e6c6792	0.23086384
155	0x3d984d9d	0.074366786
156	0x3e251951	0.16122939
157	0xbdb008cb	-0.08595427
158	0xbdfc2ef4	-0.12313643
159	0x3e0d5a99	0.13804092
160	0xbe059880	-0.13046455
161	0x3b448cd4	0.0029991167
162	0xbcddc155	-0.027069727
163	0x3b81f3f6	0.00396585
164	0xbde966f1	-0.11396588
165	0x3e56e34c	0.20985144
166	0xbcdc85e9	-0.026919322
167	0xbc511b4f	-0.0127628585
168	0x3de77025	0.11300687
169	0x3dded35a	0.10880156
170	0x3d95b2b3	0.07309475
171	0xbdbaf22c	-0.09128222
172	0xbe17e357	-0.14832817
173	0xbe602aaf	-0.21891282
174	0xbea18889	-0.3154948
175	0xbe70a16d	-0.23499079
176	0xbc982c6e	-0.018575873
177	0x3e472930	0.19449306
178	0xbe1aab0e	-0.15104315
179	0x3d56e4d3	0.052464318
180	0xbe08683f	-0.13321017
181	0x3e0c283b	0.13687222
182	0x3e123619	0.14278449
183	0x3d53930e	0.051653914
184	0x3e15e2f0	0.14637351
185	0xbe60fdfa	-0.21971884
186	0xbcaa5d5b	-0.020796468
187	0xbd9380fb	-0.072023354
188	0x3cfb0e9c	0.030646615
189	0x3dab5220	0.083652735
190	0x3cce6abe	0.025197383
191	0x3d99a8e3	0.07502916
192	0xbd6244e6	-0.055241488
193	0xbd35a876	-0.04435011
194	0xbe010b14	-0.12601882
195	0xbe8055b7	-0.25065395
196	0xbc92c5ee	-0.017916646
197	0x3db93ea4	0.09045151
198	0x3e44b57e	0.19209859
199	0x3c488cb4	0.0122405775
200	0xbd0efb18	-0.03490743
201	0x3d803e76	0.062619135
202	0x3c935ac8	0.017987624
203	0xbdc85638	-0.0978207
204	0x3bb42a97	0.005498241
205	0x3e58853b	0.21144573
206	0xbdba93c9	-0.09110219
207	0x3d86c2bb	0.06580111
208	0xbc253d71	-0.01008545
209	0xbe0bc9a1	-0.13651134
210	0xbca66d9f	-0.020315943
211	0x3c41b79d	0.011823562
212	0x3e41c62f	0.18923257
213	0x3c915261	0.017739477
214	0xbd574807	-0.052558925
215	0xbea1dff9	-0.3161619
216	0x3e2fc9b6	0.1716679
217	0x3dde7af5	0.10863296
218	0xbd8102db	-0.06299373
219	0x3cadf4f9	0.021234976
220	0xbd378584	-0.044805065
221	0x3c68c936	0.014208129
222	0x3e609754	0.21932727
223	0x3c4b7832	0.0124187935
224	0x3d0b297a	0.033975102
225	0xbdec3cf2	-0.11535062
226	0x3cb51e27	0.022109104
227	0xbd35f607	-0.044424083
228	0xbd154eb2	-0.036452003
229	0xbe04fc63	-0.12986903
230	0x3e6627fa	0.22476187
231	0x3d868997	0.06569212
232	0xbd89e447	-0.067329936
233	0xbce364f3	-0.027758097
234	0x3cdefe81	0.027220966
235	0x3d8c36ed	0.06846414
236	0xbded01ea	-0.11572631
237	0x3d423972	0.047418065
238	0xbcad8e95	-0.021186152
239	0x3d8bf496	0.068337604
240	0xbe0c9907	-0.1373025
241	0xbde554e3	-0.111978315
242	0x3d5a130e	0.05324083
243	0xbcb22cc6	-0.021749865
244	0xbd78a8c2	-0.060707815
245	0x3e826961	0.25471023
246	0xbc5d462d	-0.013505501
247	0xbe2f5c9b	-0.1712517
248	0xbdef9f30	-0.117002845
249	0xbd14d449	-0.036335263
250	0xbe59c88d	-0.2126791
251	0xbe3bb346	-0.18330106
252	0x3e1f3ed7	0.15551315
253	0x3e8b1a6c	0.27168596
254	0xbe346d03	-0.1761971
255	0x3e24803f	0.16064547

fc2.weight f4 [128, 258]
0	0xbd101154	-0.035172775
1	0xbccc6418	-0.024950072
2	0x3dce1f6e	0.100645885
3	0x3bd6d0dc	0.0065556597
4	0x3d0681c9	0.032838617
5	0xbc489201	-0.012241841
6	0x3d8fbd3e	0.07018517
7	0x3db771fc	0.08957288
8	0xbd86000c	-0.06542978
9	0xbc450d3c	-0.012027081
10	0x3d025007	0.0318146
11	0xbd902d46	-0.07039885
12	0xbcd3adc7	-0.0258397
13	0xbd27a855	-0.04093202
14	0x3b7e8470	0.0038836263
15	0x3e0db836	0.13839802
16	0xbd7e26c4	-0.06204869
17	0x3c840aaf	0.016118376
18	0x3d4d7098	0.050156206
19	0xbc8a1b6e	-0.016858783
20	0xbd1514de	-0.036396854
21	0xbd5d91f4	-0.05409427
22	0x3caf4689	0.021395938
23	0x3db224ff	0.08698463
24	0xbdac6968	-0.08418542
25	0xbcec6f1b	-0.028861573
26	0xbd87c9e2	-0.06630303
27	0x3d9eef11	0.07760442
28	0xbd9f5833	-0.077804945
29	0x3b618643	0.0034412302
30	0x3b9d0231	0.004791521
31	0x3c236bd0	0.009974435
32	0x3d75f40e	0.0600472
33	0x3d816f66	0.06320076
34	0xbd64da4f	-0.055872258
35	0x3d769f51	0.06021053
36	0xbc84cc4f	-0.016210703
37	0x3cab08a5	0.020878145
38	0xbda28439	-0.07935376
39	0xbce512db	-0.027963093
40	0x3b8fe1f0	0.0043909475
41	0xbd007f0d	-0.031371165
42	0xbbdd66bb	-0.006756631
43	0xbd80744e	-0.06272183
44	0xbcdd227c	-0.026993982
45	0xbd9bcfcf	-0.07607996
46	0xbc9647ff	-0.018344877
47	0xbd2819a6	-0.041040085
48	0xbd294d08	-0.04133323
49	0x3c9d21d8	0.019181177
50	0xbd444241	-0.047914747
51	0x3cc140ea	0.023590524
52	0x3d8160b4	0.06317273
53	0x3d25d571	0.040486757
54	0xbcb399d9	-0.021923946
55	0x3d4fa8b1	0.050697986
56	0xbca9891f	-0.020695267
57	0x3d59344e	0.053028397
58	0x3bfecc66	0.007775831
59	0x3cd2184d	0.025646353
60	0x3ac269b2	0.0014832525
61	0x3b108bb6	0.002205593
62	0x3d913904	0.07090953
63	0xbd9343ff	-0.071907036
64	0xbca9cfd3	-0.020728981
65	0xbdb14108	-0.08654982
66	0xbd383e2b	-0.044981163
67	0xbd7d2fb4	-0.06181307
68	0x39b0bc3b	0.0003370958
69	0xbcf47441	-0.02984059
70	0x3c8c4d99	0.017126845
71	0x3c81c7e1	0.01584238
72	0xbd18d03c	-0.037307963
73	0x3cf9382b	0.03042229
74	0x3b9af076	0.004728372
75	0x3cfc4d9b	0.030798724
76	0x3d43883f	0.047737356
77	0x3d350c51	0.0442012
78	0x3d3f3b29	0.04668728
79	0xbdb765e3	-0.0895498
80	0x3d8e9129	0.06961281
81	0x3d271b80	0.04079771
82	0x3d42f2d3	0.047594856
83	0x3bde66e1	0.0067871665
84	0x3cd33cc1	0.025785806
85	0x3d0118ae	0.031517677
86	0x3d3aef48	0.045638353
87	0x3d6c464e	0.057684235
88	0xbcdf6972	-0.02727196
89	0x3ca0f89d	0.019649798
90	0x3d4a4490	0.049381793
91	0xbe9c5021	-0.30529884
92	0xbd8ad6cd	-0.06779251
93	0xbd5154a7	-0.05110612
94	0x3d743e2c	0.059629604
95	0xbe022069	-0.12707676
96	0x3d173c6a	0.03692285
97	0xbce7bfa6	-0.028289627
98	0xbd21af97	-0.039474096
99	0xbd56fa5e	-0.052484863
100	0x3e0bbca9	0.13646187
101	0xbda41cb3	-0.080132864
102	0xbcdaff9a	-0.026733208
103	0xbd347e44	-0.04406573
104	0xb98e2264	-0.00027109974
105	0xbd810784	-0.063002616
106	0xbd244888	-0.040108234
107	0xbe060e36	-0.13091359
108	0x3ce82f3c	0.028342836
109	0x3de1ccb0	0.11025369
110	0x3c8c0f59	0.017097162
111	0x3d4b76a9	0.04967371
112	0xbd522b1d	-0.051310647
113	0xbc52a2fb	-0.01285624
114	0xbd5e9771	-0.054343645
115	0x3db34530	0.08753431
116	0xbd9f012b	-0.07763895
117	0xbb747296	-0.0037299744
118	0x3d93d7b0	0.072188735
119	0x3da5cd7e	0.08095835
120	0xbd8bb392	-0.0682136
121	0x3d368d27	0.044568207
122	0xbd3bf67a	-0.045889355
123	0x3c9d7f51	0.019225748
124	0xbd2f6b4b	-0.042826932
125	0xbcae6ee1	-0.021293106
126	0xbd020042	-0.031738527
127	0xb8ab58b6	-8.170439e-05
128	0xbd9ba8bc	-0.07600543
129	0xbd0aa535	-0.03384896
130	0xbda3a56b	-0.07990535
131	0xbbe86637	-0.007092263
132	0xbc3029a9	-0.01075212
133	0x3cc057ea	0.02347942
134	0xbcd696f6	-0.02619503
135	0x3c1f2478	0.009713285
136	0x3dab6800	0.08369446
137	0xbd2dcda0	-0.042432427
138	0xbc031200	-0.007999897
139	0x3d6b77eb	0.05748741
140	0xbcb811ee	-0.022469487
141	0xbcfdbfef	-0.03097531
142	0x3d38e6d3	0.045142006
143	0x3c0efdc3	0.008727494
144	0x3c6ca679	0.014443987
145	0xbd2c70dc	-0.04209982
146	0xbd5571e3	-0.052110564
147	0xbc35d36f	-0.011097773
148	0x3d5efcb8	0.05444023
149	0x3c7318ad	0.014837426
150	0xbd4afe6d	-0.049559046
151	0xbd847068	-0.06466752
152	0x3d30c087	0.04315236
153	0xbcf1ddc4	-0.029524691
154	0xbd3e08a4	-0.04639496
155	0xbd32006c	-0.043457434
156	0x3d42eacb	0.047587197
157	0x3d84db80	0.06487179
158	0x3c4e9d0d	0.012610686
159	0x3d5a3127	0.05326953
160	0xbd1dd264	-0.038530722
161	0x3d24efbf	0.040267702
162	0x3ce5d2af	0.028054563
163	0xbd6e11a4	-0.058122292
164	0xbd1eddb1	-0.03878564
165	0xbc4f8daf	-0.012668057
166	0xbd65660e	-0.05600553
167	0xbd7e4dc1	-0.06208587
168	0x3d32ed28	0.0436832
169	0x3d03d757	0.032187786
170	0xbd0935b4	-0.03349848
171	0xbd6d4b70	-0.05793327
172	0x3d4f6ba0	0.05063975
173	0x3cc0b265	0.023522565
174	0xbe10b5ec	-0.14131898
175	0x3cfa8f57	0.030585928
176	0x3d9a9b2e	0.075491294
177	0x3ceeb9dd	0.02914136
178	0x3c928a16	0.01788811
179	0xbcf7182b	-0.030162891
180	0x3b49eda4	0.003081181
181	0xbce1341f	-0.027490674
182	0xbb6d3406	-0.0036194338
183	0xbd88ed13	-0.06685843
184	0xbd1f921c	-0.0389577
185	0xbce7ce27	-0.028296543
186	0x3d737255	0.059435207
187	0xbd9f02de	-0.07764219
188	0xbda8e21d	-0.08246253
189	0x3d2cdfed	0.04220574
190	0x3c7ab0c9	0.015300938
191	0x3c574410	0.013138786
192	0xbcb15aab	-0.02164968
193	0xbce24075	-0.027618626
194	0x3d1d022a	0.038332142
195	0x3d4fde8a	0.05074934
196	0x3d61015b	0.054932933
197	0x3cb0ab11	0.021565946
198	0x3d842f2b	0.06454309
199	0xbde45d7d	-0.11150644
200	0x3db4ed1a	0.08834286
201	0xbc4af093	-0.012386459
202	0x3d03c5cf	0.032171067
203	0xbc243de9	-0.010024526
204	0x3d3c5405	0.045978565
205	0xbcc76fb4	-0.024345256
206	0x3d80cb15	0.06288735
207	0xbcef71bc	-0.029229037
208	0xbd2f6181	-0.042817596
209	0x3c614dd5	0.013751467
210	0x3d1138c0	0.03545451
211	0xbd119918	-0.035546392
212	0x3b65fb87	0.003509255
213	0x3bb8ce8e	0.0056398576
214	0x39b4a141	0.0003445242
215	0x3d23dc10	0.04000479
216	0x3c2571ff	0.01009798
217	0xbd9ca29a	-0.07648201
218	0x3c460a70	0.012087449
219	0x3d8d5939	0.069017835
220	0x3c4ea0a1	0.012611539
221	0xbc577360	-0.013150066
222	0x3d57341d	0.052539933
223	0xbc014847	-0.007890767
224	0xbd309516	-0.04311093
225	0xbd8b643f	-0.0680623
226	0xbcd8f226	-0.026482653
227	0x3bb9dfc4	0.005672427
228	0xbd37bc3e	-0.044857256
229	0xbd9cde43	-0.076595806
230	0xbd46e764	-0.048560515
231	0xbceecc0f	-0.029150037
232	0x3cdb964d	0.026805067
233	0x3c14d30f	0.009083523
234	0x3d84b3d5	0.06479613
235	0x3d707d2c	0.058713123
236	0xbd2f7022	-0.042831548
237	0x3a2420d8	0.00062609976
238	0x3d011ab2	0.0315196
239	0x3d66b5ff	0.05632591
240	0x3b6ddba0	0.0036294237
241	0xbd4786c0	-0.048712492
242	0x3cad14c7	0.021128071
243	0xbcb37b6e	-0.021909442
244	0x3d8928ec	0.06697258
245	0xbcf00107	-0.029297365
246	0xbd3767af	-0.044776615
247	0x3cc000b5	0.023437837
248	0x3c1ec56d	0.009690625
249	0xbd4ad18a	-0.04951624
250	0x3cb22696	0.021746915
251	0xbd8e52cc	-0.06949386
252	0xbd72585f	-0.05916631
253	0x3e0b1fde	0.13586375
254	0x3d232a5a	0.03983531
255	0x3d37b602	0.04485131

fc2.bias f4 [128]
0	0x3ca14e88	0.019690767
1	0xbdc55833	-0.09635963
2	0xbdfb8d95	-0.12282864
3	0xbe05076c	-0.12991112
4	0xb9eefa76	-0.00045581505
5	0xbe056dab	-0.13030116
6	0x3cca5341	0.024697902
7	0xbd47e717	-0.04880437
8	0xbd9386ce	-0.07203446
9	0xbdba7fbe	-0.09106396
10	0xbd710842	-0.058845766
11	0xbe21c59a	-0.15798035
12	0xbcd0badd	-0.025479728
13	0xbdcc5ec9	-0.09979016
14	0xbe03ec9d	-0.1288323
15	0xbd92b8da	-0.07164164
16	0xbde54bb3	-0.11196079
17	0xbc4810c4	-0.0122110285
18	0xbc3b7e1e	-0.011443643
19	0xbd482dae	-0.04887169
20	0xbdedf976	-0.116198465
21	0xbd6a86b4	-0.05725737
22	0xbd9f8dbb	-0.07790705
23	0xbd6eb571	-0.058278505
24	0x3c4d9c23	0.012549433
25	0xbdcf179b	-0.10111924
26	0xbe136ac9	-0.14396204
27	0xbbec9a8b	-0.0072205714
28	0xbd35df6f	-0.044402536
29	0xbcc6867d	-0.02423405
30	0xbda65963	-0.08122518
31	0xbaf785dc	-0.0018884498
32	0xbd6b09d3	-0.057382416
33	0xbcad4001	-0.021148684
34	0xbdbfd9b9	-0.09367699
35	0xbc307a9f	-0.010771423
36	0xbd82cfa3	-0.0638726
37	0xbe18b396	-0.14912257
38	0x3c2cc834	0.010545779
39	0xbdb44c1d	-0.0880358
40	0xbd718252	-0.058962174
41	0xbdebae21	-0.11507822
42	0xbd9a613a	-0.07538076
43	0xbd845ce1	-0.06463028
44	0xbd7ed219	-0.062212083
45	0xbd62f09b	-0.05540524
46	0xbe22cee2	-0.15899232
47	0xbdcf868c	-0.10133085
48	0xbd69f3d6	-0.057117306
49	0xbde5716e	-0.112032756
50	0xbe3a42aa	-0.18189493
51	0xbcd25289	-0.025674121
52	0xbd2d5c22	-0.042324193
53	0xbe6279d0	-0.2211678
54	0xbce6bb29	-0.028165417
55	0xbdd3f8d0	-0.103501916
56	0x3c81e657	0.015856905
57	0xbdfd53f7	-0.12369531
58	0xbc94de25	-0.018172333
59	0xbde3624f	-0.11102735
60	0xbd83861c	-0.06422064
61	0xbdbaa5f0	-0.09113681
62	0xbdca39ad	-0.09874282
63	0x3bfcc341	0.0077137058
64	0xbe33a1db	-0.17542212
65	0xbe0576e1	-0.1303363
66	0xbd330134	-0.04370232
67	0xbd53789d	-0.051628698
68	0xbd01778b	-0.031608146
69	0xbd69c022	-0.057067998
70	0xbddb8582	-0.10718824
71	0xbd527376	-0.051379643
72	0xbe235824	-0.15951592
73	0xbd880c91	-0.06643022
74	0xbdafa51d	-0.08576415
75	0xbd93751e	-0.07200073
76	0xbddc716f	-0.10763823
77	0xbbf03a08	-0.0073311366
78	0xbd561f31	-0.05227584
79	0xbdefb829	-0.11705048
80	0xbddc991e	-0.10771392
81	0xbdb5acf4	-0.08870879
82	0xbe04a56a	-0.12953725
83	0xbdf9055f	-0.121592276
84	0xbd8120f6	-0.06305115
85	0xbd2b5062	-0.041824706
86	0xbe058369	-0.1303841
87	0xbe21b76a	-0.15792623
88	0x3b82d53f	0.003992706
89	0xbd91b4f1	-0.0711459
90	0xbe16345e	-0.14668414
91	0x3b9b51c7	0.004739973
92	0xbe0db576	-0.13838753
93	0xbde04722	-0.109510675
94	0xbd04c3f5	-0.03241344
95	0xbde03910	-0.10948384
96	0xbdc8aad6	-0.09798209
97	0xbd4bd6ea	-0.049765505
98	0xbe1aabf5	-0.15104659
99	0xbd56b1cf	-0.052415665
100	0xbd455ca2	-0.048184045
101	0xbe130ab6	-0.14359555
102	0xbd8c683a	-0.06855817
103	0xbc9735dc	-0.0184583
104	0xbdb337bf	-0.08750867
105	0xbe1c63fd	-0.15272518
106	0xbdaa357b	-0.08310982
107	0xbe063542	-0.13106254
108	0xbafa30f1	-0.0019088072
109	0xbc9e60fb	-0.019333353
110	0x3c8ebd80	0.017424345
111	0xbd7151a5	-0.058915753
112	0xbd0e00fb	-0.034668904
113	0x3c8f3a4a	0.01748385
114	0xbd47c59f	-0.04877245
115	0xbd68d0de	-0.056839816
116	0xbdec3111	-0.11532796
117	0xbe1f4abf	-0.15555857
118	0xbcaf510e	-0.021400955
119	0xbd6081ff	-0.054811474
120	0xbc074c1f	-0.008257895
121	0xbd312965	-0.043252368
122	0xbcb2d74c	-0.021831177
123	0xbd89db23	-0.0673125
124	0xbd836468	-0.06415635
125	0xbd1a6949	-0.037698064
126	0xbdc9f7af	-0.09861695
127	0xbd231d05	-0.039822597

fc3.weight f4 [1, 128]
0	0x3ca983f5	0.020692805
1	0x3b935ae8	0.004496921
2	0xbc2daee9	-0.010600784
3	0xbc487890	-0.012235776
4	0xbc7399f4	-0.014868248
5	0xbb2f52cb	-0.002675223
6	0x3c130eb8	0.008975677
7	0x3c25bb8d	0.010115516
8	0x3c08dd54	0.00835355
9	0xbc4266c2	-0.01186532
10	0x3c491e71	0.012275324
11	0x3c2b7dde	0.010467021
12	0x3c6265f1	0.01381825
13	0x3cad6af9	0.021169173
14	0xbc5cb841	-0.013471664
15	0xbbb057c8	-0.005381558
16	0x3cd64813	0.026157415
17	0xbc8bc7ea	-0.0170631
18	0x3c78e3d0	0.0151910335
19	0x3ba9841f	0.0051732208
20	0xbc5f10f0	-0.013614878
21	0xbc23a1be	-0.009987293
22	0xbc384d2a	-0.011248866
23	0x3c0a1b68	0.008429386
24	0xbc3f7ae7	-0.011687017
25	0xbc1a24ac	-0.009408157
26	0x3c00f3c6	0.00787062
27	0xbc0f7dc7	-0.008758015
28	0xbbac584c	-0.0052595492
29	0x3c02510f	0.007953896
30	0xbbfef607	-0.0077807936
31	0x3ba11376	0.00491565
32	0xbc1bbc63	-0.009505364
33	0x3b5d3054	0.003375073
34	0xbc700f95	-0.014652153
35	0xbca766ff	-0.020434855
36	0xbbdc338a	-0.006720011
37	0xbbdfece6	-0.0068336604
38	0x3c2a2c5f	0.010386555
39	0x3c134ec8	0.008990951
40	0x3c88308e	0.016624715
41	0xbbe3b81b	-0.0069494373
42	0xbc1b7fe2	-0.009490939
43	0xbb555878	-0.0032553952
44	0x3d0e1ff8	0.034698457
45	0x3c8304da	0.015993524
46	0xbb99effe	-0.0046977988
47	0x3bcfa4e9	0.0063367975
48	0x3bdd27ae	0.006749115
49	0xbbb9bfeb	-0.0056686304
50	0x3c307283	0.010769489
51	0xbba3a2c3	-0.004993768
52	0x3c179eaf	0.009254142
53	0xbc3de8ad	-0.011591119
54	0xbb020622	-0.0019840081
55	0xbbf748ac	-0.007546505
56	0xbca09b88	-0.019605413
57	0xbc9a0496	-0.018801015
58	0xbb9b057f	-0.00473088
59	0xbc7e4580	-0.0155195
60	0xbc4e3dd4	-0.012587983
61	0x3c61e7c2	0.0137881655
62	0xbb1dd8b7	-0.002408547
63	0xbc1b3d51	-0.009475068
64	0x3c018644	0.007905547
65	0x3bb55f77	0.005535062
66	0xbb8d1acb	-0.0043061725
67	0xbc1d860d	-0.00961448
68	0xbbb7cbf1	-0.0056090285
69	0xbc38c76e	-0.0112780165
70	0xbc1f1a23	-0.009710821
71	0x3c23d357	0.009999118
72	0x3b1641d3	0.0022927418
73	0xbc107826	-0.008817708
74	0x3da045f3	0.07825842
75	0x3c1226ed	0.008920413
76	0xbb3ae7e0	-0.0028519556
77	0xbc802ce0	-0.015646398
78	0x3ba43eef	0.005012385
79	0x3c1c3d86	0.009536153
80	0xbc20d17e	-0.009815572
81	0xbbdb6b27	-0.006696123
82	0x3c9d7a08	0.019223228
83	0x3c4004ad	0.011719865
84	0xbc02a200	-0.007973194
85	0x3d3da069	0.046295557
86	0x3c735f8d	0.014854324
87	0x3cea73d2	0.02861968
88	0x3c3b9d5d	0.011451093
89	0x3bcbb207	0.006216291
90	0xbc3c03ad	-0.011475486
91	0x3c3d6246	0.011559075
92	0xbc7f2cd3	-0.015574652
93	0xbc4706a2	-0.0121475775
94	0x3d087758	0.03331694
95	0xbc1d9de9	-0.009620168
96	0x3c531534	0.012883473
97	0x3c8d7240	0.017266393
98	0xbc2c451d	-0.010514525
99	0x3be821c3	0.007084103
100	0x3c9004a9	0.017580347
101	0xbc05b6ba	-0.008161241
102	0x3c2a02fe	0.01037669
103	0x3af4e115	0.0018682802
104	0x3b8a34f0	0.0042177364
105	0xbc70636d	-0.014672142
106	0x3c0a6c9d	0.008448747
107	0x3beb9f46	0.0071906177
108	0xbbe1e7df	-0.0068940963
109	0xbc1a6266	-0.009422874
110	0x3c3fb855	0.011701663
111	0x3c8871d7	0.016655846
112	0xbb2f7c2b	-0.002677689
113	0x3c14a418	0.009072326
114	0x3c30248b	0.0107509
115	0xbc805c1a	-0.015668917
116	0xbcd2466d	-0.025668347
117	0xbb992c62	-0.0046744803
118	0xbc03ed1c	-0.008052137
119	0xbc6578bf	-0.014005839
120	0x3c78ef9f	0.015193849
121	0xbc176122	-0.009239467
122	0x3c63b02a	0.013896981
123	0xbb9dec3a	-0.00481942
124	0xbb88a901	-0.0041705375
125	0xbc4f452a	-0.012650767
126	0x3c2f9282	0.0107160825
127	0xbb9bf307	-0.0047591957

sequential.0.weight f4 [256, 24]
0	0xbd11d9bc	-0.03560804
1	0xbd8416d6	-0.06449668
2	0x3cd85d14	0.02641157
3	0xbd020484	-0.031742588
4	0xbdac4510	-0.0841161
5	0xbe116ca2	-0.14201596
6	0xbcaef448	-0.021356717
7	0x3d12d979	0.03585193
8	0xbccb7421	-0.024835648
9	0xbba1f06a	-0.0049419897
10	0xbd4eedf6	-0.050519906
11	0x3db4a9e4	0.088214666
12	0x3d58bb29	0.052912865
13	0xbd9ad4f3	-0.07560148
14	0x3d4a042c	0.049320385
15	0x3dc58b12	0.09645666
16	0x3bbdc87b	0.0057917214
17	0xbdb1f965	-0.08690146
18	0x3d436778	0.047706097
19	0xbda803c4	-0.08203843
20	0x3cb47a20	0.02203089
21	0x3df411ad	0.11917434
22	0xbd43179a	-0.04762993
23	0xbd5f9b52	-0.054591484
24	0x3d093627	0.03349891
25	0x3d55aad9	0.052164886
26	0x3cf28d19	0.029608296
27	0x3cac2e20	0.021018088
28	0xbd1300cb	-0.035889428
29	0x3c2c331f	0.010510235
30	0x3d982361	0.07428623
31	0xb96cf6d3	-0.00022598663
32	0xbca9d7e2	-0.020732824
33	0x3cc102c8	0.023560897
34	0x3a9f3d49	0.0012149002
35	0x3c9f5845	0.01945127
36	0xbc049485	-0.00809205
37	0xbc7bceb9	-0.015369111
38	0xbd0ea920	-0.03482926
39	0x3c8e8635	0.01739798
40	0x3d7c96b5	0.061667163
41	0x3cda6a40	0.026661992
42	0xbcdc7b55	-0.026914278
43	0xbdb26e7b	-0.08712479
44	0x3dbf2c65	0.093346395
45	0xbd1df597	-0.03856429
46	0x3c7dfda6	0.015502369
47	0xbd728978	-0.05921313
48	0x3d155bec	0.036464617
49	0x3caba6a5	0.020953486
50	0xb91c5e34	-0.00014912413
51	0xbd8d713a	-0.06906362
52	0xbce797b5	-0.028270582
53	0xbd5ebdc4	-0.054380193
54	0x3cad4f34	0.021155931
55	0xbd63f282	-0.055651195
56	0xbced4371	-0.028962823
57	0x3bbc8308	0.005752925
58	0xbc07f337	-0.008297733
59	0xbd821c3e	-0.06353043
60	0x3d974d10	0.073877454
61	0xbbf1e368	-0.0073818453
62	0x3bc63633	0.0060489415
63	0x3c554568	0.013017036
64	0x3c5b1fa4	0.013374243
65	0xbd9fad49	-0.077967234
66	0x3da43e2f	0.08019673
67	0x3d04b390	0.032397807
68	0x3dc5afa4	0.096526414
69	0xbd39e567	-0.04538479
70	0x3cab8e74	0.02094195
71	0x3d0ec0a4	0.034851685
72	0xbc040624	-0.008058105
73	0xbc3e3bce	-0.011610938
74	0x3ca0173e	0.019542333
75	0x3d026c0f	0.031841334
76	0xbdb03796	-0.08604352
77	0x3d0ec86c	0.034859106
78	0x3cfae094	0.030624665
79	0x3d553749	0.052054677
80	0xbd2ca9a7	-0.04215398
81	0x3d25cd91	0.040479247
82	0xbb65fcf0	-0.003509339
83	0x3cb6168a	0.022227544
84	0xbd1dddb6	-0.03854152
85	0x3b8e1b3e	0.0043367436
86	0x3d779e74	0.060453847
87	0xbd6323ff	-0.05545425
88	0xbda9eba5	-0.08296899
89	0x3d52ee64	0.05149688
90	0x3d83f038	0.064423025
91	0x3d07cdda	0.0331553
92	0x3c5c1a7b	0.013434048
93	0x3c0389ee	0.0080284905
94	0x3da2b856	0.079453155
95	0x3ccca338	0.024980173
96	0x3cec0cd8	0.028814718
97	0xbdd778fd	-0.105211236
98	0xbbe300a8	-0.0069275685
99	0xb9fda2f6	-0.00048377336
100	0x3da0ee2e	0.07857929
101	0x3d911810	0.07084668
102	0x3d5c3b3b	0.053767424
103	0xbd3b6731	-0.045752708
104	0xbd9a9cec	-0.07549462
105	0xbd7c2137	-0.061555114
106	0xbc994a79	-0.01871227
107	0xbcee8ca5	-0.029119799
108	0x3dd6ac10	0.10482037
109	0x3d92466f	0.071423404
110	0xbd25ff6b	-0.04052679
111	0x3d8aec9f	0.06783413
112	0xbd07dcff	-0.033169743
113	0xbe078542	-0.13234428
114	0x3ac0d814	0.0014712834
115	0xbda648ec	-0.081193775
116	0x3d546c4f	0.051861104
117	0x3c1d915b	0.009617175
118	0x3d2f72f1	0.042834226
119	0xbdfd1335	-0.12357179
120	0x3bc740c7	0.00608072
121	0x3c50c100	0.012741327
122	0x3ca7d68e	0.02048805
123	0xbc7a1dfd	-0.015265939
124	0xbbd849f2	-0.006600612
125	0x3dc3bd29	0.09557564
126	0xbca6b836	-0.02035151
127	0xbd67f424	-0.056629315
128	0x3c8afae9	0.016965346
129	0xbcecd48f	-0.02890995
130	0x3d37fd76	0.044919454
131	0xbcdc66ba	-0.026904453
132	0xbd50a79c	-0.050941095
133	0x3d8bdada	0.06828852
134	0x3ca559da	0.020184446
135	0xbd4ecf49	-0.05049065
136	0xbc30276d	-0.010751587
137	0x3d79a8d8	0.060952038
138	0x3c7ae93b	0.015314396
139	0x3d8a0899	0.06739921
140	0xbdef5607	-0.1168633
141	0x3e09b417	0.13447605
142	0x3cfd60e4	0.03092999
143	0xbbb846cf	-0.0056236754
144	0x3d802c26	0.06258421
145	0x3db1d3e7	0.08682995
146	0xbd2c05b6	-0.041997634
147	0xbcd2b19a	-0.025719453
148	0xbbe51b03	-0.0069917454
149	0x3d67403b	0.05645774
150	0xbab35609	-0.0013682257
151	0x3ce3a474	0.027788378
152	0x3d0e649f	0.03476393
153	0x3cfb2d8f	0.030661372
154	0x3db00c29	0.08596069
155	0x3d051763	0.032493006
156	0xbc9c6851	-0.01909271
157	0x3cb5d5fb	0.02219676
158	0x3b9108ba	0.004426089
159	0xbc6ac56b	-0.014329295
160	0x3d4a64f7	0.049412694
161	0x3d1591ec	0.036516115
162	0xbd5b7eef	-0.05358785
163	0xbd30a163	-0.04312266
164	0x3d665f30	0.05624312
165	0xbdf36e6f	-0.11886298
166	0xbd663a37	-0.05620786
167	0xbaed8940	-0.0018122569
168	0xbcaac2f3	-0.020844912
169	0x3d1b655a	0.037938453
170	0x3c180bbc	0.009280141
171	0xbc85df92	-0.016341958
172	0xbcc745ea	-0.02432533
173	0x3d1156db	0.035483222
174	0x3d30ba9e	0.043146722
175	0x3bce09e7	0.0062878015
176	0xbd26e905	-0.04074957
177	0xbc8e3ee9	-0.017363982
178	0xbdafd773	-0.085860156
179	0xbda69d5c	-0.08135483
180	0xbce1db58	-0.027570412
181	0xbccc8440	-0.024965405
182	0xbc6a2da8	-0.014293112
183	0xbc3d639d	-0.011559394
184	0xbd9d0666	-0.07667236
185	0xbdc8d913	-0.098070286
186	0x3abd3299	0.0014434635
187	0xbd23a6ad	-0.039953876
188	0xbcb3477d	-0.021884674
189	0x3dc272a6	0.09494524
190	0x3cbce815	0.023059884
191	0xbd9aa1a7	-0.07550364
192	0x3d07c246	0.033144258
193	0x3d6ecd4a	0.058301248
194	0xbd783636	-0.060598575
195	0x3cf71fa0	0.030166447
196	0x3ce6495a	0.028111149
197	0x3df844cc	0.12122497
198	0xbd21b7a6	-0.03948178
199	0x3bc1f785	0.005919399
200	0xbd8b4b3a	-0.06801458
201	0x3ca20d62	0.019781772
202	0x3d1475f7	0.036245313
203	0x3c32bf9a	0.010909939
204	0x3cd5effc	0.02611541
205	0x3dba7a24	0.09105328
206	0xbd42736f	-0.047473367
207	0xbd8aea13	-0.06782927
208	0xbce7c1d0	-0.02829066
209	0xbdd3a03b	-0.10333296
210	0xbd01d802	-0.03170014
211	0xbd64a2d1	-0.055819336
212	0x3d85c785	0.06532196
213	0xbc392f50	-0.011302784
214	0xbcf41872	-0.029796813
215	0xbda474e9	-0.08030111
216	0xbd967f0b	-0.0734845
217	0x3c75ba2c	0.014998
218	0xbd158ebb	-0.03651307
219	0xba45acd7	-0.0007540709
220	0xbdb47c69	-0.08812792
221	0xbd972b41	-0.07381297
222	0x3d00d5dd	0.031453956
223	0xbc0ef209	-0.008724698
224	0x3d9474dd	0.072488524
225	0x3cbeefb2	0.023307655
226	0x3d47d22f	0.04878443
227	0x3bae4053	0.0053177266
228	0xbdb14abb	-0.08656832
229	0xbda5ca40	-0.08095217
230	0xbc9f4eed	-0.019446814
231	0xbba992d7	-0.0051749754
232	0x3cab5120	0.020912707
233	0x3d889ee1	0.06670929
234	0xbd32cae9	-0.04365054
235	0x3cdc8f6e	0.026923861
236	0xbe20bd27	-0.15697156
237	0xbd37c2c6	-0.044863485
238	0x3d17f783	0.03710128
239	0xbc153ee7	-0.009109235
240	0xbd4239ee	-0.047418527
241	0x3d89ca41	0.0672803
242	0x3db90a62	0.090351835
243	0xbcbbc78c	-0.0229223
244	0xbcb5116c	-0.022103034
245	0x3dbc54c5	0.09195856
246	0x3d9e25be	0.077220425
247	0x3cd6e8b0	0.026234
248	0xbd475a6d	-0.04867022
249	0x3bcf8526	0.006333011
250	0x3c97af63	0.018516248
251	0x3c9c7bd2	0.01910201
252	0x3d4fb321	0.05070794
253	0xbd02b291	-0.031908575
254	0xbd870606	-0.06592946
255	0x3d038a69	0.03211442

sequential.0.bias f4 [256]
0	0xbde90736	-0.113783285
1	0x3e344e5c	0.17608017
2	0x3e048c51	0.12944151
3	0x3dc8389d	0.09776423
4	0x3ca9c64f	0.020724444
5	0xbe49e5b1	-0.19716527
6	0xbe44a8e0	-0.19205046
7	0x38d5a318	0.0001018701
8	0xbe111055	-0.14166386
9	0xbe95d3f4	-0.2926327
10	0xbc2c31cd	-0.01050992
11	0xbd375be7	-0.04476538
12	0x3dd30bb6	0.10304968
13	0xbdd96120	-0.10614228
14	0x3d115612	0.035482474
15	0x3e127301	0.14301683
16	0x3d5d58c4	0.05403973
17	0x3d513b38	0.051081866
18	0xbe2caa5b	-0.1686186
19	0xbe2f72b5	-0.17133601
20	0xbe22984e	-0.15878412
21	0xbe52ecc9	-0.20598139
22	0xbd49226a	-0.049105085
23	0xbe3bd7bf	-0.1834402
24	0x3d679272	0.056536146
25	0xbea55bf8	-0.3229673
26	0x3d4a60eb	0.049408834
27	0x3c359a47	0.011084146
28	0xbe8a763d	-0.27043334
29	0xbcebfc78	-0.02880691
30	0xbdc15b0f	-0.09441196
31	0xbdc95de1	-0.09832359
32	0xbc2e455b	-0.010636653
33	0x3da34fff	0.079742424
34	0xbda1c21d	-0.07898352
35	0x3d880031	0.066406615
36	0xbe654657	-0.22390114
37	0x3de044a4	0.10950592
38	0xbd85eaf8	-0.06538957
39	0x3cb49cba	0.02204739
40	0xbe262991	-0.16226794
41	0xbe9d71ef	-0.30750987
42	0xbd11d681	-0.035604957
43	0xbe069d95	-0.1314605
44	0xbdc546b2	-0.09632625
45	0xbd37f9e4	-0.04491605
46	0xbd532757	-0.05155119
47	0xbe40a3fa	-0.18812552
48	0x3e149562	0.1451011
49	0x3cd69017	0.026191754
50	0xbdbe2756	-0.092848465
51	0x3dfd0d5c	0.12356064
52	0xbe16b637	-0.14717947
53	0xbe5c42d3	-0.21509866
54	0x3e11697f	0.142004
55	0xbde9cf67	-0.11416512
56	0x3da5da9c	0.08098337
57	0xbde07471	-0.109597094
58	0xbd7b570a	-0.061362304
59	0x3dc858bd	0.097825505
60	0x3e0200c7	0.12695609
61	0xbc91b220	-0.017785132
62	0xbc2b56c0	-0.0104576945
63	0xbe39d7f0	-0.1814878
64	0x3ddaec2f	0.1068958
65	0x3d6723b8	0.05643055
66	0xbe2d866d	-0.1694581
67	0x3e07fc8e	0.13279936
68	0xbe966094	-0.29370558
69	0x3c5ae587	0.013360388
70	0xbdcdf7d8	-0.10057038
71	0xbe852b1e	-0.26009458
72	0xbe2a5d3c	-0.16637129
73	0xbca47646	-0.020075928
74	0xbc8a51a7	-0.016884638
75	0x3e6d2770	0.23159575
76	0x3d8de3fc	0.0692825
77	0x3e30e4d2	0.17274788
78	0x3d084e4f	0.033277806
79	0xbd914f4f	-0.07095205
80	0xbd4b544c	-0.04964094
81	0xbe2d4759	-0.16921748
82	0xbe1d6ff4	-0.15374738
83	0xbe1b5389	-0.15168585
84	0x3e11c997	0.14237057
85	0xbe14b0d4	-0.1452058
86	0xbd79031c	-0.06079398
87	0xbc9c2aa6	-0.019063305
88	0xbe07de65	-0.1326843
89	0x3d23a5b2	0.03995294
90	0xbddca02f	-0.1077274
91	0xbd6cd3a1	-0.057819013
92	0xbdf74040	-0.120728016
93	0x3dc00bb2	0.09377231
94	0xbdbf0ad0	-0.09328234
95	0xbe29f99d	-0.16599126
96	0x3e037fe9	0.12841763
97	0xbdfa0cad	-0.12209449
98	0x3e1a12a3	0.15046172
99	0x3dbddc72	0.09270562
100	0x3e0a4d3f	0.1350603
101	0xba356ea8	-0.0006921091
102	0xbaf110e6	-0.0018391877
103	0xbcffeb34	-0.031240083
104	0xbe177f59	-0.14794673
105	0x3e131da6	0.14366779
106	0x3e4f4816	0.20242342
107	0xbd8fb773	-0.07017412
108	0xbc81af97	-0.015830798
109	0xbdc2ea2f	-0.09517323
110	0xbd97c4df	-0.07410597
111	0xbe149ff8	-0.14514148
112	0xbdae4c99	-0.085107036
113	0xbe786260	-0.24256277
114	0xbd250a4c	-0.040293023
115	0x3ddee486	0.10883431
116	0x3e2b4808	0.16726696
117	0xbe4a53b9	-0.197585
118	0xbe2bce13	-0.1677783
119	0x3de7aa07	0.11311727
120	0xbe1de219	-0.1541828
121	0x3cd8f041	0.02648175
122	0x3d914a4d	0.0709425
123	0x3dc6884f	0.096939676
124	0x3da21fe8	0.07916242
125	0x3dc6e8d1	0.09712375
126	0xbc140de0	-0.009036511
127	0x3c824f9b	0.0159071
128	0x3db84cfd	0.08999059
129	0xbe7285f7	-0.23683916
130	0xbe41ccf8	-0.18925846
131	0x3e0229ab	0.12711208
132	0xbe8563e3	-0.2605277
133	0x3dfd2212	0.12360014
134	0x3d82f9ca	0.063953
135	0x3e12a62a	0.14321199
136	0x3d9a47fc	0.07533261
137	0xbb627483	-0.003455431
138	0xbb8b1d75	-0.004245455
139	0x3d7e7903	0.062127125
140	0x3dc973d9	0.09836549
141	0xbe3a617a	-0.18201247
142	0x3e164aeb	0.14677016
143	0x3daaa96d	0.08333097
144	0x3e30aa28	0.1725241
145	0xbdf481e8	-0.1193884
146	0xbd623f98	-0.05523643
147	0xbdf637d1	-0.12022365
148	0x3d8a034c	0.0673891
149	0x3df66802	0.12031557
150	0x3dbc331f	0.09189438
151	0x3cdcb7a4	0.026943035
152	0x3e2378ac	0.15964001
153	0xbe97fc2e	-0.29684585
154	0x3e6c6792	0.23086384
155	0x3d984d9d	0.074366786
156	0x3e251951	0.16122939
157	0xbdb008cb	-0.08595427
158	0xbdfc2ef4	-0.12313643
159	0x3e0d5a99	0.13804092
160	0xbe059880	-0.13046455
161	0x3b448cd4	0.0029991167
162	0xbcddc155	-0.027069727
163	0x3b81f3f6	0.00396585
164	0xbde966f1	-0.11396588
165	0x3e56e34c	0.20985144
166	0xbcdc85e9	-0.026919322
167	0xbc511b4f	-0.0127628585
168	0x3de77025	0.11300687
169	0x3dded35a	0.10880156
170	0x3d95b2b3	0.07309475
171	0xbdbaf22c	-0.09128222
172	0xbe17e357	-0.14832817
173	0xbe602aaf	-0.21891282
174	0xbea18889	-0.3154948
175	0xbe70a16d	-0.23499079
176	0xbc982c6e	-0.018575873
177	0x3e472930	0.19449306
178	0xbe1aab0e	-0.15104315
179	0x3d56e4d3	0.052464318
180	0xbe08683f	-0.13321017
181	0x3e0c283b	0.13687222
182	0x3e123619	0.14278449
183	0x3d53930e	0.051653914
184	0x3e15e2f0	0.14637351
185	0xbe60fdfa	-0.21971884
186	0xbcaa5d5b	-0.020796468
187	0xbd9380fb	-0.072023354
188	0x3cfb0e9c	0.030646615
189	0x3dab5220	0.083652735
190	0x3cce6abe	0.025197383
191	0x3d99a8e3	0.07502916
192	0xbd6244e6	-0.055241488
193	0xbd35a876	-0.04435011
194	0xbe010b14	-0.12601882
195	0xbe8055b7	-0.25065395
196	0xbc92c5ee	-0.017916646
197	0x3db93ea4	0.09045151
198	0x3e44b57e	0.19209859
199	0x3c488cb4	0.0122405775
200	0xbd0efb18	-0.03490743
201	0x3d803e76	0.062619135
202	0x3c935ac8	0.017987624
203	0xbdc85638	-0.0978207
204	0x3bb42a97	0.005498241
205	0x3e58853b	0.21144573
206	0xbdba93c9	-0.09110219
207	0x3d86c2bb	0.06580111
208	0xbc253d71	-0.01008545
209	0xbe0bc9a1	-0.13651134
210	0xbca66d9f	-0.020315943
211	0x3c41b79d	0.011823562
212	0x3e41c62f	0.18923257
213	0x3c915261	0.017739477
214	0xbd574807	-0.052558925
215	0xbea1dff9	-0.3161619
216	0x3e2fc9b6	0.1716679
217	0x3dde7af5	0.10863296
218	0xbd8102db	-0.06299373
219	0x3cadf4f9	0.021234976
220	0xbd378584	-0.044805065
221	0x3c68c936	0.014208129
222	0x3e609754	0.21932727
223	0x3c4b7832	0.0124187935
224	0x3d0b297a	0.033975102
225	0xbdec3cf2	-0.11535062
226	0x3cb51e27	0.022109104
227	0xbd35f607	-0.044424083
228	0xbd154eb2	-0.036452003
229	0xbe04fc63	-0.12986903
230	0x3e6627fa	0.22476187
231	0x3d868997	0.06569212
232	0xbd89e447	-0.067329936
233	0xbce364f3	-0.027758097
234	0x3cdefe81	0.027220966
235	0x3d8c36ed	0.06846414
236	0xbded01ea	-0.11572631
237	0x3d423972	0.047418065
238	0xbcad8e95	-0.021186152
239	0x3d8bf496	0.068337604
240	0xbe0c9907	-0.1373025
241	0xbde554e3	-0.111978315
242	0x3d5a130e	0.05324083
243	0xbcb22cc6	-0.021749865
244	0xbd78a8c2	-0.060707815
245	0x3e826961	0.25471023
246	0xbc5d462d	-0.013505501
247	0xbe2f5c9b	-0.1712517
248	0xbdef9f30	-0.117002845
249	0xbd14d449	-0.036335263
250	0xbe59c88d	-0.2126791
251	0xbe3bb346	-0.18330106
252	0x3e1f3ed7	0.15551315
253	0x3e8b1a6c	0.27168596
254	0xbe346d03	-0.1761971
255	0x3e24803f	0.16064547

sequential.2.weight f4 [256]
0	0x3f7fef6d	0.9997471
1	0x3f5e35fd	0.8680113
2	0x3f67008f	0.9023523
3	0x3f6a5cbc	0.9154775
4	0x3f66e447	0.90192074
5	0x3f6667df	0.90002245
6	0x3f6e68c3	0.93128604
7	0x3f6d0ba3	0.9259588
8	0x3f66b3dd	0.901182
9	0x3f7d8f97	0.99047226
10	0x3f6b6742	0.91954434
11	0x3f6a2a17	0.91470474
12	0x3f68a531	0.9087706
13	0x3f584fdd	0.8449686
14	0x3f68f4d9	0.9099861
15	0x3f875497	1.057269
16	0x3f55eb05	0.83561736
17	0x3f6a5001	0.91528326
18	0x3f646262	0.8921262
19	0x3f631614	0.88705564
20	0x3f8d222e	1.1026056
21	0x3f73d245	0.9524272
22	0x3f653f6d	0.89549905
23	0x3f71925a	0.9436394
24	0x3f683027	0.90698475
25	0x3f71c041	0.9443398
26	0x3f68b756	0.9090475
27	0x3f693a9d	0.9110506
28	0x3f9957b3	1.1979889
29	0x3f5ac878	0.8546214
30	0x3f883b75	1.0643145
31	0x3f64497b	0.8917462
32	0x3f58a746	0.8463024
33	0x3f640465	0.89069206
34	0x3f6849fb	0.90737885
35	0x3f6a5396	0.9153379
36	0x3f6fa458	0.93610144
37	0x3f6abdb9	0.91695744
38	0x3f6c357a	0.922691
39	0x3f73a792	0.95177567
40	0x3f7016c3	0.9378473
41	0x3f6d1a73	0.92618483
42	0x3f62893e	0.88490665
43	0x3f68f0cd	0.9099243
44	0x3f7108df	0.9415416
45	0x3f607de0	0.8769207
46	0x3f67b308	0.90507555
47	0x3f692451	0.9107104
48	0x3f5e0e75	0.8674081
49	0x3f6fec82	0.9372026
50	0x3f595ccf	0.8490724
51	0x3f58762c	0.84555316
52	0x3f642e58	0.89133215
53	0x3f6529f4	0.8951714
54	0x3f625efa	0.8842617
55	0x3f72886a	0.947394
56	0x3f6512b4	0.89481664
57	0x3f68dc13	0.90960807
58	0x3f682b7a	0.9069134
59	0x3f95cc4d	1.1702973
60	0x3f67bd79	0.9052349
61	0x3f65fab6	0.8983568
62	0x3f6331eb	0.88748044
63	0x3f6b1ef9	0.91844136
64	0x3f6645da	0.89950335
65	0x3f5e969b	0.86948556
66	0x3f689e7f	0.90866846
67	0x3f6db8d3	0.92860144
68	0x3f6f0a60	0.93375206
69	0x3f64a38f	0.8931207
70	0x3f71e29e	0.94486415
71	0x3f7137ae	0.94225585
72	0x3f69f266	0.91385496
73	0x3f61131b	0.8791978
74	0x3f697589	0.9119497
75	0x3f8f1c09	1.1180431
76	0x3f6d1bc3	0.92620486
77	0x3f6311a0	0.8869877
78	0x3f668b1a	0.90056
79	0x3f7b2fa9	0.981196
80	0x3f6e45d1	0.9307528
81	0x3f8d115b	1.1020921
82	0x3f7151de	0.94265544
83	0x3f5c2598	0.85994864
84	0x3f67b54e	0.90511024
85	0x3f5618b5	0.8363145
86	0x3f691510	0.91047764
87	0x3f699311	0.9124003
88	0x3f5f6953	0.87270087
89	0x3f6ac4f2	0.91706765
90	0x3f66ed05	0.90205413
91	0x3f9fa6a0	1.2472725
92	0x3f67a532	0.90486443
93	0x3f6afc11	0.9179087
94	0x3f6d2170	0.92629147
95	0x3fa59476	1.2935932
96	0x3f42b5a9	0.7605844
97	0x3f6701b3	0.9023697
98	0x3f64fc20	0.8944721
99	0x3f699f0b	0.91258305
100	0x3f91ead7	1.1399792
101	0x3fa82ae4	1.3138089
102	0x3f6de145	0.9292186
103	0x3f85f7fb	1.0466303
104	0x3f6a496b	0.91518277
105	0x3f5e2382	0.8677293
106	0x3f66400e	0.8994149
107	0x3f95047e	1.1641996
108	0x3f68e920	0.9098072
109	0x3f8f075e	1.1174123
110	0x3f6cc0b7	0.9248156
111	0x3f6b3c45	0.9188884
112	0x3f704d3d	0.93867856
113	0x3f653d19	0.8954635
114	0x3f6f5f0b	0.935044
115	0x3f728e44	0.9474833
116	0x3f67a904	0.9049227
117	0x3f615fcd	0.88036805
118	0x3f6254da	0.88410723
119	0x3f6fcea9	0.93674713
120	0x3f6811c6	0.9065212
121	0x3f702031	0.9379912
122	0x3f6600b0	0.898448
123	0x3f62b372	0.8855506
124	0x3f6eed86	0.9333118
125	0x3f6e4c42	0.9308511
126	0x3f70f5be	0.9412497
127	0x3f647027	0.8923363
128	0x3f6a6d79	0.9157329
129	0x3f672153	0.90285224
130	0x3f6a0586	0.9141468
131	0x3f66f059	0.9021049
132	0x3f7e3a0d	0.9930733
133	0x3f6744ec	0.9033954
134	0x3f8da571	1.1066114
135	0x3f746078	0.954597
136	0x3f6c0f4b	0.92210835
137	0x3f64786d	0.89246255
138	0x3f7c3dc8	0.9853177
139	0x3f74953d	0.9554022
140	0x3f659976	0.8968729
141	0x3f67a839	0.9049106
142	0x3f6a9db9	0.91646916
143	0x3f6816c5	0.90659744
144	0x3f629b2d	0.8851803
145	0x3f843be5	1.0330778
146	0x3f83419e	1.02544
147	0x3f69c40b	0.9131476
148	0x3f698221	0.91214186
149	0x3f6fd02e	0.9367703
150	0x3f6b85c2	0.92000973
151	0x3f90284f	1.1262301
152	0x3f706645	0.9390605
153	0x3f837536	1.0270145
154	0x3f697db5	0.9120744
155	0x3f801b06	1.0008247
156	0x3f63b530	0.88948345
157	0x3f628c3c	0.8849523
158	0x3f64b12f	0.8933286
159	0x3f70cfe2	0.94067204
160	0x3f71727c	0.94315314
161	0x3f5fd0c0	0.874279
162	0x3f73355e	0.95003307
163	0x3f684be3	0.90740794
164	0x3f74463e	0.9541968
165	0x3f6b502c	0.9191921
166	0x3f673f31	0.903308
167	0x3f842fdb	1.0327104
168	0x3f61617a	0.8803936
169	0x3f7e1c84	0.9926226
170	0x3f6b3f8e	0.9189385
171	0x3f69c468	0.9131532
172	0x3f4e51bd	0.8059347
173	0x3f6a17b4	0.9144242
174	0x3f7f32c0	0.99686813
175	0x3f6321c4	0.887234
176	0x3f6bff3a	0.9218632
177	0x3f6a5d9b	0.9154908
178	0x3f632426	0.88727033
179	0x3f6dca36	0.92886674
180	0x3f6b0817	0.9180922
181	0x3f708692	0.9395534
182	0x3f6a8980	0.9161606
183	0x3f733ee2	0.95017827
184	0x3f6d3fa2	0.9267522
185	0x3f6dcb5a	0.92888415
186	0x3f896ad8	1.0735731
187	0x3f6b84ad	0.9199932
188	0x3f665938	0.89979887
189	0x3f6494f4	0.89289784
190	0x3f6a5e61	0.9155026
191	0x3f871c9f	1.055561
192	0x3f6caafc	0.924484
193	0x3f6d6acb	0.9274108
194	0x3f88d2da	1.0689347
195	0x3f764eb6	0.96213853
196	0x3f8342e3	1.0254787
197	0x3f6b8725	0.9200309
198	0x3f6a089c	0.91419387
199	0x3f7e8ca2	0.9943334
200	0x3f6a74e3	0.91584605
201	0x3f68054f	0.906331
202	0x3f69b57f	0.91292566
203	0x3f68c0fa	0.9091946
204	0x3f877a72	1.0584242
205	0x3f6ff75d	0.9373682
206	0x3f645ae3	0.8920118
207	0x3f6b3e43	0.9189188
208	0x3f660b0f	0.89860624
209	0x3f898cd4	1.0746102
210	0x3f697018	0.91186666
211	0x3f6f470e	0.93467796
212	0x3f4bb50f	0.7957315
213	0x3f5e5aed	0.8685749
214	0x3f71f84f	0.94519514
215	0x3f7489a7	0.9552254
216	0x3f6c3a68	0.9227662
217	0x3f6e9f6e	0.9321202
218	0x3f752f40	0.9577522
219	0x3f66abb7	0.90105766
220	0x3f5cda40	0.86270523
221	0x3f7c0b7d	0.9845503
222	0x3f67fcf5	0.90620357
223	0x3f65e366	0.8980011
224	0x3f6bb4bb	0.9207265
225	0x3f62c17a	0.8857647
226	0x3f64ae52	0.8932849
227	0x3f643238	0.8913913
228	0x3f505b69	0.8138948
229	0x3f6b381e	0.91882503
230	0x3f6d15d4	0.9261143
231	0x3f657b13	0.8964092
232	0x3f664623	0.8995077
233	0x3f5fe586	0.874596
234	0x3f6b479f	0.9190616
235	0x3f672d2d	0.9030331
236	0x3f6b8d6d	0.92012674
237	0x3f754c75	0.9581979
238	0x3f76ec0b	0.96453923
239	0x3f6388c1	0.88880545
240	0x3f75ee08	0.9606633
241	0x3f7961ff	0.97415155
242	0x3f6dd154	0.92897534
243	0x3f72d2d3	0.9485294
244	0x3f64a1e7	0.89309543
245	0x3f62baff	0.88566583
246	0x3f65def9	0.89793354
247	0x3f6eb04e	0.9323777
248	0x3f73c513	0.95222586
249	0x3f706d24	0.93916535
250	0x3f65f08a	0.8982016
251	0x3f634bea	0.8878771
252	0x3f6de29f	0.9292392
253	0x3fab9d2b	1.3407339
254	0x3f69c510	0.9131632
255	0x3f68ee01	0.90988165
