data/agentsharedencoder/checkpoint_actor_0.pth (torch, 137611 bytes, 12 tensors)

fc2.weight f4 [128, 256]
0	0xbcdb8219	-0.026795434
1	0x3d6e2d48	0.058148652
2	0x3c8f8fdb	0.01752465
3	0x3d0247e3	0.031806838
4	0xbcac7b74	-0.02105496
5	0xbd06bcd5	-0.032894928
6	0xbc651406	-0.013981825
7	0x3c3b8bcd	0.011446905
8	0x3c816cfa	0.015799034
9	0x3cfdcc73	0.030981278
10	0xbd1025bc	-0.035192236
11	0xbc1f54c8	-0.009724803
12	0xbc018533	-0.007905292
13	0x3c69ca16	0.014269372
14	0xbc934434	-0.017976858
15	0xbbef5007	-0.007303241
16	0x3ce7f7f0	0.028316468
17	0x3cbc5940	0.022991776
18	0x3d89e1c0	0.067325115
19	0xbda6eff5	-0.08151237
20	0x3cc78544	0.024355538
21	0x3d835545	0.06412748
22	0xbd4fe87e	-0.05075883
23	0x3da0ae91	0.07845796
24	0xbcccb741	-0.024989726
25	0xbd5df8b4	-0.05419226
26	0xbd9c9b63	-0.07646825
27	0xbd5a3632	-0.05327434
28	0xbcfdf8b2	-0.031002376
29	0x3cc11929	0.023571568
30	0x3d9c1d67	0.076227956
31	0xbd087483	-0.03331424
32	0xbda4d6b2	-0.080487624
33	0xba626547	-0.00086363073
34	0x3d985870	0.07438743
35	0xbc12548b	-0.008931289
36	0x3c494712	0.012285011
37	0x3c4ceef2	0.012508141
38	0x3d85d29b	0.065343104
39	0x3cdbecbd	0.026846284
40	0x3d3a4442	0.045475252
41	0xbd9306ae	-0.071790084
42	0x3e14d559	0.1453451
43	0xbceab1c6	-0.028649222
44	0x3be7faae	0.007079444
45	0x3cff5bf4	0.031171776
46	0x3d154be1	0.036449317
47	0xbc0d7756	-0.008634409
48	0x3d8d690b	0.06904801
49	0xbcefdda0	-0.029280484
50	0xbce6d806	-0.02817918
51	0x3b4b6340	0.00310345
52	0x3c9f6835	0.01945887
53	0xbd4927fa	-0.04911039
54	0x3ddc1c28	0.10747558
55	0x3e156921	0.14590885
56	0xbc9ea2e2	-0.019364778
57	0x3c0f46d2	0.008744912
58	0x3c9e946c	0.019357882
59	0xbc26667e	-0.010156272
60	0xbdb6e861	-0.089310415
61	0xbdb61f54	-0.08892694
62	0xbda7be4a	-0.08190592
63	0xbcb4b918	-0.022060916
64	0xbc80841a	-0.015687991
65	0x3dcfb19a	0.10141297
66	0xbcac398e	-0.021023538
67	0x3cb05002	0.021522526
68	0x3cae8202	0.021302227
69	0x3ba89031	0.005144142
70	0xbd3a917e	-0.04554891
71	0x3cf39e8f	0.029738693
72	0x3d813fdf	0.063110106
73	0xbdab1d36	-0.08355181
74	0xbcd6860f	-0.026186971
75	0x3ca093a5	0.019601652
76	0xbd139c9d	-0.03603803
77	0xbd4113b9	-0.04713795
78	0xbe12e93e	-0.14346787
79	0xbc8f6118	-0.017502353
80	0x3db6fa6c	0.08934483
81	0xbd7b575d	-0.061362613
82	0xbb7b6fe1	-0.0038366246
83	0x3cada3ea	0.021196324
84	0x3d2b422b	0.04181115
85	0x3c1fed6a	0.009761194
86	0x3bee0a9d	0.007264449
87	0x3c9cc7d0	0.019138247
88	0xbd36c08c	-0.04461722
89	0x3c9a740e	0.018854167
90	0xbb807fbc	-0.003921477
91	0x3de540c9	0.111939974
92	0xbcc7145d	-0.024301702
93	0x3e0cd244	0.13752085
94	0xbd67f3c7	-0.05662897
95	0x3b2ded73	0.0026539236
96	0xbc2ba4a5	-0.010476266
97	0x3df05634	0.11735192
98	0x3d2f11a6	0.04274144
99	0xbc3b89c9	-0.011446425
100	0xbd5927c5	-0.053016443
101	0xbd45b052	-0.048263855
102	0xbd458d9a	-0.048230745
103	0x3d6bb573	0.05754609
104	0xbd94161c	-0.072307795
105	0x3d5db2ec	0.05412571
106	0xbddc51a7	-0.107577614
107	0x3c7afa6d	0.015318495
108	0xbba1157e	-0.004915892
109	0xbc62f93b	-0.0138533665
110	0xbc4ecdb1	-0.012622283
111	0xbc21fd2e	-0.009887023
112	0x384c4b16	4.870732e-05
113	0xbcba3699	-0.022731112
114	0xbd35aaac	-0.04435222
115	0xbd0feedf	-0.035139915
116	0x3d391ebc	0.045195326
117	0x3d8b517b	0.068026505
118	0xbcaa6cfe	-0.020803925
119	0x3c94f682	0.01818395
120	0x3d609693	0.0548311
121	0xbcc9f38b	-0.024652263
122	0xbc44f3f0	-0.01202105
123	0xbd14aba0	-0.036296487
124	0x3cd44484	0.025911577
125	0x3d24a237	0.040193763
126	0x3c3ddb8a	0.011587987
127	0xbcf84697	-0.030307097
128	0x3dc35297	0.09537237
129	0x3bbbe45f	0.005734011
130	0x3d411ab8	0.04714462
131	0x3ccde612	0.02513412
132	0xbd02bb9d	-0.031917203
133	0xba9f9b3c	-0.0012177001
134	0x3cbeda9f	0.023297606
135	0x3db19449	0.08670861
136	0xbdc43591	-0.095805295
137	0x3ddd9eeb	0.10821327
138	0x3d04e99f	0.03244936
139	0xbda21f55	-0.07916132
140	0xbd204888	-0.03913167
141	0x3dd1b128	0.10238868
142	0x3dbc905b	0.09207221
143	0xbdbea966	-0.09309654
144	0xbc8fd9eb	-0.017559966
145	0xbd886630	-0.06660116
146	0x3d27507d	0.040848244
147	0x3df1f8b1	0.11815012
148	0xbd569d86	-0.05239632
149	0xbd054601	-0.032537464
150	0x3d29c8fb	0.041451436
151	0x3dbac8b9	0.09120316
152	0x3d6caf68	0.057784468
153	0x3d9da7d3	0.076980256
154	0x3d0d5cfa	0.034512497
155	0x3d92d950	0.07170355
156	0xbd1af556	-0.037831627
157	0x3d2a5923	0.041588914
158	0xbd18fdbc	-0.037351355
159	0xbd350450	-0.044193566
160	0xb9928a0e	-0.0002795015
161	0xbd6cd034	-0.057815745
162	0x3e04b22b	0.1295859
163	0xbd5c7f16	-0.053832136
164	0x3cc1c1eb	0.023652038
165	0x3d80782e	0.062729225
166	0x3d0164e3	0.031590354
167	0x3b4129ff	0.0029474495
168	0xbd336374	-0.043796018
169	0xbc6f2308	-0.014595754
170	0x3db69c67	0.0891655
171	0x3d04badf	0.032404777
172	0x3da4fb51	0.08055747
173	0xbdbe7074	-0.092987925
174	0xbc2161b9	-0.009849959
175	0xbdb6a483	-0.08918097
176	0x3dd0023d	0.10156677
177	0xbd002b12	-0.031291075
178	0xbd3aea4d	-0.045633603
179	0xbc213a52	-0.009840565
180	0xbd9a675b	-0.07539245
181	0x3d98a17d	0.074526764
182	0x3d493ab3	0.049128246
183	0x3db888fd	0.090105034
184	0xbd0e376c	-0.034720823
185	0x3cbc7268	0.023003772
186	0x3d96529f	0.073399775
187	0x3d0f3607	0.034963634
188	0xbcbec3c8	-0.023286715
189	0xbd94dc01	-0.07268525
190	0xbd1c805b	-0.038208347
191	0xbd3fbb61	-0.046809558
192	0x3dd2cbbd	0.10292766
193	0x3dd1fcf8	0.10253328
194	0x3cec7737	0.02886544
195	0x3b68e487	0.0035536604
196	0x3cc03b2c	0.023465715
197	0xbde5ef2c	-0.11227259
198	0x3dcaddd9	0.09905595
199	0xbd56d4ba	-0.052448966
200	0xbcd95c58	-0.02653329
201	0x3d065285	0.03279354
202	0xbd167d14	-0.036740378
203	0x3db0b487	0.08628183
204	0x3d228690	0.03967911
205	0x3e039208	0.12848675
206	0x3d4f7771	0.050651018
207	0x3dcbf169	0.09958155
208	0x3cbb3417	0.022851987
209	0xbcb77e97	-0.02239923
210	0x3de56984	0.11201766
211	0x3d50bf5e	0.050963752
212	0xbd9134f1	-0.07090176
213	0xbda2024f	-0.079105966
214	0xbdadc9fc	-0.08485791
215	0x3de70e8a	0.1128207
216	0x3df9bdda	0.121944144
217	0x3bb98a57	0.0056622433
218	0xbdaaf08a	-0.083466604
219	0x3cd97580	0.026545286
220	0xbdb29191	-0.08719171
221	0xbd2b21fc	-0.041780457
222	0x3ca42d6c	0.02004119
223	0x3cca0911	0.024662526
224	0x3b89809c	0.0041962396
225	0x3aff41c4	0.0019474556
226	0xbd3cbdf6	-0.0460796
227	0xbcb8f932	-0.022579763
228	0xbdc5b952	-0.09654488
229	0x3bb1b616	0.0054233177
230	0x3da2aadd	0.07942746
231	0xbb1ce8b0	-0.0023942403
232	0x3ddc7302	0.107641235
233	0xbd8b4149	-0.067995615
234	0xbd47eed5	-0.048811752
235	0x3d940a64	0.07228544
236	0xbb7aa50f	-0.0038245355
237	0xbe1b8870	-0.15188766
238	0x3d17479d	0.03693353
239	0x3c14f647	0.00909192
240	0x3d57a455	0.052646954
241	0xbcf3d548	-0.029764786
242	0xbd9af37e	-0.07565974
243	0x3d49af26	0.0492393
244	0xbd919280	-0.07108021
245	0xbd8351ea	-0.06412108
246	0xbd5ea004	-0.05435182
247	0x3ba3a11d	0.0049935714
248	0xbca3d200	-0.019997597
249	0xbc8deed0	-0.017325789
250	0x3d13d34a	0.036090173
251	0x3c5052fe	0.012715099
252	0x3beaf8a1	0.007170752
253	0xbd563e29	-0.052305374
254	0xbd307e30	-0.04308909
255	0xbd3b918f	-0.045793112

fc2.bias f4 [128]
0	0xbda3dccf	-0.080011
1	0xbde23a21	-0.110462435
2	0xbd4bba12	-0.049737997
3	0xbdb75c58	-0.0895316
4	0xbdd6a624	-0.104809076
5	0xbe0bc45d	-0.13649125
6	0xbe2c997c	-0.16855425
7	0xbd60e1d3	-0.054902863
8	0xbdd49d20	-0.10381532
9	0xbe76387b	-0.24044983
10	0xbdb0c435	-0.086311735
11	0xbdb02811	-0.08601392
12	0xbe3d22d3	-0.18470316
13	0xbe0ef88f	-0.13962005
14	0xbca1af3d	-0.01973688
15	0xbdf5d734	-0.12003937
16	0xbe0e09a3	-0.13870864
17	0xbe213c5d	-0.15745683
18	0xbe4de812	-0.20108059
19	0xbdc407e0	-0.095718145
20	0xbd6d9b8d	-0.058009673
21	0xbd81c2f7	-0.06336015
22	0xbe19ebdd	-0.15031381
23	0xbe3eb149	-0.18622316
24	0xbd999f3c	-0.07501075
25	0xbe2fc8db	-0.17166464
26	0xbd9f35bc	-0.07773921
27	0xbe1b293d	-0.1515245
28	0xbde736b3	-0.1128973
29	0xbd8c2fde	-0.068450674
30	0xbdde9a2a	-0.10869248
31	0xbe217aab	-0.1576945
32	0xbe23d824	-0.1600042
33	0xbe01763b	-0.12642758
34	0xbd8e6f36	-0.069548056
35	0xbdde2793	-0.10847392
36	0xbd949ffa	-0.072570756
37	0xbe776b98	-0.24162138
38	0xbe22cdab	-0.15898769
39	0xbe281ef3	-0.16418056
40	0xbe3863f1	-0.18006875
41	0xbdd36d98	-0.10323638
42	0xbe2d1d23	-0.16905646
43	0xbe13edf4	-0.1444624
44	0xbde2dffc	-0.11077878
45	0x3d7ca4f4	0.06168075
46	0xbe32ac12	-0.17448452
47	0xbe53b3db	-0.20674078
48	0xbdef8f11	-0.116972096
49	0xbda2383c	-0.07920882
50	0xbd824e7b	-0.06362625
51	0xbd6dae4c	-0.05802755
52	0xbe58dcfc	-0.21178049
53	0xbe2216eb	-0.15829055
54	0xbddace26	-0.10683851
55	0xbe34474d	-0.17605324
56	0xbdf8e300	-0.12152672
57	0xbe58c606	-0.2116929
58	0xbdad0c3b	-0.084495984
59	0xbe01efeb	-0.12689178
60	0xbe0352ab	-0.12824504
61	0xbe6c7694	-0.23092109
62	0xbd46faa2	-0.048578866
63	0xbdfc78b1	-0.123277076
64	0xbde7e6ca	-0.113233164
65	0xbc2e45c4	-0.010636751
66	0xbe2520e5	-0.1612583
67	0xbe52f2ef	-0.20600484
68	0xbe1343c7	-0.14381324
69	0xbe5ae096	-0.21374735
70	0xbd8c8508	-0.06861311
71	0xbe17b0a5	-0.14813478
72	0xbdf05f90	-0.11736977
73	0xbc829014	-0.015937842
74	0xbdc65f49	-0.09686143
75	0xbd572bc3	-0.05253197
76	0xbd41ce2d	-0.047315765
77	0xbe1b465f	-0.15163563
78	0xbe12278b	-0.14272897
79	0xbdc89ba4	-0.09795311
80	0xbe4a8647	-0.19777785
81	0xbe1f89c5	-0.15579899
82	0xbe088a78	-0.13334072
83	0xbd3937b4	-0.04521914
84	0xbe5cda19	-0.21567573
85	0xbdfe4bf0	-0.12416828
86	0xbdfb4238	-0.122684896
87	0xbd93e87a	-0.07222076
88	0xbdd1dc82	-0.10247137
89	0xbd6c7ef7	-0.05773827
90	0xbe0ddc76	-0.1385363
91	0xbe11cd7a	-0.1423854
92	0xbe4f7fe7	-0.20263635
93	0xbd9cce67	-0.076565556
94	0xbe098f47	-0.13433562
95	0xbe1655d7	-0.14681183
96	0xbe31d042	-0.173646
97	0xbe0c9607	-0.13729106
98	0xbe5ce548	-0.21571839
99	0xbe289f2d	-0.1646697
100	0xbd1f98ef	-0.03896421
101	0xbdf45b1a	-0.11931439
102	0xbe1e0af3	-0.15433864
103	0xbd87302d	-0.06600986
104	0xbdebcc69	-0.115135975
105	0xbdd84ad0	-0.10561144
106	0xbddf4a38	-0.10902828
107	0xbdcb0e2f	-0.09914815
108	0xbdee9b5e	-0.11650728
109	0xbe1a199b	-0.1504883
110	0xbe4f2896	-0.20230326
111	0xbe20ca1b	-0.15702097
112	0xbd955610	-0.07291806
113	0xbe542f85	-0.20721252
114	0xbdc4b9a8	-0.096057236
115	0xbdf8b042	-0.121429935
116	0xbe23550e	-0.15950415
117	0xbdef893d	-0.11696098
118	0xbddcc774	-0.1078023
119	0xbe4d0dea	-0.20024839
120	0xbe1f3132	-0.1554611
121	0xbe01ef7e	-0.12689015
122	0xbe790527	-0.24318372
123	0xbdbf9113	-0.093538426
124	0xbddab2a9	-0.10678608
125	0xbe0bbd96	-0.1364654
126	0xbdd57eb7	-0.104245596
127	0x3db58280	0.088627815

fc3.weight f4 [2, 128]
0	0xbe466174	-0.19373113
1	0x3e1ea4b1	0.15492512
2	0x3e6b5d55	0.22984822
3	0xbe51316f	-0.20429014
4	0xbef1f460	-0.47256756
5	0x3ecfd33a	0.4059084
6	0xbe9159bb	-0.2838877
7	0xbcb86c1c	-0.022512488
8	0xbebc6802	-0.36798102
9	0xbebcd991	-0.3688474
10	0xbe5f80da	-0.21826497
11	0x3ee8a315	0.45436922
12	0xbec0056e	-0.37504143
13	0xbe8ae1da	-0.27125436
14	0xbdd92775	-0.10603229
15	0xbe1b1247	-0.15143691
16	0x3eae3076	0.34021348
17	0x3eab571a	0.3346489
18	0x3f1e881e	0.6192645
19	0xbe51e792	-0.20498493
20	0x3e80f274	0.25184977
21	0xbe44cd81	-0.19219019
22	0xbec14d8c	-0.37754476
23	0x3bf0ddc8	0.007350657
24	0xbec0b87a	-0.37640744
25	0x3e277505	0.16353233
26	0xbe59a122	-0.21252874
27	0x3f0d6591	0.55233103
28	0x3e824a75	0.2544743
29	0xbe7e9938	-0.24863136
30	0x3b9dc60f	0.00481487
31	0xbe4c201c	-0.19934124
32	0xbe9edbe9	-0.31027153
33	0xbe72349e	-0.23652884
34	0xbe588a8c	-0.21146601
35	0x3ebaf496	0.3651473
36	0x3e7b5f40	0.24548054
37	0xbe6fd1b8	-0.23419845
38	0xbe83d177	-0.25745746
39	0x3e52fd71	0.20604493
40	0x3ee735af	0.45158145
41	0xbe963295	-0.29335466
42	0xbe8cd574	-0.27506602
43	0xbe91fd56	-0.28513592
44	0x3e87ae6a	0.26500255
45	0xbeb34c5b	-0.35019192
46	0x3e734468	0.23756564
47	0xbd801721	-0.062544115
48	0xbe537165	-0.20648725
49	0x3ee807df	0.45318505
50	0xbdb6d504	-0.08927348
51	0xbdd6a8bf	-0.104814045
52	0x3e8eb756	0.2787425
53	0x3eea4288	0.45753884
54	0xbe957938	-0.29194045
55	0xbea7c932	-0.32770687
56	0xbe6f57b7	-0.23373304
57	0xbe929cd4	-0.28635275
58	0x3e757ecd	0.23974152
59	0xbe3aaafe	-0.18229291
60	0xbea2325a	-0.3167904
61	0xbe6bd4ff	-0.2303047
62	0xbea13586	-0.31486148
63	0x3e687ef7	0.22704683
64	0x3eaca5ae	0.33720154
65	0xbe8c0ff1	-0.27355912
66	0xbec03de6	-0.37547225
67	0x3dcd31fd	0.100193
68	0x3e669cda	0.22520772
69	0xbeafa4dc	-0.34305465
70	0xbe4f7041	-0.20257665
71	0x3e835766	0.25652617
72	0x3d142195	0.03616484
73	0xbeb0e939	-0.34552935
74	0xbe9746c2	-0.2954617
75	0x3ec1a6ae	0.3782248
76	0x3b19d313	0.0023471757
77	0xbe4629e8	-0.19351923
78	0x3e3e131e	0.1856198
79	0x3eb19fb4	0.34692156
80	0xbe8cb514	-0.27481902
81	0x3e924e70	0.28575468
82	0x3eb2b47d	0.34903327
83	0xbeda0050	-0.42578363
84	0xbeb9913b	-0.36243615
85	0x3e27fc97	0.16404949
86	0x3f16e9f0	0.5895071
87	0x3ec66fd0	0.3875718
88	0x3eb648c5	0.35602394
89	0x3e321399	0.17390288
90	0xbeaccedf	-0.3375158
91	0x3ed0b0f5	0.40760008
92	0x3edf1625	0.43571582
93	0x3eaa8c0f	0.3330998
94	0xbe873129	-0.26404694
95	0x3ec9f015	0.3944098
96	0x3da0fdc6	0.078609034
97	0x3e92887a	0.28619748
98	0x3ed3a3d5	0.4133593
99	0x3e954942	0.29157454
100	0xbe42b851	-0.19015624
101	0x3e272853	0.16323976
102	0x3e68050e	0.22658178
103	0xbebc20ef	-0.36743876
104	0xbe8ae472	-0.27127415
105	0xbe9b7021	-0.30358985
106	0xbead7924	-0.33881485
107	0x3eae689e	0.34064192
108	0xbe6ec51c	-0.23317379
109	0x3e154621	0.14577533
110	0x3e3c3f5c	0.18383545
111	0xbddaf317	-0.10690897
112	0x3e78b8bd	0.24289222
113	0x3ebceb45	0.36898246
114	0x3e116ed4	0.14202434
115	0xbebc0b3d	-0.36727324
116	0x3e684f69	0.22686543
117	0x3e8cd605	0.27507034
118	0x3c61d803	0.013784411
119	0x3e096e48	0.13420975
120	0x3deeae74	0.11654368
121	0xbe9c242a	-0.3049634
122	0xbe89da87	-0.26924536
123	0xbecb3178	-0.3968618
124	0x3ee5c52d	0.44876996
125	0xbe984403	-0.2973939
126	0x3e43b214	0.191109
127	0xbe972d2d	-0.29526654
128	0x3b0ba026	0.0021305173
129	0x3ecb1d22	0.39670664
130	0x3e1e78d7	0.15475784
131	0xbeae7b8c	-0.34078634
132	0x3c7c822b	0.015411894
133	0x3e3f5369	0.18684162
134	0xbe9ae889	-0.30255535
135	0xbeb168df	-0.34650323
136	0xbd1541b8	-0.036439627
137	0xbe3cc757	-0.18435417
138	0x3d9a1ea2	0.07525374
139	0xbd4f6738	-0.050635546
140	0xbe91aa6e	-0.2845034
141	0x3d43c15f	0.047791835
142	0xbe770a22	-0.24124959
143	0xbe87e05f	-0.2653837
144	0xbdc51871	-0.096238025
145	0x3c0e165d	0.008672324
146	0x3d8f3784	0.06993011
147	0x3e2cc857	0.16873299
148	0x3d0caad5	0.034342606
149	0xbeeba7f3	-0.46026573
150	0x3d034c4e	0.03205519
151	0x3eb17ec0	0.34667015
152	0xbde07b4e	-0.109610185
153	0xbe847c1d	-0.2587594
154	0xbe4416c4	-0.1914931
155	0x3dc978cb	0.098374926
156	0x3e9f346b	0.3109468
157	0x3e4f5294	0.20246345
158	0x3edbf758	0.42962146
159	0x3e85c74d	0.26128617
160	0x3e35632a	0.1771361
161	0x3ea58190	0.3232541
162	0x3cc4b580	0.024012327
163	0x3dde0bbe	0.108420834
164	0xbd5c3e04	-0.05377008
165	0x3e46ea9c	0.19425434
166	0x3d581137	0.052750792
167	0xbe51ffad	-0.20507689
168	0xbe0c5527	-0.13704358
169	0xbe4f2d9c	-0.20232242
170	0x3db01a60	0.08598781
171	0xbe0f8887	-0.14016925
172	0x3e7cdb86	0.24693117
173	0xbd2afdc6	-0.041745923
174	0x3e0d08b2	0.13772848
175	0xbeefb409	-0.46817043
176	0xbd0e8cf4	-0.034802392
177	0x3e25db00	0.16196823
178	0x3e9bd6e7	0.30437395
179	0xbde96bcd	-0.113975145
180	0x3db3e523	0.08783939
181	0x3dbafab2	0.091298476
182	0x3e04ff89	0.12988104
183	0x3e1aac32	0.1510475
184	0xbe914eb8	-0.2838037
185	0x3d001467	0.031269457
186	0x3c23fcf4	0.010009039
187	0xbec469a3	-0.38361844
188	0x3e8a39d9	0.2699726
189	0x3d208ccc	0.039196774
190	0xbc6a79a5	-0.014311229
191	0x3e1facf3	0.15593319
192	0x3dafe1e3	0.08588006
193	0xbd4ad0d3	-0.049515557
194	0xbd2112f9	-0.039324734
195	0xbe860246	-0.2617361
196	0xbe42d62f	-0.19027017
197	0x3cd75ae0	0.02628845
198	0xbd4a41e3	-0.04937924
199	0xbe51324f	-0.20429347
200	0xbed2d151	-0.4117532
201	0xbd97b8dc	-0.07408306
202	0x39f671fa	0.00047005696
203	0xbe78cf19	-0.24297751
204	0xbec2780f	-0.37982222
205	0x3eaee196	0.34156483
206	0x3eb0e14f	0.34546897
207	0x3da1849e	0.07886623
208	0xbe86e2db	-0.26344952
209	0x3cb4d522	0.022074286
210	0xbe560c73	-0.20903187
211	0xbcc4cd35	-0.024023632
212	0x3d9ed14c	0.07754764
213	0x3ec45e65	0.38353267
214	0x3c5a5b60	0.01332745
215	0xbd9a5e56	-0.075375244
216	0xbcc44308	-0.023957744
217	0xbe3bd452	-0.18342713
218	0xbccc2fe3	-0.024925178
219	0x3d489cbf	0.04897761
220	0xbbe7b234	-0.007070804
221	0x3e0cc1b3	0.13745765
222	0xbe2848ca	-0.16434017
223	0x3c4eaa78	0.012613885
224	0x3ebb17ff	0.36541745
225	0x3e00c6e1	0.12575866
226	0x3dd57891	0.10423387
227	0xbe057504	-0.13032919
228	0x3e213a70	0.15744948
229	0xbe6691e1	-0.22516586
230	0x3eabe49e	0.3357286
231	0x3d8a66b7	0.067578726
232	0xbe2c1511	-0.16804911
233	0xbe574d04	-0.21025473
234	0x3ac96925	0.0015366419
235	0xbc9d5546	-0.0192057
236	0xbded2aef	-0.115804546
237	0xbe405b46	-0.18784818
238	0x3e375b24	0.17905861
239	0xbeb6ed04	-0.35727704
240	0xbe2d9d4c	-0.16954535
241	0xbdb4b8b3	-0.08824291
242	0xbeb8d056	-0.36096448
243	0x3daf8956	0.085711166
244	0x3e3960f4	0.18103391
245	0x3e93f421	0.28897193
246	0x3f0ea984	0.5572741
247	0xbd9dea2d	-0.07710681
248	0x3eae5ac2	0.34053618
249	0x3e209b91	0.15684344
250	0xbeb30f4d	-0.3497261
251	0x3db33df0	0.08752048
252	0x3d40fc87	0.04711583
253	0xbde559c6	-0.111987635
254	0xbeb0fa3e	-0.3456592
255	0xbd327368	-0.04356709

fc3.bias f4 [2]
0	0x3d8f18df	0.06987166
1	0x3d47ab9a	0.048747636

sequential.0.weight f4 [128, 256]
0	0xbcdb8219	-0.026795434
1	0x3d6e2d48	0.058148652
2	0x3c8f8fdb	0.01752465
3	0x3d0247e3	0.031806838
4	0xbcac7b74	-0.02105496
5	0xbd06bcd5	-0.032894928
6	0xbc651406	-0.013981825
7	0x3c3b8bcd	0.011446905
8	0x3c816cfa	0.015799034
9	0x3cfdcc73	0.030981278
10	0xbd1025bc	-0.035192236
11	0xbc1f54c8	-0.009724803
12	0xbc018533	-0.007905292
13	0x3c69ca16	0.014269372
14	0xbc934434	-0.017976858
15	0xbbef5007	-0.007303241
16	0x3ce7f7f0	0.028316468
17	0x3cbc5940	0.022991776
18	0x3d89e1c0	0.067325115
19	0xbda6eff5	-0.08151237
20	0x3cc78544	0.024355538
21	0x3d835545	0.06412748
22	0xbd4fe87e	-0.05075883
23	0x3da0ae91	0.07845796
24	0xbcccb741	-0.024989726
25	0xbd5df8b4	-0.05419226
26	0xbd9c9b63	-0.07646825
27	0xbd5a3632	-0.05327434
28	0xbcfdf8b2	-0.031002376
29	0x3cc11929	0.023571568
30	0x3d9c1d67	0.076227956
31	0xbd087483	-0.03331424
32	0xbda4d6b2	-0.080487624
33	0xba626547	-0.00086363073
34	0x3d985870	0.07438743
35	0xbc12548b	-0.008931289
36	0x3c494712	0.012285011
37	0x3c4ceef2	0.012508141
38	0x3d85d29b	0.065343104
39	0x3cdbecbd	0.026846284
40	0x3d3a4442	0.045475252
41	0xbd9306ae	-0.071790084
42	0x3e14d559	0.1453451
43	0xbceab1c6	-0.028649222
44	0x3be7faae	0.007079444
45	0x3cff5bf4	0.031171776
46	0x3d154be1	0.036449317
47	0xbc0d7756	-0.008634409
48	0x3d8d690b	0.06904801
49	0xbcefdda0	-0.029280484
50	0xbce6d806	-0.02817918
51	0x3b4b6340	0.00310345
52	0x3c9f6835	0.01945887
53	0xbd4927fa	-0.04911039
54	0x3ddc1c28	0.10747558
55	0x3e156921	0.14590885
56	0xbc9ea2e2	-0.019364778
57	0x3c0f46d2	0.008744912
58	0x3c9e946c	0.019357882
59	0xbc26667e	-0.010156272
60	0xbdb6e861	-0.089310415
61	0xbdb61f54	-0.08892694
62	0xbda7be4a	-0.08190592
63	0xbcb4b918	-0.022060916
64	0xbc80841a	-0.015687991
65	0x3dcfb19a	0.10141297
66	0xbcac398e	-0.021023538
67	0x3cb05002	0.021522526
68	0x3cae8202	0.021302227
69	0x3ba89031	0.005144142
70	0xbd3a917e	-0.04554891
71	0x3cf39e8f	0.029738693
72	0x3d813fdf	0.063110106
73	0xbdab1d36	-0.08355181
74	0xbcd6860f	-0.026186971
75	0x3ca093a5	0.019601652
76	0xbd139c9d	-0.03603803
77	0xbd4113b9	-0.04713795
78	0xbe12e93e	-0.14346787
79	0xbc8f6118	-0.017502353
80	0x3db6fa6c	0.08934483
81	0xbd7b575d	-0.061362613
82	0xbb7b6fe1	-0.0038366246
83	0x3cada3ea	0.021196324
84	0x3d2b422b	0.04181115
85	0x3c1fed6a	0.009761194
86	0x3bee0a9d	0.007264449
87	0x3c9cc7d0	0.019138247
88	0xbd36c08c	-0.04461722
89	0x3c9a740e	0.018854167
90	0xbb807fbc	-0.003921477
91	0x3de540c9	0.111939974
92	0xbcc7145d	-0.024301702
93	0x3e0cd244	0.13752085
94	0xbd67f3c7	-0.05662897
95	0x3b2ded73	0.0026539236
96	0xbc2ba4a5	-0.010476266
97	0x3df05634	0.11735192
98	0x3d2f11a6	0.04274144
99	0xbc3b89c9	-0.011446425
100	0xbd5927c5	-0.053016443
101	0xbd45b052	-0.048263855
102	0xbd458d9a	-0.048230745
103	0x3d6bb573	0.05754609
104	0xbd94161c	-0.072307795
105	0x3d5db2ec	0.05412571
106	0xbddc51a7	-0.107577614
107	0x3c7afa6d	0.015318495
108	0xbba1157e	-0.004915892
109	0xbc62f93b	-0.0138533665
110	0xbc4ecdb1	-0.012622283
111	0xbc21fd2e	-0.009887023
112	0x384c4b16	4.870732e-05
113	0xbcba3699	-0.022731112
114	0xbd35aaac	-0.04435222
115	0xbd0feedf	-0.035139915
116	0x3d391ebc	0.045195326
117	0x3d8b517b	0.068026505
118	0xbcaa6cfe	-0.020803925
119	0x3c94f682	0.01818395
120	0x3d609693	0.0548311
121	0xbcc9f38b	-0.024652263
122	0xbc44f3f0	-0.01202105
123	0xbd14aba0	-0.036296487
124	0x3cd44484	0.025911577
125	0x3d24a237	0.040193763
126	0x3c3ddb8a	0.011587987
127	0xbcf84697	-0.030307097
128	0x3dc35297	0.09537237
129	0x3bbbe45f	0.005734011
130	0x3d411ab8	0.04714462
131	0x3ccde612	0.02513412
132	0xbd02bb9d	-0.031917203
133	0xba9f9b3c	-0.0012177001
134	0x3cbeda9f	0.023297606
135	0x3db19449	0.08670861
136	0xbdc43591	-0.095805295
137	0x3ddd9eeb	0.10821327
138	0x3d04e99f	0.03244936
139	0xbda21f55	-0.07916132
140	0xbd204888	-0.03913167
141	0x3dd1b128	0.10238868
142	0x3dbc905b	0.09207221
143	0xbdbea966	-0.09309654
144	0xbc8fd9eb	-0.017559966
145	0xbd886630	-0.06660116
146	0x3d27507d	0.040848244
147	0x3df1f8b1	0.11815012
148	0xbd569d86	-0.05239632
149	0xbd054601	-0.032537464
150	0x3d29c8fb	0.041451436
151	0x3dbac8b9	0.09120316
152	0x3d6caf68	0.057784468
153	0x3d9da7d3	0.076980256
154	0x3d0d5cfa	0.034512497
155	0x3d92d950	0.07170355
156	0xbd1af556	-0.037831627
157	0x3d2a5923	0.041588914
158	0xbd18fdbc	-0.037351355
159	0xbd350450	-0.044193566
160	0xb9928a0e	-0.0002795015
161	0xbd6cd034	-0.057815745
162	0x3e04b22b	0.1295859
163	0xbd5c7f16	-0.053832136
164	0x3cc1c1eb	0.023652038
165	0x3d80782e	0.062729225
166	0x3d0164e3	0.031590354
167	0x3b4129ff	0.0029474495
168	0xbd336374	-0.043796018
169	0xbc6f2308	-0.014595754
170	0x3db69c67	0.0891655
171	0x3d04badf	0.032404777
172	0x3da4fb51	0.08055747
173	0xbdbe7074	-0.092987925
174	0xbc2161b9	-0.009849959
175	0xbdb6a483	-0.08918097
176	0x3dd0023d	0.10156677
177	0xbd002b12	-0.031291075
178	0xbd3aea4d	-0.045633603
179	0xbc213a52	-0.009840565
180	0xbd9a675b	-0.07539245
181	0x3d98a17d	0.074526764
182	0x3d493ab3	0.049128246
183	0x3db888fd	0.090105034
184	0xbd0e376c	-0.034720823
185	0x3cbc7268	0.023003772
186	0x3d96529f	0.073399775
187	0x3d0f3607	0.034963634
188	0xbcbec3c8	-0.023286715
189	0xbd94dc01	-0.07268525
190	0xbd1c805b	-0.038208347
191	0xbd3fbb61	-0.046809558
192	0x3dd2cbbd	0.10292766
193	0x3dd1fcf8	0.10253328
194	0x3cec7737	0.02886544
195	0x3b68e487	0.0035536604
196	0x3cc03b2c	0.023465715
197	0xbde5ef2c	-0.11227259
198	0x3dcaddd9	0.09905595
199	0xbd56d4ba	-0.052448966
200	0xbcd95c58	-0.02653329
201	0x3d065285	0.03279354
202	0xbd167d14	-0.036740378
203	0x3db0b487	0.08628183
204	0x3d228690	0.03967911
205	0x3e039208	0.12848675
206	0x3d4f7771	0.050651018
207	0x3dcbf169	0.09958155
208	0x3cbb3417	0.022851987
209	0xbcb77e97	-0.02239923
210	0x3de56984	0.11201766
211	0x3d50bf5e	0.050963752
212	0xbd9134f1	-0.07090176
213	0xbda2024f	-0.079105966
214	0xbdadc9fc	-0.08485791
215	0x3de70e8a	0.1128207
216	0x3df9bdda	0.121944144
217	0x3bb98a57	0.0056622433
218	0xbdaaf08a	-0.083466604
219	0x3cd97580	0.026545286
220	0xbdb29191	-0.08719171
221	0xbd2b21fc	-0.041780457
222	0x3ca42d6c	0.02004119
223	0x3cca0911	0.024662526
224	0x3b89809c	0.0041962396
225	0x3aff41c4	0.0019474556
226	0xbd3cbdf6	-0.0460796
227	0xbcb8f932	-0.022579763
228	0xbdc5b952	-0.09654488
229	0x3bb1b616	0.0054233177
230	0x3da2aadd	0.07942746
231	0xbb1ce8b0	-0.0023942403
232	0x3ddc7302	0.107641235
233	0xbd8b4149	-0.067995615
234	0xbd47eed5	-0.048811752
235	0x3d940a64	0.07228544
236	0xbb7aa50f	-0.0038245355
237	0xbe1b8870	-0.15188766
238	0x3d17479d	0.03693353
239	0x3c14f647	0.00909192
240	0x3d57a455	0.052646954
241	0xbcf3d548	-0.029764786
242	0xbd9af37e	-0.07565974
243	0x3d49af26	0.0492393
244	0xbd919280	-0.07108021
245	0xbd8351ea	-0.06412108
246	0xbd5ea004	-0.05435182
247	0x3ba3a11d	0.0049935714
248	0xbca3d200	-0.019997597
249	0xbc8deed0	-0.017325789
250	0x3d13d34a	0.036090173
251	0x3c5052fe	0.012715099
252	0x3beaf8a1	0.007170752
253	0xbd563e29	-0.052305374
254	0xbd307e30	-0.04308909
255	0xbd3b918f	-0.045793112

sequential.0.bias f4 [128]
0	0xbda3dccf	-0.080011
1	0xbde23a21	-0.110462435
2	0xbd4bba12	-0.049737997
3	0xbdb75c58	-0.0895316
4	0xbdd6a624	-0.104809076
5	0xbe0bc45d	-0.13649125
6	0xbe2c997c	-0.16855425
7	0xbd60e1d3	-0.054902863
8	0xbdd49d20	-0.10381532
9	0xbe76387b	-0.24044983
10	0xbdb0c435	-0.086311735
11	0xbdb02811	-0.08601392
12	0xbe3d22d3	-0.18470316
13	0xbe0ef88f	-0.13962005
14	0xbca1af3d	-0.01973688
15	0xbdf5d734	-0.12003937
16	0xbe0e09a3	-0.13870864
17	0xbe213c5d	-0.15745683
18	0xbe4de812	-0.20108059
19	0xbdc407e0	-0.095718145
20	0xbd6d9b8d	-0.058009673
21	0xbd81c2f7	-0.06336015
22	0xbe19ebdd	-0.15031381
23	0xbe3eb149	-0.18622316
24	0xbd999f3c	-0.07501075
25	0xbe2fc8db	-0.17166464
26	0xbd9f35bc	-0.07773921
27	0xbe1b293d	-0.1515245
28	0xbde736b3	-0.1128973
29	0xbd8c2fde	-0.068450674
30	0xbdde9a2a	-0.10869248
31	0xbe217aab	-0.1576945
32	0xbe23d824	-0.1600042
33	0xbe01763b	-0.12642758
34	0xbd8e6f36	-0.069548056
35	0xbdde2793	-0.10847392
36	0xbd949ffa	-0.072570756
37	0xbe776b98	-0.24162138
38	0xbe22cdab	-0.15898769
39	0xbe281ef3	-0.16418056
40	0xbe3863f1	-0.18006875
41	0xbdd36d98	-0.10323638
42	0xbe2d1d23	-0.16905646
43	0xbe13edf4	-0.1444624
44	0xbde2dffc	-0.11077878
45	0x3d7ca4f4	0.06168075
46	0xbe32ac12	-0.17448452
47	0xbe53b3db	-0.20674078
48	0xbdef8f11	-0.116972096
49	0xbda2383c	-0.07920882
50	0xbd824e7b	-0.06362625
51	0xbd6dae4c	-0.05802755
52	0xbe58dcfc	-0.21178049
53	0xbe2216eb	-0.15829055
54	0xbddace26	-0.10683851
55	0xbe34474d	-0.17605324
56	0xbdf8e300	-0.12152672
57	0xbe58c606	-0.2116929
58	0xbdad0c3b	-0.084495984
59	0xbe01efeb	-0.12689178
60	0xbe0352ab	-0.12824504
61	0xbe6c7694	-0.23092109
62	0xbd46faa2	-0.048578866
63	0xbdfc78b1	-0.123277076
64	0xbde7e6ca	-0.113233164
65	0xbc2e45c4	-0.010636751
66	0xbe2520e5	-0.1612583
67	0xbe52f2ef	-0.20600484
68	0xbe1343c7	-0.14381324
69	0xbe5ae096	-0.21374735
70	0xbd8c8508	-0.06861311
71	0xbe17b0a5	-0.14813478
72	0xbdf05f90	-0.11736977
73	0xbc829014	-0.015937842
74	0xbdc65f49	-0.09686143
75	0xbd572bc3	-0.05253197
76	0xbd41ce2d	-0.047315765
77	0xbe1b465f	-0.15163563
78	0xbe12278b	-0.14272897
79	0xbdc89ba4	-0.09795311
80	0xbe4a8647	-0.19777785
81	0xbe1f89c5	-0.15579899
82	0xbe088a78	-0.13334072
83	0xbd3937b4	-0.04521914
84	0xbe5cda19	-0.21567573
85	0xbdfe4bf0	-0.12416828
86	0xbdfb4238	-0.122684896
87	0xbd93e87a	-0.07222076
88	0xbdd1dc82	-0.10247137
89	0xbd6c7ef7	-0.05773827
90	0xbe0ddc76	-0.1385363
91	0xbe11cd7a	-0.1423854
92	0xbe4f7fe7	-0.20263635
93	0xbd9cce67	-0.076565556
94	0xbe098f47	-0.13433562
95	0xbe1655d7	-0.14681183
96	0xbe31d042	-0.173646
97	0xbe0c9607	-0.13729106
98	0xbe5ce548	-0.21571839
99	0xbe289f2d	-0.1646697
100	0xbd1f98ef	-0.03896421
101	0xbdf45b1a	-0.11931439
102	0xbe1e0af3	-0.15433864
103	0xbd87302d	-0.06600986
104	0xbdebcc69	-0.115135975
105	0xbdd84ad0	-0.10561144
106	0xbddf4a38	-0.10902828
107	0xbdcb0e2f	-0.09914815
108	0xbdee9b5e	-0.11650728
109	0xbe1a199b	-0.1504883
110	0xbe4f2896	-0.20230326
111	0xbe20ca1b	-0.15702097
112	0xbd955610	-0.07291806
113	0xbe542f85	-0.20721252
114	0xbdc4b9a8	-0.096057236
115	0xbdf8b042	-0.121429935
116	0xbe23550e	-0.15950415
117	0xbdef893d	-0.11696098
118	0xbddcc774	-0.1078023
119	0xbe4d0dea	-0.20024839
120	0xbe1f3132	-0.1554611
121	0xbe01ef7e	-0.12689015
122	0xbe790527	-0.24318372
123	0xbdbf9113	-0.093538426
124	0xbddab2a9	-0.10678608
125	0xbe0bbd96	-0.1364654
126	0xbdd57eb7	-0.104245596
127	0x3db58280	0.088627815

sequential.2.weight f4 [128]
0	0x3fa4b9d3	1.2869209
1	0x3fbf9641	1.4967729
2	0x3fae531f	1.3619117
3	0x3fc0b617	1.505557
4	0x3fc455db	1.5338701
5	0x3fc26565	1.5187193
6	0x3fc3260b	1.5245985
7	0x3fb959c1	1.4480516
8	0x3fb4d00e	1.4125993
9	0x3fbdd3de	1.4830282
10	0x3fa29dcf	1.2704409
11	0x3fca1956	1.5788982
12	0x3fdde8b2	1.7336638
13	0x3faa01f5	1.3281847
14	0x3fa39398	1.2779417
15	0x3fae121c	1.3599277
16	0x3fbf9bd5	1.4969431
17	0x3fba17d5	1.4538523
18	0x3fdabdb6	1.7089145
19	0x3fac0681	1.3439485
20	0x3fa68dfb	1.3012079
21	0x3fc3c9a6	1.5295913
22	0x3fb81643	1.4381794
23	0x3fb1aef3	1.3881515
24	0x3fb930a7	1.4467973
25	0x3fb4c60b	1.4122938
26	0x3fac2369	1.3448306
27	0x3fd0ae2f	1.6303157
28	0x3fb3f7bf	1.4059981
29	0x3fafd863	1.3737911
30	0x3fbf2f7d	1.4936367
31	0x3fb354cc	1.4010253
32	0x3fb9697a	1.4485314
33	0x3fbd0035	1.4765688
34	0x3fa823c3	1.3135914
35	0x3fbca2b6	1.4737155
36	0x3fab9ba3	1.3406872
37	0x3fb00fbf	1.3754805
38	0x3fa8bfe1	1.3183557
39	0x3fae730a	1.3628857
40	0x3fcb61b5	1.5889193
41	0x3fb89e7e	1.4423368
42	0x3fad9fe6	1.3564422
43	0x3fb04b9e	1.3773077
44	0x3fb62ba7	1.4232072
45	0x3fb73a93	1.431475
46	0x3fb19636	1.3873966
47	0x3fc8a66a	1.5675786
48	0x3f9f5697	1.24483
49	0x3fca38ab	1.5798544
50	0x3fada70f	1.3566607
51	0x3f96de61	1.1786615
52	0x3fb04ac1	1.3772813
53	0x3fc9abff	1.5755614
54	0x3fb2fbe2	1.3983119
55	0x3fb90a34	1.4456239
56	0x3fb919c6	1.446099
57	0x3fab80ad	1.3398644
58	0x3fabd885	1.3425452
59	0x3fbefc33	1.4920715
60	0x3fbcc06a	1.474622
61	0x3fa3ea77	1.2805928
62	0x3fb009a9	1.3752948
63	0x3fae13f8	1.3599844
64	0x3fb8fae1	1.4451562
65	0x3faa91ca	1.3325741
66	0x3fbac61e	1.459171
67	0x3faa359b	1.3297609
68	0x3fb39200	1.4028931
69	0x3fb5ea35	1.4212099
70	0x3fa1c489	1.2638103
71	0x3fb7d654	1.4362283
72	0x3fc1d7a9	1.5143939
73	0x3fb2f889	1.3982097
74	0x3faf0362	1.3672907
75	0x3fcce62f	1.6007746
76	0x3fb9d209	1.4517223
77	0x3fb43372	1.40782
78	0x3fbb9f14	1.4657922
79	0x3fb2db95	1.3973261
80	0x3fb8b06c	1.442884
81	0x3fad5dac	1.3544211
82	0x3fbf04dc	1.4923358
83	0x3fbf07e6	1.4924285
84	0x3fb9e6df	1.4523581
85	0x3fbda0a3	1.4814647
86	0x3fd9261f	1.6964759
87	0x3fc1a916	1.5129726
88	0x3fbfafbd	1.4975506
89	0x3fb305e7	1.3986176
90	0x3fb4c307	1.4122018
91	0x3fc0be29	1.5058032
92	0x3fc0bf7a	1.5058434
93	0x3fc0d92e	1.5066278
94	0x3fb26022	1.3935587
95	0x3fbd22e4	1.4776273
96	0x3fb90124	1.4453473
97	0x3fb0c3e8	1.3809786
98	0x3fc056b6	1.5026462
99	0x3fb33cf7	1.400298
100	0x3fa308a0	1.2737007
101	0x3faf9350	1.3716831
102	0x3fbc4506	1.4708564
103	0x3fb553d7	1.4166211
104	0x3fb5195d	1.4148365
105	0x3fb75e9c	1.4325747
106	0x3fb40c74	1.40663
107	0x3fb817d2	1.4382269
108	0x3fb592c1	1.4185411
109	0x3fade558	1.3585615
110	0x3fb4112b	1.4067739
111	0x3fb31901	1.3992006
112	0x3fb118cd	1.3835694
113	0x3fbe1c7b	1.4852442
114	0x3fbf2e1b	1.4935945
115	0x3fb7f101	1.4370424
116	0x3fb04ca6	1.3773391
117	0x3fc5e202	1.5459597
118	0x3fcf098d	1.617479
119	0x3fa51e7c	1.2899928
120	0x3fb4d353	1.4126991
121	0x3fb203e6	1.390744
122	0x3fc3a645	1.5285116
123	0x3fbef0e4	1.4917264
124	0x3fc65f16	1.5497768
125	0x3fb1e726	1.3898666
126	0x3fbd16ab	1.4772543
127	0x3fb0a41d	1.3800083

sequential.2.bias f4 [128]
0	0xbb80c654	-0.0039298926
1	0x3d9679af	0.07347428
2	0xbbeb27c6	-0.007176372
3	0xbd934ae0	-0.07192016
4	0xbd0e0d88	-0.034680873
5	0xbd87786d	-0.06614766
6	0xbcb47e5b	-0.022032907
7	0xbddec2c2	-0.10876991
8	0x3cf086ba	0.029361118
9	0xbcc167a9	-0.023609
10	0x3bc39651	0.005968847
11	0xbc4259de	-0.011862246
12	0xbd900827	-0.07032805
13	0x3c7b93cc	0.015355062
14	0x3c52ad61	0.01285872
15	0xbd104e03	-0.035230648
16	0xbd4aee8c	-0.049543902
17	0xbd4eecbd	-0.05051874
18	0xbda4fa04	-0.08055499
19	0x3c9b81e4	0.018982835
20	0x3c9b0685	0.018924007
21	0x3befbcef	0.007316224
22	0x3c009730	0.007848546
23	0x3cb49d6e	0.022047725
24	0x3d1d99f2	0.03847689
25	0xbda3b587	-0.07993608
26	0x3d36dd0b	0.044644397
27	0xbdcc872f	-0.09986722
28	0xbbdc4d7b	-0.0067231036
29	0x3c865164	0.016396232
30	0x3d47aec8	0.04875067
31	0x3c6d9016	0.014499685
32	0x3c520c14	0.012820262
33	0x3d1a7196	0.03770598
34	0xbc1f499d	-0.009722141
35	0xbba71a61	-0.00509958
36	0xbcfd4a29	-0.030919151
37	0x3d01758b	0.03160624
38	0x3d9eeab1	0.077596076
39	0xbd1f9a38	-0.038965434
40	0xbd11dfba	-0.035613753
41	0x3b0140a6	0.0019722371
42	0x3b79c103	0.0038109429
43	0x3c47dfdc	0.012199368
44	0x3be45879	0.0069685546
45	0xbc4775c9	-0.012174078
46	0xbc29bcf1	-0.010359989
47	0xbcafa37b	-0.021440258
48	0x3caddc68	0.021223262
49	0x3c0eef65	0.008724068
50	0x3d37d5c1	0.044881586
51	0xbd1875d6	-0.037221752
52	0xbd5748e1	-0.052559737
53	0xbd84cdee	-0.064845905
54	0xbbdb8920	-0.006699696
55	0xbc685746	-0.014180964
56	0xbd38729c	-0.045031175
57	0x3d8ab456	0.067726776
58	0xbc97f613	-0.018549955
59	0xbd45f9d3	-0.048333954
60	0xbc14c1f2	-0.009079443
61	0xbcf0aabc	-0.029378287
62	0xbd91297f	-0.07087993
63	0xbd74159a	-0.059590913
64	0xbd8145a5	-0.06312112
65	0x3d0a384f	0.033745106
66	0xbae90dda	-0.0017780617
67	0xbdc79289	-0.09744746
68	0xbd1bc26b	-0.03802721
69	0xbc087656	-0.008328995
70	0x3cb5343b	0.022119632
71	0xbd49452f	-0.049138244
72	0xbdbb915c	-0.091585845
73	0x3d209ab3	0.039210033
74	0x3d787576	0.060658894
75	0xbdc16921	-0.0944388
76	0xbdc47055	-0.09591738
77	0x3c903c91	0.017607005
78	0xbc790e63	-0.015201184
79	0xbde2f4bc	-0.11081836
80	0xbdb5063d	-0.088390805
81	0xbdbd1ee7	-0.0923441
82	0xbcf7bde2	-0.03024191
83	0x3d1e6115	0.038666803
84	0xbcececf4	-0.028921582
85	0xbae24c55	-0.001726518
86	0x3ca573b0	0.020196766
87	0xbd196e80	-0.037458897
88	0xbd7ca9a3	-0.061685216
89	0xbdc87739	-0.09788365
90	0xbb44fdb5	-0.0030058448
91	0xbddb07a0	-0.10694814
92	0xbdc98d62	-0.0984142
93	0xbc3d8249	-0.011566707
94	0xbca3da38	-0.020001516
95	0xbd990129	-0.074709244
96	0x3d90748e	0.07053481
97	0xbdb3fdaa	-0.08788617
98	0xbd5355ec	-0.051595613
99	0xbc0e7e0f	-0.008697047
100	0xbc9587d4	-0.018253244
101	0xbdc9c2ff	-0.09851646
102	0xbbf2bec7	-0.0074079963
103	0x3d533cf8	0.051571816
104	0xbc3726b5	-0.011178662
105	0x3baf1579	0.005343136
106	0x3d1c9ba4	0.038234368
107	0xbc247a8c	-0.010038983
108	0xbdc9137e	-0.09818171
109	0xbdb7f2ce	-0.08981858
110	0x3c9a4878	0.018833384
111	0xbcd3d765	-0.025859544
112	0xbc5ad36e	-0.013356073
113	0xbb7be5de	-0.0038436572
114	0xbd934029	-0.07189972
115	0xbd51a833	-0.051185798
116	0xbd1eaf78	-0.03874156
117	0x3d8ba437	0.06818431
118	0x3d602632	0.054723926
119	0xbd6fa18a	-0.058503665
120	0x3d5fdde9	0.05465499
121	0xbb721d76	-0.003694383
122	0xbd8ff6ef	-0.07029521
123	0x3d3ca8f9	0.046059582
124	0x3b9540a8	0.0045548268
125	0xbdeab4ed	-0.1146029
126	0xbda19a99	-0.07890815
127	0x3d8aae5a	0.06771536

sequential.2.running_mean f4 [128]
0	0x3e4d8516	0.200703
1	0x3e82d4f1	0.25553086
2	0x3d351ca6	0.044216774
3	0x3d89c727	0.067274384
4	0x3e1649a2	0.14676526
5	0x3d3dc03b	0.046325903
6	0x3dcce000	0.10003662
7	0x3e44c46e	0.19215557
8	0x3e885908	0.26630425
9	0x3d7e9418	0.062152952
10	0x3e187ee5	0.14892156
11	0x3deb7d45	0.11498503
12	0x3d3fbbca	0.04680995
13	0x3db7c433	0.08972969
14	0x3f143f2e	0.57908905
15	0x3e79c050	0.24389768
16	0x3d3e7963	0.046502482
17	0x3c491705	0.012273555
18	0x3d8662ee	0.06561838
19	0x3f1b1b0a	0.60588133
20	0x3ea4147f	0.32046887
21	0x3e074aa5	0.13212068
22	0x3d89da2e	0.067310676
23	0x3e050ebb	0.129939
24	0x3e63440f	0.22193931
25	0x3e1670ec	0.14691514
26	0x3eb4f9c5	0.3534681
27	0x3d2468ca	0.040138997
28	0x3c943076	0.018089514
29	0x3eaa95c9	0.33317402
30	0x3cf00680	0.029299974
31	0x3d181dc0	0.037137747
32	0x3cdbb8c0	0.026821494
33	0x3e07105d	0.13189836
34	0x3e915149	0.28382328
35	0x3ca98c9c	0.02069693
36	0x3e785694	0.24251777
37	0x3c6be828	0.014398612
38	0x3e8d0e15	0.27549806
39	0x3dca1c6d	0.09868703
40	0x3d830da4	0.06399086
41	0x3dd02ca2	0.10164763
42	0x3a93b1bb	0.0011268178
43	0x3db70e40	0.08938265
44	0x3dbb9a7a	0.091603234
45	0x3f1826a2	0.5943395
46	0x3c52c578	0.012864463
47	0x3e2ea046	0.17053327
48	0x3ec7e29f	0.39040086
49	0x3da6c6ba	0.08143373
50	0x3f3742e7	0.7158646
51	0x3f938fb8	1.1528234
52	0x3d0037da	0.031303264
53	0x3d898aa2	0.06715895
54	0x3e676b9f	0.22599648
55	0x3cd77434	0.026300527
56	0x3e28e9a4	0.16495377
57	0x3e5c112a	0.21490923
58	0x3e1bcca6	0.15214786
59	0x3e66ecfa	0.22551337
60	0x3e1c15ca	0.15242687
61	0x3dc71e16	0.09722535
62	0x3d9bcafb	0.07607075
63	0x3c96216d	0.018326486
64	0x3e592b17	0.21207844
65	0x3ef1572f	0.47136828
66	0x3d2ad2e9	0.041705046
67	0x3e24c464	0.16090542
68	0x3cd51397	0.026010318
69	0x3debd2b6	0.11514799
70	0x3f3b0752	0.73058045
71	0x3d8e4066	0.06945877
72	0x3db2bc23	0.087272905
73	0x3e685332	0.22687986
74	0x3f2ce116	0.67530954
75	0x3d3a2d29	0.045453224
76	0x3e1c6687	0.15273486
77	0x3e1c9ad5	0.15293439
78	0x3d5dca0c	0.054147765
79	0x3e44e6c9	0.19228663
80	0x3dbff2d2	0.09372486
81	0x3d3c184c	0.04592161
82	0x3d92cdec	0.07168183
83	0x3e3df853	0.1855176
84	0x3d9b26e1	0.07575775
85	0x3dc6e358	0.09711331
86	0x3dd082c0	0.101811886
87	0x3d4aa1c2	0.04947067
88	0x3d6a658b	0.057225745
89	0x3da094f5	0.07840911
90	0x3dd9e54b	0.10639437
91	0x3d04c330	0.032412708
92	0x3d3471b6	0.044053756
93	0x3e0794ee	0.13240406
94	0x3e1caf0a	0.15301147
95	0x3e2d899c	0.16947025
96	0x3e0e72d8	0.13910997
97	0x3e0c6c4c	0.13713187
98	0x3cc8a0e9	0.02449079
99	0x3d272123	0.040803086
100	0x3f026fc1	0.5095177
101	0x3d021f98	0.03176841
102	0x3ca54c2f	0.020177929
103	0x3db9c3d0	0.090705514
104	0x3e8dc004	0.2768556
105	0x3ed3371f	0.41252992
106	0x3dd316b4	0.10307065
107	0x3db9ea8f	0.090779416
108	0x3e0b7751	0.13619734
109	0x3d0cf580	0.034413815
110	0x3d3637fa	0.044486977
111	0x3d9bf999	0.07615966
112	0x3eae624c	0.3405937
113	0x3cc02a1a	0.023457576
114	0x3dd50518	0.10401362
115	0x3e2cd69b	0.1687874
116	0x3dce1e65	0.10064391
117	0x3d05def1	0.032683317
118	0x3e12c8b1	0.1433437
119	0x3d11710c	0.0355082
120	0x3e57bf9e	0.2106919
121	0x3e85ab9c	0.2610749
122	0x3cd16104	0.025558956
123	0x3e4be6d3	0.19912271
124	0x3d8e14d9	0.0693757
125	0x3d4c625d	0.049898494
126	0x3d5c5519	0.053792093
127	0x3f470818	0.77746725

sequential.2.running_var f4 [128]
0	0x3e579e28	0.21056426
1	0x3eb9b986	0.36274356
2	0x3cd7b4ab	0.026331266
3	0x3d00a7fc	0.031410202
4	0x3e282645	0.16420849
5	0x3c9f8eff	0.019477366
6	0x3d9e4394	0.07727733
7	0x3e0e7a96	0.1391395
8	0x3e3d379c	0.18478245
9	0x3d782480	0.060581684
10	0x3e356eca	0.17718044
11	0x3da013dc	0.07816288
12	0x3d156d18	0.036480993
13	0x3d91373c	0.07090613
14	0x3f3dac3a	0.7409092
15	0x3e53e8c5	0.20694263
16	0x3caa9bb2	0.020826194
17	0x3bd32f6b	0.0064448616
18	0x3d1412ce	0.036150746
19	0x3f44f002	0.7692872
20	0x3e8c1156	0.27356976
21	0x3db183c3	0.0866771
22	0x3d045b03	0.032313358
23	0x3dc1e397	0.094672374
24	0x3e4901bc	0.19629568
25	0x3ddeda74	0.108815104
26	0x3e815bd6	0.25265378
27	0x3cbce2ce	0.023057368
28	0x3be2800a	0.006912236
29	0x3e9ceb1d	0.30648127
30	0x3c4dafb9	0.012554103
31	0x3cb3408b	0.021881362
32	0x3c9aa962	0.018879596
33	0x3e008224	0.12549645
34	0x3ec970e2	0.39343935
35	0x3c42acb5	0.011881997
36	0x3e3a7927	0.18210278
37	0x3bd8a887	0.006611887
38	0x3e876695	0.2644545
39	0x3d7cb23b	0.06169341
40	0x3d424032	0.047424503
41	0x3d91cdb7	0.07119315
42	0x39511113	0.00019938154
43	0x3db6979f	0.08915638
44	0x3d95df1e	0.07317947
45	0x3e899aec	0.2687601
46	0x3bb3a02c	0.0054817405
47	0x3de2ed7c	0.11080453
48	0x3ef98421	0.4873362
49	0x3d4eaf80	0.05046034
50	0x3f57b2fb	0.8425748
51	0x3fbd1e1c	1.4774814
52	0x3c67f658	0.014157854
53	0x3d42524f	0.047441777
54	0x3e1934a4	0.14961487
55	0x3c975a47	0.018475665
56	0x3dc98ba8	0.098410904
57	0x3e6f3f34	0.23363954
58	0x3e47fa63	0.19529109
59	0x3e317ef0	0.17333579
60	0x3dc8bbf5	0.09801475
61	0x3dc0a070	0.09405601
62	0x3d5fe7fb	0.054664593
63	0x3bf79886	0.007556024
64	0x3e3e811f	0.18603943
65	0x3ed67144	0.4188329
66	0x3cb354cf	0.021891026
67	0x3dc589f4	0.09645453
68	0x3c8a3cdf	0.016874729
69	0x3da18fc7	0.078887515
70	0x3fa8a898	1.3176451
71	0x3d86412e	0.06555401
72	0x3d85d04b	0.06533869
73	0x3e0ad13a	0.13556376
74	0x3f85f50b	1.0465406
75	0x3d0ff8b2	0.035149284
76	0x3ddd46bf	0.10804509
77	0x3e06fed5	0.13183148
78	0x3ce64f52	0.028113995
79	0x3e1db593	0.15401296
80	0x3db309b6	0.087420866
81	0x3cfa93ac	0.030587994
82	0x3db0af8f	0.08627235
83	0x3e1075ce	0.14107439
84	0x3d859536	0.065226
85	0x3d94a000	0.0725708
86	0x3d642b21	0.055705193
87	0x3cd52009	0.026016252
88	0x3d0ade04	0.033903137
89	0x3d28adad	0.041181255
90	0x3d846c33	0.0646595
91	0x3cb30551	0.021853121
92	0x3d29d9ea	0.041467585
93	0x3d9f8a36	0.077900335
94	0x3dc30c1d	0.09523795
95	0x3de9a22a	0.114078835
96	0x3e008083	0.12549023
97	0x3da34248	0.079716265
98	0x3c4db2f1	0.01255487
99	0x3d2151ed	0.03938477
100	0x3f205eb6	0.6264452
101	0x3c984170	0.01858589
102	0x3c337b75	0.010954727
103	0x3dadb0ad	0.08480964
104	0x3e55b908	0.20871365
105	0x3f003515	0.50080997
106	0x3d8991e2	0.06717278
107	0x3d852ee1	0.06503082
108	0x3ddb5d57	0.107111625
109	0x3ca6c4ff	0.020357607
110	0x3d2482d0	0.040163815
111	0x3d0d9231	0.034563247
112	0x3ede8dc8	0.43467546
113	0x3c812ec6	0.015769374
114	0x3db0675e	0.08613466
115	0x3de0df38	0.109800756
116	0x3d8d986a	0.06913836
117	0x3c664f4e	0.014056994
118	0x3de85618	0.11344546
119	0x3cce3074	0.025169589
120	0x3e4f7aab	0.20261638
121	0x3ebecbe6	0.37264937
122	0x3cb0eb8e	0.021596696
123	0x3ddd7580	0.10813427
124	0x3d9133a8	0.07089931
125	0x3cb98eef	0.022651164
126	0x3cd1495e	0.02554768
127	0x3f71fe72	0.9452888

sequential.3.weight f4 [2, 128]
0	0xbe466174	-0.19373113
1	0x3e1ea4b1	0.15492512
2	0x3e6b5d55	0.22984822
3	0xbe51316f	-0.20429014
4	0xbef1f460	-0.47256756
5	0x3ecfd33a	0.4059084
6	0xbe9159bb	-0.2838877
7	0xbcb86c1c	-0.022512488
8	0xbebc6802	-0.36798102
9	0xbebcd991	-0.3688474
10	0xbe5f80da	-0.21826497
11	0x3ee8a315	0.45436922
12	0xbec0056e	-0.37504143
13	0xbe8ae1da	-0.27125436
14	0xbdd92775	-0.10603229
15	0xbe1b1247	-0.15143691
16	0x3eae3076	0.34021348
17	0x3eab571a	0.3346489
18	0x3f1e881e	0.6192645
19	0xbe51e792	-0.20498493
20	0x3e80f274	0.25184977
21	0xbe44cd81	-0.19219019
22	0xbec14d8c	-0.37754476
23	0x3bf0ddc8	0.007350657
24	0xbec0b87a	-0.37640744
25	0x3e277505	0.16353233
26	0xbe59a122	-0.21252874
27	0x3f0d6591	0.55233103
28	0x3e824a75	0.2544743
29	0xbe7e9938	-0.24863136
30	0x3b9dc60f	0.00481487
31	0xbe4c201c	-0.19934124
32	0xbe9edbe9	-0.31027153
33	0xbe72349e	-0.23652884
34	0xbe588a8c	-0.21146601
35	0x3ebaf496	0.3651473
36	0x3e7b5f40	0.24548054
37	0xbe6fd1b8	-0.23419845
38	0xbe83d177	-0.25745746
39	0x3e52fd71	0.20604493
40	0x3ee735af	0.45158145
41	0xbe963295	-0.29335466
42	0xbe8cd574	-0.27506602
43	0xbe91fd56	-0.28513592
44	0x3e87ae6a	0.26500255
45	0xbeb34c5b	-0.35019192
46	0x3e734468	0.23756564
47	0xbd801721	-0.062544115
48	0xbe537165	-0.20648725
49	0x3ee807df	0.45318505
50	0xbdb6d504	-0.08927348
51	0xbdd6a8bf	-0.104814045
52	0x3e8eb756	0.2787425
53	0x3eea4288	0.45753884
54	0xbe957938	-0.29194045
55	0xbea7c932	-0.32770687
56	0xbe6f57b7	-0.23373304
57	0xbe929cd4	-0.28635275
58	0x3e757ecd	0.23974152
59	0xbe3aaafe	-0.18229291
60	0xbea2325a	-0.3167904
61	0xbe6bd4ff	-0.2303047
62	0xbea13586	-0.31486148
63	0x3e687ef7	0.22704683
64	0x3eaca5ae	0.33720154
65	0xbe8c0ff1	-0.27355912
66	0xbec03de6	-0.37547225
67	0x3dcd31fd	0.100193
68	0x3e669cda	0.22520772
69	0xbeafa4dc	-0.34305465
70	0xbe4f7041	-0.20257665
71	0x3e835766	0.25652617
72	0x3d142195	0.03616484
73	0xbeb0e939	-0.34552935
74	0xbe9746c2	-0.2954617
75	0x3ec1a6ae	0.3782248
76	0x3b19d313	0.0023471757
77	0xbe4629e8	-0.19351923
78	0x3e3e131e	0.1856198
79	0x3eb19fb4	0.34692156
80	0xbe8cb514	-0.27481902
81	0x3e924e70	0.28575468
82	0x3eb2b47d	0.34903327
83	0xbeda0050	-0.42578363
84	0xbeb9913b	-0.36243615
85	0x3e27fc97	0.16404949
86	0x3f16e9f0	0.5895071
87	0x3ec66fd0	0.3875718
88	0x3eb648c5	0.35602394
89	0x3e321399	0.17390288
90	0xbeaccedf	-0.3375158
91	0x3ed0b0f5	0.40760008
92	0x3edf1625	0.43571582
93	0x3eaa8c0f	0.3330998
94	0xbe873129	-0.26404694
95	0x3ec9f015	0.3944098
96	0x3da0fdc6	0.078609034
97	0x3e92887a	0.28619748
98	0x3ed3a3d5	0.4133593
99	0x3e954942	0.29157454
100	0xbe42b851	-0.19015624
101	0x3e272853	0.16323976
102	0x3e68050e	0.22658178
103	0xbebc20ef	-0.36743876
104	0xbe8ae472	-0.27127415
105	0xbe9b7021	-0.30358985
106	0xbead7924	-0.33881485
107	0x3eae689e	0.34064192
108	0xbe6ec51c	-0.23317379
109	0x3e154621	0.14577533
110	0x3e3c3f5c	0.18383545
111	0xbddaf317	-0.10690897
112	0x3e78b8bd	0.24289222
113	0x3ebceb45	0.36898246
114	0x3e116ed4	0.14202434
115	0xbebc0b3d	-0.36727324
116	0x3e684f69	0.22686543
117	0x3e8cd605	0.27507034
118	0x3c61d803	0.013784411
119	0x3e096e48	0.13420975
120	0x3deeae74	0.11654368
121	0xbe9c242a	-0.3049634
122	0xbe89da87	-0.26924536
123	0xbecb3178	-0.3968618
124	0x3ee5c52d	0.44876996
125	0xbe984403	-0.2973939
126	0x3e43b214	0.191109
127	0xbe972d2d	-0.29526654
128	0x3b0ba026	0.0021305173
129	0x3ecb1d22	0.39670664
130	0x3e1e78d7	0.15475784
131	0xbeae7b8c	-0.34078634
132	0x3c7c822b	0.015411894
133	0x3e3f5369	0.18684162
134	0xbe9ae889	-0.30255535
135	0xbeb168df	-0.34650323
136	0xbd1541b8	-0.036439627
137	0xbe3cc757	-0.18435417
138	0x3d9a1ea2	0.07525374
139	0xbd4f6738	-0.050635546
140	0xbe91aa6e	-0.2845034
141	0x3d43c15f	0.047791835
142	0xbe770a22	-0.24124959
143	0xbe87e05f	-0.2653837
144	0xbdc51871	-0.096238025
145	0x3c0e165d	0.008672324
146	0x3d8f3784	0.06993011
147	0x3e2cc857	0.16873299
148	0x3d0caad5	0.034342606
149	0xbeeba7f3	-0.46026573
150	0x3d034c4e	0.03205519
151	0x3eb17ec0	0.34667015
152	0xbde07b4e	-0.109610185
153	0xbe847c1d	-0.2587594
154	0xbe4416c4	-0.1914931
155	0x3dc978cb	0.098374926
156	0x3e9f346b	0.3109468
157	0x3e4f5294	0.20246345
158	0x3edbf758	0.42962146
159	0x3e85c74d	0.26128617
160	0x3e35632a	0.1771361
161	0x3ea58190	0.3232541
162	0x3cc4b580	0.024012327
163	0x3dde0bbe	0.108420834
164	0xbd5c3e04	-0.05377008
165	0x3e46ea9c	0.19425434
166	0x3d581137	0.052750792
167	0xbe51ffad	-0.20507689
168	0xbe0c5527	-0.13704358
169	0xbe4f2d9c	-0.20232242
170	0x3db01a60	0.08598781
171	0xbe0f8887	-0.14016925
172	0x3e7cdb86	0.24693117
173	0xbd2afdc6	-0.041745923
174	0x3e0d08b2	0.13772848
175	0xbeefb409	-0.46817043
176	0xbd0e8cf4	-0.034802392
177	0x3e25db00	0.16196823
178	0x3e9bd6e7	0.30437395
179	0xbde96bcd	-0.113975145
180	0x3db3e523	0.08783939
181	0x3dbafab2	0.091298476
182	0x3e04ff89	0.12988104
183	0x3e1aac32	0.1510475
184	0xbe914eb8	-0.2838037
185	0x3d001467	0.031269457
186	0x3c23fcf4	0.010009039
187	0xbec469a3	-0.38361844
188	0x3e8a39d9	0.2699726
189	0x3d208ccc	0.039196774
190	0xbc6a79a5	-0.014311229
191	0x3e1facf3	0.15593319
192	0x3dafe1e3	0.08588006
193	0xbd4ad0d3	-0.049515557
194	0xbd2112f9	-0.039324734
195	0xbe860246	-0.2617361
196	0xbe42d62f	-0.19027017
197	0x3cd75ae0	0.02628845
198	0xbd4a41e3	-0.04937924
199	0xbe51324f	-0.20429347
200	0xbed2d151	-0.4117532
201	0xbd97b8dc	-0.07408306
202	0x39f671fa	0.00047005696
203	0xbe78cf19	-0.24297751
204	0xbec2780f	-0.37982222
205	0x3eaee196	0.34156483
206	0x3eb0e14f	0.34546897
207	0x3da1849e	0.07886623
208	0xbe86e2db	-0.26344952
209	0x3cb4d522	0.022074286
210	0xbe560c73	-0.20903187
211	0xbcc4cd35	-0.024023632
212	0x3d9ed14c	0.07754764
213	0x3ec45e65	0.38353267
214	0x3c5a5b60	0.01332745
215	0xbd9a5e56	-0.075375244
216	0xbcc44308	-0.023957744
217	0xbe3bd452	-0.18342713
218	0xbccc2fe3	-0.024925178
219	0x3d489cbf	0.04897761
220	0xbbe7b234	-0.007070804
221	0x3e0cc1b3	0.13745765
222	0xbe2848ca	-0.16434017
223	0x3c4eaa78	0.012613885
224	0x3ebb17ff	0.36541745
225	0x3e00c6e1	0.12575866
226	0x3dd57891	0.10423387
227	0xbe057504	-0.13032919
228	0x3e213a70	0.15744948
229	0xbe6691e1	-0.22516586
230	0x3eabe49e	0.3357286
231	0x3d8a66b7	0.067578726
232	0xbe2c1511	-0.16804911
233	0xbe574d04	-0.21025473
234	0x3ac96925	0.0015366419
235	0xbc9d5546	-0.0192057
236	0xbded2aef	-0.115804546
237	0xbe405b46	-0.18784818
238	0x3e375b24	0.17905861
239	0xbeb6ed04	-0.35727704
240	0xbe2d9d4c	-0.16954535
241	0xbdb4b8b3	-0.08824291
242	0xbeb8d056	-0.36096448
243	0x3daf8956	0.085711166
244	0x3e3960f4	0.18103391
245	0x3e93f421	0.28897193
246	0x3f0ea984	0.5572741
247	0xbd9dea2d	-0.07710681
248	0x3eae5ac2	0.34053618
249	0x3e209b91	0.15684344
250	0xbeb30f4d	-0.3497261
251	0x3db33df0	0.08752048
252	0x3d40fc87	0.04711583
253	0xbde559c6	-0.111987635
254	0xbeb0fa3e	-0.3456592
255	0xbd327368	-0.04356709

sequential.3.bias f4 [2]
0	0x3d8f18df	0.06987166
1	0x3d47ab9a	0.048747636
